Saved_models/conv2_layer_64x64_91.pt (torch_old, 331528 bytes, 14 tensors)

weight f4 [10, 1, 5, 5]
000000 be 9b d9 bd 57 34 4e be 54 43 73 be 6a 8c c5 be
       -0.106254086 -0.20137154 -0.23756152 -0.3858369
000010 2a 5f 60 be 0a c3 f2 3d 0b 36 04 3e 81 49 a1 3d
       -0.21911302 0.11853607 0.12911241 0.07875348
000020 4e 4d 4d 3d 94 33 42 be 1d 56 1b bc b5 f4 e6 bd
       0.05012255 -0.18964988 -0.00948098 -0.11277143
000030 69 7b 25 3e bf 98 b8 3d ff 28 4d be f7 ed 18 3e
       0.16160358 0.09013509 -0.2003517 0.14934526
000040 d5 12 37 3e e5 f9 c4 3c 20 4b 53 3e b9 a6 d9 3d
       0.17878278 0.02404494 0.20634127 0.10627503
000050 a9 71 40 3e e2 d5 30 bb 7a 7c 1a bd 3a 08 6d 3e
       0.18793358 -0.0026982953 -0.037716366 0.2314767
000060 dd 60 cd 3d 92 8a c7 3d db d3 18 3e d2 e6 81 3e
       0.10028241 0.09743227 0.14924566 0.25371414
000070 4f 09 1e 3e 52 52 a1 bd 5e 97 ad 3c 1a 7d e7 bd
       0.15433238 -0.078770295 0.021190342 -0.11303158
000080 00 e6 7d 3e ac 69 dc 3d 22 39 79 bd 4f fb 8e 3d
       0.2479477 0.10762343 -0.0608455 0.06981527
000090 df 9e 85 3d 63 47 cb 3d 7d 1c 77 3e 33 71 57 3c
       0.06524443 0.09925725 0.24131961 0.013149547
0000a0 e9 92 8e be 69 ee a0 bd 0a ee 0a be c2 85 05 3e
       -0.2784646 -0.07857973 -0.13567367 0.13039306
0000b0 28 7f a5 3d 04 15 a2 be c9 9a 1c be 6b cf 64 be
       0.08080894 -0.3165666 -0.15293421 -0.22344749
0000c0 3b 77 93 bd 66 ff 86 be 31 60 ce be 55 db ca bd
       -0.07200476 -0.2636673 -0.40307763 -0.099051155
0000d0 30 42 79 be a7 dc 4a be 7f 20 2b 3c b2 7d 90 be
       -0.24341655 -0.19810735 0.010444759 -0.28220898
0000e0 17 4f 83 be 4f d8 5e 3d 20 b3 c3 bd fa 38 89 bd
       -0.25646278 0.054405507 -0.0955565 -0.067003205
0000f0 27 8c 98 3d c5 1f d5 3d 3c 25 10 bd f0 43 2c 3d
       0.07448607 0.1040645 -0.03519176 0.042056978
000100 f7 a7 da 3c 4a 04 83 3d 7b 80 ef 3d 50 8a 27 3d
       0.02669142 0.063973024 0.116944276 0.04090339
000110 38 16 f7 3c fe 47 cb bd 9c ac 30 3e 7a 86 9d 3d
       0.030161962 -0.09925841 0.17253345 0.07691665
000120 b4 5a 8a 3e 7a 0a 8a 3e 2f 9e 94 3e e8 80 c2 bd
       0.27022326 0.26961118 0.29026935 -0.09497243
000130 2c b4 4a bc f8 5b f6 3c 2b f4 3c bd d4 17 2a be
       -0.012372058 0.030073151 -0.046131294 -0.16610652
000140 94 d9 64 3c 2d 4f ef 3d 75 a6 ee bd 5f c1 c3 3d
       0.01396789 0.116850235 -0.11652843 0.09558367
000150 e5 0d 80 3e 8e 73 ae bd 60 4c 30 3c 0b 2e 4c 3e
       0.250106 -0.08518134 0.010760397 0.19939439
000160 f2 0a 3d 3e 65 40 d1 3d 2f a5 06 3e f1 81 5e 3e
       0.18461207 0.102173604 0.1314895 0.21729256
000170 19 24 61 bd f8 f2 11 bd 32 f1 e8 3d 79 54 4b 3e
       -0.054966066 -0.035632104 0.11374129 0.19856443
000180 ba 65 18 be fa 85 fc 3d 90 4e 19 be 58 ea 16 be
       -0.14882556 0.123302415 -0.14971375 -0.14737833
000190 b3 ce 17 3e 4b 01 19 3b 9d 98 b0 bc bb 0e 93 be
       0.14824943 0.0023346718 -0.021557147 -0.28722176
0001a0 31 b6 70 be 31 40 c8 bd 57 76 fb 3d af 36 f5 3d
       -0.23507 -0.097778685 0.12278431 0.11973321
0001b0 82 bf 42 bc 17 83 3a 3d 56 05 19 3e c0 1b 07 3e
       -0.011886479 0.045535173 0.14943442 0.1319418
0001c0 02 32 f8 3d b7 66 ed ba af 1e 53 be 20 f7 55 3e
       0.12118913 -0.0018112276 -0.20617174 0.20895052
0001d0 0d bc 58 3e 8d 60 29 3e 90 99 bc 3c 3d d5 93 be
       0.21165486 0.16540737 0.023022443 -0.28873625
0001e0 d1 e7 3d 3e 71 6b 52 3d 88 12 8c 3d e8 24 83 be
       0.18545462 0.051371995 0.06839472 -0.25614095
0001f0 2c fb b3 be 84 0c 4e be 74 2e 39 be c8 15 ec bd
       -0.35152566 -0.20121962 -0.18084127 -0.11527592
000200 09 67 b5 be fb 12 57 be 03 1a 48 3d e2 66 5c bc
       -0.35430172 -0.21003334 0.04885293 -0.013452264
000210 4f ca f0 3d 48 5c 60 be 2e e0 1c be 7e 9a 57 3e
       0.11757337 -0.21910203 -0.15319893 0.21055028
000220 63 5a ea 3d 1a f4 a2 3c 3b f0 74 bd 78 67 de bd
       0.11443021 0.019891787 -0.059799414 -0.10859579
000230 59 53 1b 3d 53 1c 97 3e 1a d8 76 bd aa 89 24 3d
       0.037921283 0.29513797 -0.060264684 0.04017035
000240 be bd 97 3d 82 fb 81 3e 17 0a 36 3c fa 8f 09 3c
       0.07409237 0.25387198 0.011110804 0.008396143
000250 ee 37 ce bc b0 4c 83 be 1c da ec bd f5 39 d4 bd
       -0.025173154 -0.25644445 -0.115650386 -0.10362617
000260 24 6d 08 be bd 92 39 3d dc f9 53 3e 89 7a 2d be
       -0.13322884 0.045305956 0.20700783 -0.16941275
000270 cd 8b 9a bc 2f 12 95 be 56 a6 af bd c8 03 80 3e
       -0.01886549 -0.29115435 -0.08576648 0.25002885
000280 4c 1b e4 bd e2 f4 58 3e 7c ba 2f be ed 62 56 bd
       -0.11138019 0.21187165 -0.17160982 -0.052340437
000290 83 4a e0 3d 0f 32 67 3e 56 54 e4 bd ad a8 d8 3a
       0.10951712 0.2257769 -0.11148898 0.0016529761
0002a0 db 3e 61 be c5 59 26 be 32 21 9b 3d a3 6f 8c 39
       -0.21996634 -0.16245182 0.07574691 0.00026786057
0002b0 20 88 e9 3d 1d 7d a2 be c0 8c d0 be 82 b9 6b be
       0.11402917 -0.3173608 -0.40732384 -0.23019984
0002c0 68 1c 01 be d3 c3 7c 3e 3a 25 81 3e e3 1d 54 3e
       -0.12608492 0.24684076 0.25223714 0.20714526
0002d0 0c 44 74 be 5e 8b 27 be c9 8a 2a 3e 37 1c c7 3a
       -0.23854083 -0.16361758 0.16654505 0.0015190904
0002e0 d2 f7 64 3e 91 7b c5 bd 15 f4 04 be 20 86 e1 3d
       0.22360161 -0.09642709 -0.12983735 0.110119104
0002f0 9e 2c 14 bd 1b 5d e2 3d e5 29 47 bd 58 8f 56 be
       -0.036175363 0.11052915 -0.048623938 -0.20953119
000300 19 44 d2 bd 9f 30 4c bd e6 fa 95 bd 99 f6 76 bd
       -0.10266895 -0.049851056 -0.07323246 -0.060293768
000310 d6 c0 d1 3d 4e a7 46 bd b4 cc bd 3d af 66 10 3e
       0.10241859 -0.048499398 0.0926756 0.1410167
000320 8f a1 02 3e 7d 67 10 3d 54 fb d2 bd a2 a8 a8 3d
       0.12756942 0.035254944 -0.10301843 0.08235289
000330 06 12 f1 39 17 51 0c be 6f ef 3b bd 53 f8 37 3d
       0.0004598053 -0.13702808 -0.04588264 0.044914555
000340 5d fa 93 bb 5c 5d 01 be de e7 0a 3e 7b 8e 0d be
       -0.0045159296 -0.1263327 0.13565013 -0.13823883
000350 2f 4d 63 be 28 a2 89 be 96 9b 58 be 41 ab ea 3d
       -0.22197412 -0.26881528 -0.21153101 0.11458445
000360 63 2c cd 3d 8c e5 e3 3d ad 35 11 bd 28 a2 b1 bd
       0.10018232 0.11127767 -0.03545158 -0.08673507
000370 ca 2d 98 3e 08 fc 97 3d cd 0a c9 bc 70 e2 1d be
       0.29722434 0.07421118 -0.024541283 -0.1541841
000380 53 f8 d4 3d 49 5d 33 3e c3 40 ad 3d d5 74 45 bd
       0.103989266 0.17516054 0.08459618 -0.048207123
000390 74 81 c7 3d 5a d8 b7 3e 75 be 27 3e 39 21 ab 3c
       0.09741488 0.3590725 0.16381247 0.020889865
0003a0 61 80 9d 3d 44 f7 c1 bd ab 34 61 3e 26 06 3b be
       0.07690502 -0.0947099 0.21992747 -0.18264064
0003b0 c1 c5 2a be 66 d1 53 be e1 50 33 be c6 3f 72 be
       -0.16677 -0.20685348 -0.17511322 -0.2365714
0003c0 65 71 4f 3e 5f dd 2e 3d ce 10 00 bd a8 9d 92 be
       0.202581 0.042691585 -0.031266026 -0.28635907
0003d0 d5 9d 14 be 3a 3a a4 bd 87 89 43 3e e2 cb e1 3d
       -0.14513333 -0.08018918 0.19095431 0.11025216
0003e0 d2 f4 15 3e 4f 10 0c be
       0.14644173 -0.13678096

bias f4 [10]
000000 24 06 f2 ba 80 ca 20 bc ce ad 35 bb 7f 70 61 bb
       -0.0018464965 -0.009813905 -0.0027722004 -0.0034399328
000010 f2 2a e9 bb d6 7e ea 3d cd 07 37 3e ec 47 18 bd
       -0.007115715 0.11449973 0.1787407 -0.037177965
000020 fb 47 6a 3e e9 b5 20 be
       0.22879021 -0.15694393

weight f4 [20, 10, 5, 5]
000000 85 cf ff 3c 54 74 8f 3d 0f a3 27 3e a0 2a a9 bd
       0.031226883 0.0700461 0.16370796 -0.08260083
000010 89 ce 83 bd bc 0a f2 3d 21 7e ee 3d d1 ea c2 3d
       -0.06435878 0.11818454 0.11645151 0.09517444
000020 25 d6 db 3d 5a 79 39 bc 96 0f bb bc 2c 24 c9 3d
       0.10734204 -0.011320436 -0.02283458 0.09821352
000030 cc c9 0e 3e 4f d5 0d 3e 73 e0 c3 bd a3 d8 c3 bc
       0.13944167 0.13850902 -0.09564295 -0.023907011
000040 ce d9 5c bd 38 92 5a 3d 50 2c c2 3d 21 17 05 bd
       -0.053918652 0.0533621 0.09481108 -0.03249276
000050 b8 7f d2 3d e3 ab a5 bd 63 f2 d3 bd 68 7e e1 3d
       0.10278267 -0.080894254 -0.10348966 0.11010438
000060 82 19 84 3e 23 56 bf 3d f0 cc 65 3d 59 43 ed bd
       0.2580071 0.09342601 0.056103647 -0.11585111
000070 62 22 cb bd 96 44 d7 bc 0a 66 c3 bd 2e 67 34 be
       -0.099186674 -0.026277822 -0.09540947 -0.17617485
000080 7b 57 fa bd 41 66 a8 be 19 de b5 bd 3c 5b 5e 3d
       -0.12223717 -0.32890514 -0.088802524 0.054286227
000090 fb d4 73 bd 03 c8 4e 3d ce 88 e0 bd 45 e1 69 bc
       -0.059529286 0.050483715 -0.109635934 -0.0142749
0000a0 5e 1e 22 be f9 63 83 bd 11 c8 1d 3c 1f d6 25 3d
       -0.15831897 -0.06415553 0.009630219 0.040487405
0000b0 7c 1c 69 bd 22 39 fb bd 83 c8 ce 3b 7e 8a b4 3d
       -0.05691193 -0.122667566 0.006310524 0.08815478
0000c0 58 90 a5 3d d7 7a 93 bd 5e dd bc bb d9 7b 4b bd
       0.08084172 -0.07201164 -0.0057636937 -0.049678657
0000d0 23 33 4e 3b 5d 61 51 bd 29 7a 13 bc c4 d8 39 3d
       0.0031463585 -0.051118243 -0.009001293 0.04537274
0000e0 62 50 93 3d 2d b7 91 3d fc b7 1c 3d 08 55 94 3c
       0.07193066 0.07115016 0.0382614 0.018106952
0000f0 c1 4f f8 bb 69 8c f0 3c 0b 8a f3 bc b2 f8 8a 3b
       -0.007577867 0.029363828 -0.02972891 0.0042410726
000100 86 40 d4 3c 54 81 b4 3c 24 39 45 3d b8 d0 22 3d
       0.025909673 0.022034325 0.048150197 0.03974983
000110 d2 3f aa 3b 93 b6 a5 bd b9 fb f6 3d 3c 48 e1 3d
       0.0051955963 -0.08091464 0.12059731 0.11000106
000120 23 13 82 3b bf 4d 84 bc f2 66 69 bd f7 29 89 bd
       0.0039695664 -0.016150353 -0.056982942 -0.06697457
000130 2b bc c6 bd a1 d1 8d bd ce be b7 bd 76 21 b6 bd
       -0.09703859 -0.06924749 -0.0897194 -0.08893101
000140 20 7e 26 bc 2b 88 14 bd ca 9a 95 bd d2 fd 8e 3c
       -0.0101619065 -0.036262672 -0.07304914 0.017455015
000150 0e 52 b4 3c 01 90 58 3d e0 db ff 3c 66 e2 bd 3d
       0.022011783 0.052871708 0.031232774 0.09271698
000160 28 aa ef bc 8d 03 e2 bc e4 fb e8 3b a5 72 90 bb
       -0.029255942 -0.027589584 0.007110106 -0.004408198
000170 ae 9c 3d 3d d3 b1 93 3d 39 da 80 3d 6c 16 e1 3d
       0.046292 0.07211652 0.06291623 0.10990605
000180 70 c9 ea 3d e0 3f a5 3d 38 39 9c 3d eb 18 88 3d
       0.114642024 0.08068824 0.07628101 0.06645378
000190 7b 43 1e bc a4 ba 57 3d a4 00 3a 3e 60 9f 1b bd
       -0.009659643 0.05266823 0.18164307 -0.03799379
0001a0 fc c3 81 bc c4 a9 7a bd 7c 92 53 3d 42 ff 68 3d
       -0.015840523 -0.061197057 0.05165337 0.056884058
0001b0 80 e4 1d 3d cb 58 17 bd db dd 4a bd e1 e6 d1 bd
       0.038547993 -0.036949914 -0.049527984 -0.10249115
0001c0 e2 3e 0d 3d 49 c2 2d 3e c7 a2 ff 3d 39 33 1b be
       0.034483798 0.16968645 0.12482219 -0.15156259
0001d0 f5 c0 14 be 3e 88 a7 3c 0c 56 78 3d b6 91 39 3e
       -0.14526732 0.020450708 0.060628936 0.1812199
0001e0 21 30 08 be 53 59 47 be 8e ba 90 bd 1a 24 a5 3d
       -0.1329961 -0.19467668 -0.070668325 0.080635265
0001f0 f2 59 4d 3e 01 66 86 3d c4 16 2f 3d e1 a3 15 3e
       0.20053843 0.065624245 0.04274632 0.14613296
000200 81 03 e0 3c 49 ce 27 3c 0e b7 2f 3d cb 61 ba 3d
       0.02734542 0.010242053 0.042899184 0.09100684
000210 39 15 ed 3d c7 e7 cd 3c 9f 76 c2 bd 14 fe 0b 3d
       0.115763135 0.025134934 -0.094952814 0.034177855
000220 75 49 aa 3b 50 e8 8c 3d dd b4 87 bb ad 58 8e bd
       0.005196745 0.068802476 -0.0041414336 -0.06950507
000230 2e 40 6d 3c ad 87 e9 bd 0e 4f 44 3b ab 47 52 3c
       0.014480634 -0.11402831 0.0029954347 0.01283447
000240 db 63 c0 3c da ee 63 3e b8 66 b5 bc f6 4a 8e bd
       0.023485115 0.22259083 -0.022143707 -0.069478914
000250 1b ed 54 bd 7b 75 ef bc a0 67 77 3d ab a6 c2 3c
       -0.051983934 -0.029230824 0.06040156 0.023761114
000260 e7 13 a1 3a cb 45 64 3d 8c e6 92 bd a8 c6 aa bc
       0.0012289257 0.055730622 -0.071728796 -0.02084668
000270 87 88 12 3b 23 2b a0 3d 00 d3 58 3d 65 af 9b bc
       0.0022359209 0.07820728 0.0529356 -0.019004533
000280 c9 e3 19 bd 5e d9 a7 bc ce c9 48 3d 84 61 34 3d
       -0.03757075 -0.020489391 0.04902058 0.04403831
000290 46 18 1f 3e 72 dc a1 3d 62 80 fe bd d4 83 55 bd
       0.15536603 0.07903375 -0.12426831 -0.052127674
0002a0 8a ca 83 bd 47 cd b7 3d 84 4f 0b bc e7 8e c3 bd
       -0.06435116 0.089747004 -0.008502845 -0.09548741
0002b0 78 59 e0 ba 24 1f f9 bd 57 9b 14 3d 01 12 16 bd
       -0.0017116508 -0.12164143 0.036280956 -0.036638264
0002c0 e1 35 19 3e 51 7b 1b 3d 1d 8d 09 bd d8 b0 6b 3d
       0.1496196 0.0379594 -0.03358184 0.0575417
0002d0 61 8a 6e bd bb 1e 3a bd 57 f4 c2 bd 09 e7 3b be
       -0.058237437 -0.045439463 -0.095192604 -0.18349852
0002e0 66 41 b0 3c d6 be c7 bc f0 e5 87 3c 51 9e 2d bd
       0.02151556 -0.02438299 0.016589135 -0.04238731
0002f0 c6 5a 04 be 1d 97 a1 bd ec f8 c3 bd e5 78 4e 3c
       -0.12925252 -0.07890151 -0.095689625 0.012602066
000300 2a 0a d1 3b 88 ef d8 bd 75 7a 89 be 53 fe 8d bd
       0.0063793855 -0.10592562 -0.2685124 -0.06933274
000310 c0 1e 84 3b 45 58 4f bd 51 5c 3b be cb f1 74 be
       0.004031986 -0.05062129 -0.18296935 -0.23920362
000320 86 f3 93 3d e5 6a bc 3d a7 24 57 3d a6 15 12 3e
       0.07224183 0.09200076 0.05252519 0.1426607
000330 ee f1 c7 3c cb 3f 8d 3d 56 b7 ef 3d 95 e1 40 3d
       0.024407353 0.06896933 0.117048904 0.04709013
000340 6a 10 17 3e eb 7d 5c 3c 7a db 8c bd d3 6b cd bd
       0.14752355 0.013457756 -0.06877799 -0.100303315
000350 b1 89 ca bd 98 33 86 3d 52 a0 3c 3a 58 b5 57 bc
       -0.09889544 0.065528095 0.00071955204 -0.013165794
000360 87 1f 1c be bd da 46 be 39 7d 9c bb d2 c7 a2 3d
       -0.15246402 -0.1941938 -0.00477567 0.07948269
000370 2e 58 2d bc 57 78 3e be 7a 61 5a be 8d 5a 3f be
       -0.010580106 -0.18600594 -0.21326247 -0.18686886
000380 f0 ff 86 3d d2 43 da 3d d7 a5 71 3d e3 30 15 3e
       0.06591785 0.10657467 0.058996048 0.1456943
000390 44 ce 21 3e 20 10 55 bd 87 c7 7e 3d a2 fd d0 bc
       0.1580134 -0.05201733 0.062202003 -0.025511567
0003a0 84 ad 4f bd 4a 68 6d 3d 53 eb 12 bd 0c f4 a8 be
       -0.050702587 0.057960786 -0.035868954 -0.32998693
0003b0 2f 56 5a be c6 0c 7e be 84 5d a3 3d cd 62 43 3e
       -0.21321939 -0.2480956 0.07976821 0.19080658
0003c0 20 a7 e0 bd bb a8 48 be bd 8d 86 be 3d 74 c0 bb
       -0.109693766 -0.19595616 -0.26280013 -0.0058732317
0003d0 f0 e5 da 3e e0 10 80 be bc 31 4e be ec 6d 73 be
       0.42753553 -0.25012875 -0.2013616 -0.237724
0003e0 23 c3 4c be 2b 30 47 3e b9 66 70 3d 04 cd 2d 3d
       -0.19996314 0.19451968 0.058691714 0.042431846
0003f0 b9 31 8d bd 0f 57 6c be e1 a2 fd bd 23 0d b3 3b
       -0.068942495 -0.23080085 -0.12384582 0.0054642125

bias f4 [20]
000000 8c fb 98 3c 32 be b8 3d 94 57 0a be cc 1b 10 3c
       0.018674634 0.09020652 -0.13509971 0.00879569
000010 66 b4 1d bd 5c f5 8b 3d c9 71 20 3d 83 e4 b9 bc
       -0.03850212 0.06833908 0.039171014 -0.02269197
000020 f8 88 d8 3d 1f 3e b3 3d 23 b2 16 3d 86 0c a1 ba
       0.10573 0.08752083 0.03679098 -0.0012287057
000030 7d 96 62 3c d6 c9 aa 3b 50 2a 13 3c 87 30 0b bd
       0.0138298245 0.005212049 0.008982256 -0.033981826
000040 ee c9 17 bd 5b fb 00 3c 8a 25 10 bc 2b 62 74 bd
       -0.03705781 0.007872428 -0.0087980125 -0.059663933

weight f4 [30, 20, 5, 5]
000000 8e f5 22 bd 80 ca ff bb 33 8f ec 3c 97 65 88 3b
       -0.03978496 -0.0078061223 0.028876876 0.004162501
000010 35 c5 99 bd 4a de 0d be af 4d 26 be 4a 98 96 bd
       -0.075083174 -0.13854328 -0.16240571 -0.073532656
000020 04 44 09 3d 2f ac ab 3c 1f 0d 9f bd 84 05 a7 bd
       0.03351213 0.020956127 -0.077661745 -0.08155349
000030 c4 75 7c bc 50 9f 09 3e c0 be 4f 3c f5 23 ea bd
       -0.015408937 0.13439679 0.012679756 -0.114326395
000040 dd b7 0c bd ac 19 15 bd a9 cc 1b 3e 59 7c 41 3d
       -0.034355033 -0.036401436 0.1521479 0.047237728
000050 55 c3 42 be b3 c7 1d bd 02 cd 45 3d 4c f4 06 3d
       -0.19019826 -0.038520526 0.048291214 0.032947823
000060 a2 43 9e bc 30 bb 96 bd cf ef f8 bd e9 5c 09 bd
       -0.01931936 -0.07359922 -0.12155115 -0.03353587
000070 27 08 ac 3c bb f9 82 bc ff ea cd bd 10 f0 81 be
       0.020999981 -0.015988221 -0.100545876 -0.25378466
000080 bd 4f d8 bd 47 ca cc 3c 48 e2 38 3d f9 e2 b0 bd
       -0.10562084 0.024998797 0.045137674 -0.086370416
000090 e8 81 70 be 8a 4f 0f be db 75 96 bc 5f d4 cf 3d
       -0.23487055 -0.13995185 -0.018366745 0.101479284
0000a0 46 16 5d be a0 4d 83 be 81 54 25 be 00 d7 4d bb
       -0.21590528 -0.2564516 -0.16145517 -0.0031408668
0000b0 2f 64 d4 3d b6 a3 63 be 05 aa 4d bd 3b 69 39 3c
       0.10370671 -0.2223042 -0.05021097 0.011316593
0000c0 cd 13 ea 3d 1a ff 3b 3e d5 b0 b2 3d d1 c7 58 be
       0.11429558 0.18359032 0.08725134 -0.21169974
0000d0 55 51 74 be d0 02 d6 bd ee 1a 44 3d 6e 6e c8 b9
       -0.2385915 -0.10449755 0.047877245 -0.0003822925
0000e0 44 5a 23 be 4d e6 9b bd 71 51 9d bd fe ba 3c ba
       -0.15952402 -0.07612286 -0.07681549 -0.0007199495
0000f0 46 48 90 3d 56 46 c2 bd 37 3b 92 3c a3 5d 56 3c
       0.07045035 -0.09486072 0.017850501 0.013083848
000100 99 3c c3 bc 4f dc 8f bc b4 98 de 3b b9 59 f2 3c
       -0.023832606 -0.017561106 0.006793106 0.029583799
000110 ce 16 77 bd c9 ba 12 be 99 e4 ff 3c 2d c4 c1 bc
       -0.060324483 -0.14329065 0.031236934 -0.023653114
000120 1d 97 e5 3d 78 b4 1a bc bc be 2a be a2 28 25 bd
       0.11210463 -0.009442441 -0.16674322 -0.040321954
000130 83 96 a8 3c 5e bc 9c bc 67 b4 64 ba 72 51 98 3c
       0.020579582 -0.01913279 -0.0008724392 0.018593524
000140 55 79 be 39 c9 10 91 3a 88 5a 5e 3c a7 b1 b9 bc
       0.00036330023 0.0011067624 0.013571389 -0.022667719
000150 5d 5b 27 bd 1a 0f 7c bc 94 6f c5 bb 2e ce f4 3c
       -0.040858615 -0.01538446 -0.006025264 0.02988347
000160 87 b4 7f 3c e8 de 0f bc 2b c8 a9 bc 76 cd 05 bd
       0.015607006 -0.008781172 -0.02072533 -0.032666646
000170 3f bb a1 3b be fd 04 3d 2b 04 fc 3c a2 9d 13 3c
       0.0049356516 0.03246855 0.030763706 0.009009751
000180 94 6b 84 bc b3 46 9d 3c 5e d7 af 3c 9f 31 a2 3c
       -0.016164578 0.019198751 0.021465 0.019799052
000190 2c d1 cc bd f1 ec 14 be 9b 26 4e be f6 0d 3a 3c
       -0.10000834 -0.14543511 -0.20131914 0.011355868
0001a0 b2 e3 61 3d ad 2e 31 3c fa 39 9d bd 6b e1 59 bd
       0.055148788 0.010814351 -0.07677074 -0.05319349
0001b0 ea e4 08 bd a6 db 6e 3d 70 51 af bd 1f 22 85 bb
       -0.033421434 0.05831494 -0.08560455 -0.0040629054
0001c0 ea 95 fc 3c a8 a2 b1 3b e0 7e 08 3d 7e df 87 bd
       0.030833203 0.0054210015 0.033324122 -0.066344246
0001d0 28 c4 a2 bc 22 d0 5d bc 40 cc 03 36 b1 7f a2 3b
       -0.019868925 -0.013538392 1.963941e-06 0.0049590697
0001e0 97 b3 7d 3d 30 df c7 3d fc 53 5c 3d 10 59 cf 3d
       0.06193885 0.097593665 0.05379103 0.10124409
0001f0 6a a7 c2 3d e2 bd b9 3b 36 8f 8f 3d 3a d2 5a bd
       0.09504588 0.0056683877 0.07009737 -0.053423144
000200 ef 09 8c bd b2 36 07 3d 48 aa 68 bd 69 c0 5b bc
       -0.06837832 0.033011146 -0.056803018 -0.013412573
000210 88 71 d8 bd 89 bd 1d be 28 8d b7 3b bd 03 f7 bc
       -0.10568529 -0.15404333 0.005601544 -0.03015315
000220 3b 0e 85 bd 5a 83 98 bd e7 48 02 be 63 07 da bb
       -0.06496855 -0.07446928 -0.12723123 -0.0066537126
000230 c7 bb 6f bd 3e f3 54 bd 42 e4 46 be 3e f4 39 be
       -0.058528688 -0.051989786 -0.19423011 -0.18159577
000240 43 62 ba bb 4c a8 cd 3d a0 b7 bb 3d bf de 48 3d
       -0.0056879832 0.10041866 0.09165883 0.049040552
000250 a2 28 6e bd ec 7f 32 3e ac 47 9c bd e1 0e de bd
       -0.05814422 0.17431611 -0.07630858 -0.10842682
000260 5e 4b d0 bd c0 8e 2c bd f7 51 22 3d a1 65 aa bd
       -0.10170625 -0.042128325 0.03962895 -0.083201654
000270 f2 28 32 be cc b1 86 bd 91 1a 10 bb 0c d0 ad 3d
       -0.17398432 -0.06576881 -0.002198849 0.084869474
000280 36 b7 b3 bc 8b 63 0d be 69 76 bf bd ca ec bb bd
       -0.021937948 -0.13807504 -0.09348757 -0.09176023
000290 a6 6d 08 3e dd aa 30 bd 29 af 04 be 19 95 e7 bd
       0.13323078 -0.043131698 -0.12957443 -0.11307735
0002a0 5d c0 a2 bd c6 fa 18 3e d7 7d a6 bd 98 83 38 bd
       -0.07946847 0.14939412 -0.08129471 -0.045047373
0002b0 f8 82 b2 bd 57 b0 8d bd af c3 39 3d ba b9 49 3c
       -0.087163866 -0.069184 0.045352634 0.012312347
0002c0 6b f8 66 be b6 67 ca bd 21 94 6f 3c 47 d7 75 bc
       -0.22555701 -0.098830625 0.014622719 -0.015004939
0002d0 c3 2c 0c 3d 73 ed 56 bd 99 2d a0 bd 85 3e fb 3c
       0.034222376 -0.052472543 -0.07821197 0.03066946
0002e0 aa 8d f5 3c f5 3a 89 bd 42 51 08 be 01 ae 1c be
       0.029974777 -0.06700698 -0.13312247 -0.15300752
0002f0 75 40 93 bd 4f 99 b9 3c e4 68 04 be 65 3d a9 bd
       -0.071900286 0.022656111 -0.12930638 -0.08263663
000300 ae a1 2c be 18 01 7d bd 1f 6f 8c 3d e0 3f 24 bc
       -0.16858551 -0.06176862 0.06857132 -0.010024995
000310 95 f5 4c bc 59 db 32 3d d6 76 cc 3d b0 5b 40 3e
       -0.012509723 0.043666217 0.09983604 0.18784976
000320 b5 57 09 3d e3 89 55 3d fc f3 de bd 28 b1 e9 bd
       0.03353091 0.052133452 -0.1088638 -0.11410743
000330 91 af 42 3d d5 0b 2f bd 3f a1 87 bd 01 94 2c be
       0.047530714 -0.042735893 -0.06622552 -0.16853334
000340 35 a3 5d be aa 01 6f bc c7 37 14 bc ab a1 d7 bd
       -0.2164429 -0.014587799 -0.0090465015 -0.105288826
000350 44 f0 5c be 6a 86 d0 bd 14 9a 52 3d e5 1b 32 3d
       -0.21576029 -0.101818874 0.05141647 0.043483634
000360 93 1d fe bd 3b 6e 63 be 3b e5 0c be 43 80 1c 3d
       -0.124079846 -0.22210018 -0.1375932 0.038208257
000370 8c 45 12 3e 9a 4c c4 3d 6c 0e d5 bc 77 e9 b6 3c
       0.14284343 0.09584923 -0.026007853 0.022328122
000380 0c 5e 33 3e 05 8e ed bd 17 3e 36 be ea e6 c4 bd
       0.17516345 -0.11599354 -0.17797123 -0.09614356
000390 58 50 54 3d 29 a2 76 bd bc f0 09 bd 22 ae ca bd
       0.051834434 -0.06021324 -0.033676848 -0.098964944
0003a0 7e fd f9 bd f5 b9 60 bd e4 62 9b 3c fc 39 01 be
       -0.12206553 -0.054864842 0.018968053 -0.12619776
0003b0 58 48 47 be 79 5a 49 be 49 ed 0f be d2 bf 7c 3d
       -0.1946119 -0.19663419 -0.14055361 0.06170637
0003c0 f4 94 54 be 2f 29 86 be 29 71 3b be 5c 6c 24 bc
       -0.20759946 -0.26203296 -0.18304886 -0.0100356005
0003d0 fa 2e 36 3e a7 a4 65 bd 0c cc 52 bd e1 83 35 3d
       0.17791358 -0.056065228 -0.051464126 0.044315223
0003e0 08 15 e6 3d 9c ae 52 3e 6a 4c 4a be 9d 9c 1f be
       0.1123448 0.2057442 -0.19755712 -0.15587087
0003f0 6e 69 43 bd 69 4f 99 3c 91 8e b4 bc f3 f8 fe bd
       -0.047707967 0.018714624 -0.022040637 -0.12449827

bias f4 [30]
000000 65 7d 18 3e ec b9 b8 3c 41 90 5e be 48 e3 a6 3d
       0.14891584 0.022549592 -0.21734716 0.08148819
000010 46 4a 98 be c1 a2 38 be 80 a1 63 be 78 09 58 3e
       -0.29744166 -0.18030836 -0.22229576 0.21097362
000020 13 7c c5 3d dd 9d 91 be 64 8d f0 bd 24 7f 87 3c
       0.09642806 -0.28440753 -0.11745718 0.016540118
000030 ff e2 8e be eb 6b 55 bd a2 d1 0e be 00 ed 97 be
       -0.2790756 -0.05210487 -0.13947156 -0.29673004
000040 0f e9 52 3e 3c ab 22 be 17 5e 43 3e df b1 79 be
       0.20596717 -0.15885633 0.19078861 -0.24384259
000050 2a 16 96 be 6a 12 26 be 34 a4 46 be bf c3 b3 be
       -0.29313785 -0.16217962 -0.19398576 -0.3511028
000060 e8 0f 8d 3c 8e 8a 63 bd ba f3 29 be a5 14 3f bb
       0.017219499 -0.055552058 -0.1659688 -0.0029156592
000070 a5 d8 dd be 67 f8 47 bc
       -0.4332935 -0.01220522

weight f4 [100, 480]
000000 36 82 55 3d d8 e4 28 3e e2 83 31 bc 8a f8 96 3d
       0.052126132 0.16493547 -0.010834666 0.07371624
000010 44 a8 9f bc fd ae b0 bd 8e e4 43 3d 8e 11 38 3e
       -0.019489415 -0.08627126 0.04782539 0.17975447
000020 15 f9 a1 3c 3a e8 2d be 14 04 9c bd 1d c5 18 3e
       0.019772092 -0.16983119 -0.07617965 0.14918943
000030 91 b8 91 bd 27 d1 40 bd 7c c1 15 be 71 4c 24 3d
       -0.071152814 -0.047074463 -0.1462459 0.040111963
000040 8c c2 41 3d 9c 19 84 39 68 c2 32 bc dd 77 d0 bc
       0.047304675 0.00025196082 -0.010910608 -0.02544778
000050 78 d7 b9 3d 76 94 86 3d c6 c2 30 3d ee a5 82 bd
       0.090743005 0.065712854 0.0431545 -0.06379305
000060 28 ff c8 bc d5 22 12 bc 30 66 4c ba 2d ff 91 bb
       -0.02453573 -0.008919437 -0.00077972095 -0.004455468
000070 c1 1d d3 3d df 77 1d bc ac df 80 bd df 86 48 3d
       0.103084095 -0.009611099 -0.06292662 0.048956748
000080 68 0b 66 bc fd 3e 8c 3d 00 1e d4 bc 3c fd a9 3d
       -0.014040805 0.068479516 -0.025893211 0.08300254
000090 58 87 68 bd de a4 f4 ba f9 60 de 3c 2b ea bf 3c
       -0.0567697 -0.0018664857 0.02714585 0.02342709
0000a0 ed 35 9f bd a6 f1 e4 bd 08 d3 3b be 8a 37 18 bd
       -0.077739574 -0.11178903 -0.18342221 -0.03716234
0000b0 a4 8c 2e 3d ac e4 e8 3c 42 80 b7 bd 59 f3 42 be
       0.042614594 0.028429352 -0.0896001 -0.19038142
0000c0 c5 44 d4 3c b7 11 b7 bd 14 59 71 3d 07 ce 1e bc
       0.025911698 -0.08938926 0.058922842 -0.009692675
0000d0 b4 89 40 3c be 75 52 be d2 46 39 3c f8 6a 48 3d
       0.011751581 -0.20552728 0.011308389 0.04893014
0000e0 4e d7 49 bc 88 78 b5 bc fe 6a e2 bc ab bb 84 bc
       -0.012319399 -0.0221522 -0.027638908 -0.016202768
0000f0 e0 e9 b4 bd cb d2 81 3c 1a e7 22 bc 08 37 66 3d
       -0.088336706 0.015847584 -0.009942794 0.056204826
000100 51 b0 c5 bc 73 fa d9 ba db 57 92 bd de 35 c9 3d
       -0.024131926 -0.0016630426 -0.07145663 0.098247275
000110 fa 57 8b 3d cf 65 1a 3d b9 d6 4f bd 7e 55 f1 3d
       0.068038896 0.03769475 -0.050741885 0.117838845
000120 b4 05 06 3d 59 2f b6 3b cb e6 7b bd bd 7d bd 3d
       0.032720283 0.0055598435 -0.0614994 0.09252498
000130 12 0d 27 be 7e a7 a7 bd df 92 7d bd 84 03 31 3d
       -0.1631358 -0.081862435 -0.061907645 0.043216243
000140 c2 f8 9e bd 1d e1 f0 bc 46 c6 e8 3c 51 3c 40 3d
       -0.077622905 -0.029404217 0.028414857 0.046932522
000150 71 b8 a4 bd a2 1e 0c be e0 94 ff bd 9e 96 25 3d
       -0.08042992 -0.1368356 -0.124795675 0.040426843
000160 ad 69 b5 bd e2 f8 53 bc d5 d8 1d 3d be 1b 03 3d
       -0.08858047 -0.012937756 0.038536865 0.03200888
000170 6a 23 2b bd aa 13 c5 bc 6e da a6 3c f9 23 dd 3d
       -0.04178182 -0.024057228 0.020367827 0.10797877
000180 dc 59 a4 3d 40 34 a6 3d 66 96 a6 3d 5c 4b 86 3d
       0.08024952 0.08115435 0.08134155 0.065573424
000190 70 7b 8b 3d cd 8e a0 3d de 84 a3 bc 39 40 04 3d
       0.06810653 0.07839737 -0.019960817 0.03228781
0001a0 49 9b ca bd 1e e0 d2 bd a4 db 18 be 55 73 90 3d
       -0.098928995 -0.10296653 -0.14927536 0.07053248
0001b0 89 78 9a 3c 31 81 9c 3d cf d5 f4 bd 7e 73 dd bd
       0.018856304 0.07641829 -0.11954843 -0.10813044
0001c0 85 b5 f1 bd b1 c3 13 3d 89 7b 25 3e c7 01 a3 3d
       -0.118022 0.036075298 0.16160406 0.079593234
0001d0 b3 08 c3 bd 36 07 da bc 10 34 d3 39 5a 7d 47 3d
       -0.095231436 -0.026614767 0.00040283846 0.04870353
0001e0 09 46 83 bc 3b fc ba bd 83 a0 86 3d 25 06 31 be
       -0.016024606 -0.091301404 0.06573584 -0.172875
0001f0 60 54 cb bc 32 7a 45 bd fc b0 2f bd bc cb d9 bd
       -0.024820507 -0.048212238 -0.042893395 -0.106345624
000200 36 7c 1f bd 7c 30 8b bc 99 72 90 bc 9a 94 05 3d
       -0.038936816 -0.016990893 -0.01763277 0.03261242
000210 5f 5d 77 bd 11 73 b7 bc 50 15 05 be 9e 5a 3a 3d
       -0.06039178 -0.022393735 -0.12996411 0.045496576
000220 11 49 9e bc 62 7d 77 3d 50 28 d9 3c c4 05 2f 3d
       -0.01932195 0.06042231 0.02650848 0.042730108
000230 c3 54 9c bc 36 f8 8e 3d b5 f5 9a bc f8 17 d0 3d
       -0.019083386 0.06980936 -0.01891599 0.10160822
000240 40 2a e6 37 72 41 ff 3c 77 9e 57 3c 31 db d3 3d
       2.743781e-05 0.031159136 0.01316034 0.10344542
000250 a0 d4 73 3c 45 26 0c 3d ce fc 6c bd 9a 47 d2 3d
       0.014882237 0.034216184 -0.05785828 0.10267563
000260 cb 5b 3b 3d 21 92 8d bd 77 f3 9e bd 15 8a 52 bd
       0.045741837 -0.069126375 -0.07761281 -0.051401217
000270 9e ca 62 be 63 7a 24 be 66 11 8e bd 39 71 08 bd
       -0.22147605 -0.16062312 -0.06936912 -0.033311103
000280 84 5b 86 3d 58 7b 49 bc 47 54 51 3d d3 3d 0f 3d
       0.06560424 -0.012297474 0.051105764 0.03497107
000290 30 7b ae ba a3 ce 9f 3d 56 d8 c4 bc 3f 03 7a 3d
       -0.0013311859 0.07803085 -0.024028938 0.061038252
0002a0 bf cb 98 3c e2 c7 85 3d 99 1a 20 bd df 20 40 3d
       0.018651841 0.06532265 -0.039087866 0.04690635
0002b0 2e 45 f3 bd 0d 8d 8d bd b7 8e 63 bd 67 59 97 3c
       -0.11878429 -0.06911669 -0.055556025 0.018475248
0002c0 5e 1e d2 bc dd 3e 04 bc ac 69 92 3b 5c 52 31 3d
       -0.025649246 -0.008071628 0.0044681635 0.043291435
0002d0 d9 86 ea 3b 9e 6b 26 be 6c 79 85 bd 82 2e 2c bd
       0.0071571884 -0.1625199 -0.065173 -0.04203654
0002e0 aa 19 e6 bd 69 d1 72 bd 29 72 71 3c dc 39 ae 3c
       -0.11235364 -0.05928174 0.014736691 0.021267824
0002f0 48 6d e1 bd e4 85 ae 3d 2a f4 53 bd 11 24 32 3e
       -0.11007172 0.08521631 -0.051746525 0.1739657
000300 e2 59 fe 3c a5 7b af bd b5 72 4a bd 5d a2 98 3d
       0.031048719 -0.08568505 -0.0494258 0.07452843
000310 75 97 96 3d aa ab 3f bd 98 05 7d bc e8 99 14 3d
       0.07353107 -0.04679457 -0.015443228 0.03627959
000320 76 cf ab bb 84 15 7e bd 94 f3 4a bd d3 03 4e 3c
       -0.005243237 -0.062032238 -0.0495487 0.012574154
000330 50 3d 28 be 71 c5 4d bc e9 ed d2 bb 44 0f 49 3d
       -0.16429639 -0.012559281 -0.0064370525 0.049086824
000340 09 31 8e bd c9 7f c0 bc 8f d0 e0 bd a5 db 71 bd
       -0.069429465 -0.023498433 -0.109772794 -0.05904736
000350 f1 a0 c4 bc a2 61 92 3c dd 21 20 3d 7d 6c 95 3d
       -0.024002524 0.01786882 0.039094795 0.07296083
000360 f0 bd 1f 3d 54 90 f7 bc 17 b5 20 bd 6f c1 3c 3c
       0.038999498 -0.030220188 -0.0392352 0.011520728
000370 0b b3 42 bc d3 88 8e bd bf cb 9b 3d 2d 39 d4 3d
       -0.0118835075 -0.06959691 0.07607221 0.10362468
000380 30 ba 80 3d 01 50 10 be 9e df 73 3d 21 40 b2 3d
       0.062855124 -0.14093019 0.05953943 0.08703638
000390 2a 93 27 3d 8e c6 87 bb 38 e3 7a bd ac 7f 38 bc
       0.04091183 -0.0041435426 -0.06125185 -0.011260908
0003a0 54 0d d0 bd 86 58 0c be 3c b6 fd bc 02 cd a8 3c
       -0.10158792 -0.13705644 -0.030970685 0.020605568
0003b0 b3 ff 50 be eb 60 5a bc 6e 13 a9 3c ab f1 24 bd
       -0.20410042 -0.013328771 0.020639148 -0.040269535
0003c0 17 79 ff 3d 90 2f 16 bd 65 40 d4 bc 7a 30 23 3e
       0.12474268 -0.036666453 -0.025909612 0.15936461
0003d0 fc 29 a0 3c 4a 0f f1 3a e3 fd 77 bc 00 96 c4 bc
       0.01955127 0.0018391397 -0.015136215 -0.023997307
0003e0 51 49 ce bd d8 34 68 3c db dc a3 bc 1a fb 85 3d
       -0.10072578 0.014172755 -0.020002773 0.065420344
0003f0 be 2d 32 be dd 86 a6 3d d6 a3 cc bd 8a c5 66 3d
       -0.17400262 0.08131192 -0.09992187 0.05634073

bias f4 [100]
000000 62 17 fb 3d 09 bb 8f 3e e7 13 07 3e 79 49 1c bd
       0.12260319 0.28072384 0.13191186 -0.038156006
000010 a7 4d 9b 3d b1 c1 fd bc 3a d4 c1 be 5d 91 0c bf
       0.075831704 -0.030976148 -0.3785723 -0.54909307
000020 c3 fa c6 3d 2e 7f 27 3c 9b d6 ec 3e 3f c2 a7 3e
       0.09715798 0.010223193 0.4625748 0.32765386
000030 47 95 7c 3e 27 00 ac 3e 50 5d a2 3e 84 d5 af 3d
       0.2466632 0.33593866 0.31711817 0.08585647
000040 09 56 16 3e 35 98 07 ba 46 1b 12 3e cc 5f 68 3c
       0.14681257 -0.0005172522 0.14268216 0.014182996
000050 4b c7 5c bd 8c ae a3 3e 43 12 e7 3d 05 47 76 3e
       -0.053900998 0.31969106 0.1128278 0.2405053
000060 21 5d 2d 3c be 94 02 bd 03 15 5f bd 18 75 78 bc
       0.010581286 -0.031880133 -0.054463398 -0.015164636
000070 c6 9f 96 be f6 b8 71 3e 2b e4 c1 3d 88 71 81 3e
       -0.29418772 0.23605713 0.09467348 0.2528193
000080 51 96 08 3f dd b6 6f 3e a2 c5 ec 3d 9a b1 b0 be
       0.53354365 0.234096 0.11561133 -0.345105
000090 78 30 73 bd 09 48 46 3e fb c2 ab 3d ee 63 38 be
       -0.059372395 0.19363417 0.08386799 -0.1800687
0000a0 13 6f 86 3e 46 ef 7b bd 03 84 11 3e 4b fc 2a bc
       0.26256618 -0.061507486 0.14210515 -0.010436128
0000b0 f8 0d 5f 3d 9c 1d 8b 3e 57 d3 08 3e e1 26 1e 3e
       0.05445668 0.27171028 0.1336187 0.15444519
0000c0 3b af 3c 3e 28 86 9d be c4 81 02 3e 59 83 d4 3d
       0.1842622 -0.30766416 0.12744814 0.10376615
0000d0 60 5d 5c be b1 24 2e 3e 52 bb 6a 3c b3 e0 2f be
       -0.21519995 0.17006184 0.014326887 -0.1717556
0000e0 4e d0 50 3e 2b 83 e7 3d 2c a0 d9 3e 9f 53 c8 3e
       0.20391962 0.11304315 0.42505014 0.39126298
0000f0 cb ee af 3e cb 54 14 bd 44 9c 65 3d 79 8f e5 3d
       0.34361872 -0.036213677 0.05605723 0.11209006
000100 f3 2c 05 3e 76 5a 97 3e 73 e0 9e 3e fe 35 86 3e
       0.13005428 0.29561204 0.31030616 0.26213068
000110 62 81 1a 3c f9 32 e6 bd 5e 3e 3b 3e 4f e9 0e 3e
       0.009430261 -0.11240191 0.1828551 0.13956188
000120 dd 08 39 3d 24 59 16 3e e6 71 a5 bd 29 1e 71 bd
       0.04517447 0.14682442 -0.08078365 -0.058866654
000130 db ae 57 3e f7 ce b7 3e 02 94 22 3c 2d b3 21 be
       0.21062796 0.3590009 0.009922983 -0.15791006
000140 93 68 2b 3e 90 3d 20 be ac 24 35 3e 42 83 90 3c
       0.1673911 -0.15648484 0.1768977 0.017640714
000150 b0 04 02 3e b4 9c b5 3d 85 6e 61 be ff 9d c1 3e
       0.126971 0.088677794 -0.22014816 0.37815854
000160 8d 82 5c 3e e9 30 9f be 43 a6 fe 3d f7 ca ac bd
       0.21534176 -0.31092003 0.12434056 -0.0843715
000170 e5 e7 37 3e 04 1a 4f 3d fa e9 f4 be 5e 2f 3e 3e
       0.17959554 0.05056192 -0.4783476 0.18572757
000180 cd 25 b1 bd 02 53 b2 3e 40 be 9a bd 8a 7b 4c bd
       -0.08649788 0.34828955 -0.075558186 -0.049922504

weight f4 [80, 100]
000000 5d 13 8d 3c 7b 32 8a bd 0a 32 8f bd 52 f3 c4 bd
       0.017221147 -0.0674791 -0.06991966 -0.09616722
000010 43 e9 df 3d 75 b2 68 bc dc ff f2 bd 1c c8 05 3c
       0.10933163 -0.014202704 -0.118652076 0.008165386
000020 e1 c4 9b 3d 5b 94 20 3d d0 57 b0 bd f2 86 40 3d
       0.07605911 0.039203983 -0.08610499 0.047003694
000030 d6 fc ee bd 8c ff 2a 3b ae d5 bc 3d 6e 62 80 3d
       -0.116693184 0.002609226 0.09220444 0.06268774
000040 af 35 2f bc 60 d1 b6 3d f9 08 eb 3d ee 53 76 3d
       -0.0106939515 0.08926654 0.11476321 0.060138635
000050 30 9e a0 bb cf 7c 7e bd cd 4a f7 3c 29 ab 9e bc
       -0.00490167 -0.062130746 0.030187035 -0.019368725
000060 34 97 96 3d 97 17 52 3d 23 03 c2 3d 71 80 5f 3c
       0.073530585 0.05129203 0.094732545 0.013641463
000070 1e c3 07 bd 7c 83 cd 3c 27 92 be 3d bd 7e 00 be
       -0.033145063 0.02508711 0.0930522 -0.12548347
000080 6b 28 15 bd 63 6a 93 3b c2 25 0d 3c 48 b7 2e bd
       -0.0364155 0.0044987663 0.008614959 -0.04265526
000090 a3 3b ab 3d 53 8a ed bc 14 0d 91 bd be 35 b1 bd
       0.08360984 -0.028996622 -0.070825726 -0.08652829
0000a0 67 ed ef ba 16 b2 44 bd 19 16 27 3e a4 46 bb bd
       -0.0018305004 -0.0480214 0.16317023 -0.09144333
0000b0 00 20 29 3e 35 ed 37 be 91 19 23 3e b5 bf 20 3d
       0.16516113 -0.17961581 0.15927722 0.039245326
0000c0 15 fe e3 bd dd 29 24 bd 2f bd 36 3d b9 b6 ba bd
       -0.11132447 -0.040078986 0.044614013 -0.09116883
0000d0 95 d7 ac 3d 3e 09 c6 bd 54 84 c4 bc f7 67 04 3c
       0.084395565 -0.096697316 -0.02398888 0.008081428
0000e0 b9 75 1e be 91 af ff bd a0 98 97 bd 8a 36 5a 3b
       -0.15474595 -0.124846585 -0.07402158 0.0033296668
0000f0 b9 0c 0f bd 78 fb 6d bd e2 16 35 be ef ab 3f 3c
       -0.034924243 -0.058101147 -0.1768451 0.011698707
000100 12 8c ed 3d 28 84 85 3c 30 3e fc 3c 05 87 cf bd
       0.11598982 0.016298369 0.030791372 -0.10133175
000110 ff 98 8e bd 54 f0 b2 3c e3 9b 23 3d 35 c4 6c bd
       -0.069627754 0.021843113 0.039943587 -0.057804305
000120 10 c9 c4 bb ff d3 b3 bd aa 56 b4 bd 20 ef 27 bd
       -0.006005414 -0.087806694 -0.08805592 -0.04099953
000130 81 d0 aa 3d 36 1c 42 bd 62 ec 2d bd 4f 55 be 3c
       0.0834055 -0.047390185 -0.04246176 0.023234038
000140 43 2a c6 3d d9 f9 63 3d 11 5e 0c be 35 c5 e1 3d
       0.096760295 0.055658195 -0.13707758 0.110239424
000150 1f 85 0f bd fa 3d ad 3d be d9 bd bd 25 3d ae bd
       -0.035039064 0.08459087 -0.09270047 -0.08507756
000160 ea 4a e0 3d 68 4a aa 3d 2e 45 bc bb de be 70 3d
       0.10951789 0.08314973 -0.0057455515 0.058775775
000170 57 14 88 3d 98 74 e2 bd 58 9c 1e bd 5d 49 84 3d
       0.066445045 -0.11057395 -0.03872332 0.064593054
000180 bb a2 1b 3e f4 f5 55 3e 58 74 31 3b 33 1c 0d be
       0.15198795 0.20894605 0.0027077403 -0.13780288
000190 7c 0c d2 3b f5 fd 84 3d 4c c9 24 bc 0e b1 9b 3d
       0.0064101797 0.06493751 -0.010057759 0.0760213
0001a0 f3 2b 3e bd c5 2e d5 3c 3d 2b 6d bd d2 dd 04 be
       -0.046428632 0.026023278 -0.057902563 -0.12975243
0001b0 4a 25 2d 3d a0 29 2b ba 21 ad 0f be b4 61 09 3d
       0.04227189 -0.0006529335 -0.14030887 0.033540443
0001c0 ad 07 c1 3c c5 a8 f7 bd 97 89 30 3e 11 fa a3 3d
       0.02356323 -0.12092737 0.17239986 0.08006681
0001d0 37 af ea bc 3b da df 3c 3a 62 37 bc 1b c1 4a 3d
       -0.028648002 0.02732574 -0.011192853 0.049500566
0001e0 7f b0 ec bd 99 61 a7 3d d7 b3 27 bd ba 8c 62 3c
       -0.115571015 0.08172912 -0.040942993 0.013827497
0001f0 0b b0 01 3d c6 92 c7 bd 31 85 98 bd 45 34 10 3d
       0.03166203 -0.09744792 -0.07447279 0.035206098
000200 df 8b 0d bd 6e f2 c4 3d 1c 8d 98 bd 76 ca c2 3d
       -0.03455722 0.09616552 -0.074487895 0.095112726
000210 1d d1 80 3e 3a 37 cb bc db 35 e3 bd 80 3e e1 bd
       0.2515954 -0.024806608 -0.110942565 -0.10998249
000220 b7 79 64 bb 86 f6 17 3e b6 de 7d be d0 eb e7 bc
       -0.0034862587 0.14840135 -0.24791989 -0.028310686
000230 42 bf 49 be de 58 e0 3d 38 96 cc bc 5b 01 d1 bd
       -0.19701865 0.1095445 -0.024973974 -0.10205337
000240 07 ca 9d bc 26 af 8d bd 22 e1 1f be 0a 4e 0e 3e
       -0.019261373 -0.069181725 -0.15613225 0.13896957
000250 92 25 0f be 08 08 aa bb be 95 8e 3d 0d cf ee bd
       -0.13979176 -0.0051889457 0.06962155 -0.116605856
000260 c0 10 08 be bc 2b e4 bc 8e b3 ca bc 1b 23 54 bc
       -0.1328764 -0.027852885 -0.024743821 -0.012947823
000270 39 15 46 3b c4 b6 04 3e e1 44 58 3e 19 5a e4 3c
       0.0030225052 0.12960345 0.21120025 0.027874993
000280 c8 55 72 bd 6a 66 e5 3d a8 ac 34 bd e4 4d 3f be
       -0.05916384 0.112011746 -0.04410997 -0.18682057
000290 b7 01 8c bd cb f4 0c 3d 23 d9 77 3d a0 d7 8b bd
       -0.068362646 0.03441314 0.060509812 -0.068282366
0002a0 1f 10 d9 3d 05 15 c0 3d 96 dc 1a 3d 87 b1 ba bd
       0.10598778 0.09379009 0.037808023 -0.09115892
0002b0 26 1e d0 3c d7 86 02 be 7b a4 bc bc f9 22 4c be
       0.025405 -0.1274675 -0.02302765 -0.19935216
0002c0 9d 02 de bd 13 d1 9b bc 8b d1 07 3e 11 60 b6 3c
       -0.10840342 -0.019020593 0.13263528 0.022262605
0002d0 ce 53 28 bd fa 8e 64 be c2 c4 62 bb f0 66 47 3d
       -0.041095547 -0.22320166 -0.003460214 0.048682153
0002e0 27 1d 7b 3d 2b 07 97 bd 5d a0 8d bc 3d 3a 25 3e
       0.0613071 -0.07374414 -0.017288381 0.16135497
0002f0 3f 53 21 be db ee 00 be b9 9f 77 3e 4d a4 44 bc
       -0.15754412 -0.12591116 0.24182023 -0.012002063
000300 e4 7b a2 3d 9a 72 67 bd 44 6a 8a bd 1d 48 43 bd
       0.079337865 -0.056505777 -0.0675855 -0.047676194
000310 02 f6 0c bc 53 6e a7 bd 7e 4f 9a bd 50 63 57 be
       -0.008603575 -0.081753395 -0.07534693 -0.21033978
000320 ce 3d 31 bb 63 1c 08 3e 5c 17 37 be 57 14 83 bd
       -0.0027044895 0.13292079 -0.17880005 -0.06400364
000330 95 e3 4d bd ec 50 1a 3d af 25 05 bc c5 5a b4 bc
       -0.050265867 0.03767483 -0.00812666 -0.022015939
000340 68 7e 06 3e 86 bb df 3c f4 43 14 bc da 97 86 3d
       0.13134158 0.027311098 -0.009049404 0.06571932
000350 4c b3 a5 bd 79 e0 b6 b9 ad 7a 22 3d 3f f3 b7 bd
       -0.08090839 -0.0003488099 0.039667774 -0.089819424
000360 33 a5 ce 3d 34 8e cf bd fc 97 e8 bd 2c 14 84 bd
       0.10090103 -0.10134545 -0.11357114 -0.0644916
000370 68 82 d0 bd 5f 38 48 3e 14 d3 94 3b a8 1d 04 3e
       -0.10181123 0.19552754 0.004541764 0.12901938
000380 d5 ad 57 3d 31 0a 0e 3c 34 4e 5b be e5 ab f6 3b
       0.052656014 0.008669422 -0.21416551 0.0075278156
000390 50 67 94 3d ff 3e c6 3d 36 a0 f2 3c 9d d4 7d bd
       0.07246268 0.09679984 0.02961741 -0.061970342
0003a0 d9 7f 87 bd 62 7b b9 bd f3 2b 01 be b0 e7 02 bc
       -0.06616182 -0.090567365 -0.12614422 -0.007989809
0003b0 9a b6 ed 3d 02 4b b8 3d 33 f4 be bd f7 3b 88 3d
       0.11607094 0.089986816 -0.09323921 0.066520624
0003c0 6a f3 07 be 28 8a 0e 3d 4d d7 52 bd 16 90 b3 bd
       -0.13276449 0.034799725 -0.051474858 -0.087677166
0003d0 d4 53 cc bd d9 99 a6 bc 16 67 9c 3c a9 ff 3d 3d
       -0.099769264 -0.020337032 0.019092124 0.046386395
0003e0 e4 ec 80 bb 85 1d f5 bc 0f bc 30 be 03 1e a8 3d
       -0.0039344896 -0.029921303 -0.17259239 0.08208849
0003f0 94 b6 1a 3c 57 e1 41 3d 00 4c 3d 3e 72 fa a3 3d
       0.009442944 0.04733404 0.18486023 0.08006753

bias f4 [80]
000000 b7 6b d0 3d b1 72 72 3e 48 55 0e 3e 71 34 db 3e
       0.10176795 0.23676564 0.1389972 0.42813447
000010 63 71 b8 3d f7 d7 a8 3e cf 3b 5b 3e 6b 57 25 3e
       0.09006002 0.32977268 0.21409534 0.16146629
000020 b9 70 86 3e 4b 90 9f 3e f4 9e 6e 3e 52 90 f7 3d
       0.26257876 0.31164774 0.23302823 0.12088074
000030 45 ec fa 3d e8 6b af 3e b0 d0 50 3e df f0 93 3e
       0.12252096 0.34262013 0.20392108 0.28894708
000040 9a fe 9f 3e e3 5e 13 3e 02 4f 98 3d bb f0 74 3e
       0.31248933 0.14391665 0.074369445 0.23919956
000050 ab 8f ff 3d a0 50 19 3e 49 50 39 3d 9e bd 08 3e
       0.12478574 0.14972162 0.04524258 0.13353583
000060 23 64 85 3e 69 8e 6a 3e 2d 94 e7 3d d9 e0 37 3d
       0.2605296 0.22905888 0.11307559 0.044892166
000070 9a 35 c3 3e 76 c8 3b 3e 17 aa 39 3e 1a f8 cb 3e
       0.38126832 0.18338189 0.1813129 0.39837724
000080 81 51 4e 3e 30 fb 17 bd 55 49 dd 3d f8 f0 26 3e
       0.20148279 -0.037104785 0.108050026 0.1630286
000090 b7 15 6b 3e 48 9d 07 3e 44 f3 22 3e 09 c7 c7 3c
       0.22957502 0.13243592 0.15913111 0.0243869
0000a0 75 00 a9 3e 26 26 ff 3d a0 7c b6 3e 76 7a 7a 3e
       0.3300816 0.12458448 0.35641956 0.24460778
0000b0 17 34 bf 3e 49 75 42 3e bf 4e 7a 3e d5 dd 04 3e
       0.3734443 0.18990053 0.24444102 0.12975247
0000c0 d8 d0 6e 3e 0a a2 87 3e e1 a7 f6 bc b9 ef f6 3d
       0.23321855 0.26490813 -0.030109348 0.12057442
0000d0 25 45 b3 3d c2 a7 6b 3d 53 a5 8d 3e da 4b c0 3d
       0.08753423 0.057533033 0.27665195 0.093894675
0000e0 50 be a1 3e ff 88 db 3e 71 3f 9b 3d ce 2e 0d 3e
       0.3159051 0.42877957 0.0758046 0.13787386
0000f0 c1 d4 9a 3e 8b e4 94 3d 6d df 8e 3e f6 a8 04 3e
       0.30240443 0.072701536 0.27904835 0.12955078
000100 4d e4 4f 3e bf fc e5 3d dc 09 8b 3e 84 72 ae 3e
       0.20301934 0.11229848 0.2715596 0.34071743
000110 93 6e 04 3e 57 71 ae 3e d3 18 42 3e 5d 2d 4b 3e
       0.12932806 0.34070846 0.18954782 0.19841523
000120 12 93 a4 3e 16 29 43 3e e2 5e e5 3d d0 48 28 3e
       0.32143456 0.19058642 0.11199738 0.16434026
000130 76 7a d5 3d e5 a2 42 3e a6 dc 04 3e 3d 74 98 3e
       0.10423748 0.19007452 0.12974796 0.29776183

weight f4 [50, 80]
000000 07 c4 9f 3d e5 93 ac 3c 01 75 30 be 43 8e 70 bc
       0.07801061 0.021066615 -0.17232133 -0.014682355
000010 6b 19 3f bd 1c ac a1 bb b4 05 64 3d cd 82 14 bc
       -0.0466551 -0.004933847 0.0556695 -0.009064388
000020 bc da 9e 3d 74 39 d9 bb 9e 15 54 3c 15 b0 7b bb
       0.07756564 -0.0066291634 0.012944607 -0.0038404514
000030 bb 53 54 be fd a5 7e be d8 14 86 3c 26 71 b4 bd
       -0.20735066 -0.24868007 0.016367361 -0.08810644
000040 cd 42 a4 bd d6 15 07 3d 3b 36 b1 bb 66 e1 5b be
       -0.08020554 0.03297981 -0.005408076 -0.21472701
000050 b4 29 3a 3e db 5c ee bd 27 5e 5d 3d d3 91 07 3d
       0.18179971 -0.116388045 0.05404487 0.033098053
000060 72 5c 2d bc 79 c5 e1 bd bf ed f3 3c 25 4c 18 3e
       -0.010581123 -0.11023993 0.029776452 0.14872797
000070 10 19 fe 3c 35 d6 a2 3d 6c ff c6 bb b2 02 ab 3d
       0.03101781 0.07951013 -0.006072929 0.083501235
000080 cb e1 bd 3d 7f 67 4d bd e4 2d 04 bb 72 05 7a 39
       0.09271582 -0.05014753 -0.0020168955 0.00023843886
000090 76 91 4f 3d bc 7d 20 bd b8 a7 43 bc 18 55 96 bd
       0.05067583 -0.03918241 -0.011941843 -0.07340449
0000a0 24 3d 2f be 8c 03 18 bc fe 06 52 be 82 0e 30 3e
       -0.17113167 -0.009278189 -0.2051048 0.17193034
0000b0 c4 24 9b 3d 41 ca 6c 3e 18 39 da 3b 7b ff 7f 3e
       0.07575372 0.23124029 0.006659638 0.24999802
0000c0 d1 36 16 3e 8b f7 74 3c c9 67 32 bc 6c 4e fc bd
       0.14669348 0.014951597 -0.010889002 -0.12319645
0000d0 df c6 8a 3c c4 25 3b 3e ad 09 72 3c 2a 31 e0 bc
       0.016940532 0.18276125 0.014772815 -0.027367193
0000e0 f4 d8 6f 3d 2f 7d dd bc 4a 74 1c 38 0f 19 42 bd
       0.058556512 -0.027037231 3.73016e-05 -0.04738718
0000f0 6c 76 2f be c7 bf 3f 3e 26 ba 2a be 88 ef eb 3b
       -0.17135018 0.18725501 -0.16672572 0.007200185
000100 56 6b 50 3d c8 af 49 bc cd 46 31 be 6d 4d d1 bd
       0.050883614 -0.012309976 -0.17312165 -0.10219846
000110 b8 05 5d bc 90 2e d5 3b f7 48 12 bd 6a e6 26 bd
       -0.013490133 0.006505795 -0.035714116 -0.040747084
000120 a9 f4 84 be d9 6c aa bc ca e1 42 be ad cf ab 3d
       -0.2596791 -0.020803856 -0.19031444 0.083892204
000130 1e 23 97 3d cc 3d 87 3e 5e df 9a 3d 54 b2 a6 3d
       0.07379745 0.26414335 0.07562135 0.08139482
000140 bc 45 d5 3a 22 79 17 bd ff fb d0 bd f5 5f 27 bd
       0.0016271393 -0.036980756 -0.102043144 -0.040862996
000150 ec 22 85 bc e1 7f 0e bd 37 8d 5f 3c b6 85 92 3c
       -0.016252004 -0.034789924 0.013644508 0.017886024
000160 19 81 46 bd 01 ea 95 3d 5b 5d 84 bd 0b 38 5c 3d
       -0.04846296 0.07320023 -0.06463119 0.053764384
000170 5a 7d 88 3e 45 eb 94 3d 55 52 87 3d 86 2e 80 3d
       0.26658136 0.072714366 0.066075005 0.06258874
000180 95 92 28 bd 7b 6c 9e be 86 25 f3 3d eb b3 ea 3d
       -0.041155417 -0.3094214 0.118723914 0.11460098
000190 41 14 f0 3c 78 a6 e9 3c 54 c4 9d be 3e 8a a3 be
       0.029306533 0.028521761 -0.3081385 -0.31941408
0001a0 57 5f 0d 3c 15 e7 db bd 9b e7 84 be ed cf 0a be
       0.008628688 -0.10737435 -0.2595795 -0.1355588
0001b0 85 ea de 3c 7b c5 87 be 3f 49 a9 bc 63 de c9 3d
       0.027211437 -0.26517853 -0.02066481 0.0985687
0001c0 18 a0 d3 3c 56 86 5a bd a2 2c 6c bc 93 65 5f bc
       0.025833175 -0.05335077 -0.014414938 -0.013635057
0001d0 05 f3 7e 3b 92 f8 8f 3d f5 b5 fe 3d 33 46 c9 bd
       0.0038902175 0.07029833 0.12437049 -0.098278426
0001e0 9f 57 03 3d d8 ad 1b 3d 43 a2 77 bd fc f8 8b 3d
       0.032065984 0.038007587 -0.06045748 0.068345994
0001f0 1d 70 32 3d 9a 47 49 be 00 11 35 3e 4c 99 35 3e
       0.04356395 -0.1965622 0.17682266 0.1773426
000200 75 25 36 3e ec ae 8f 3d 05 b7 27 be 95 ab c9 3d
       0.17787726 0.070157856 -0.1637841 0.0984718
000210 ea 55 83 be 5c 03 df 3c ad c3 5d 3e b9 d3 da 3c
       -0.25651485 0.027223282 0.21656676 0.026712285
000220 b7 81 98 3c 61 19 6a 3d 6c ba 58 3e f7 ee 30 bc
       0.01861654 0.05715311 0.21164864 -0.010799161
000230 f0 24 3d bc 1c 5a 1b be 1a d7 2f 3c 5a 73 e2 3c
       -0.011544451 -0.15171093 0.010732437 0.027642895
000240 d5 22 25 be b6 c1 2e 3d 8b bc 26 3e 83 80 df bc
       -0.16126569 0.042665206 0.16282861 -0.027282959
000250 f4 3a 87 3c 39 1a 76 be 99 16 bd be 1b 3d 0b 3d
       0.016507603 -0.2403344 -0.36931303 0.03399382
000260 2b c4 ab 3d fd b0 ee 3d f2 7f 37 3e 8e 45 33 bd
       0.083870254 0.116548516 0.17919901 -0.043767504
000270 59 a2 ab bc 17 d2 09 be 20 56 46 3e 1b a9 e4 bb
       -0.020951437 -0.13459049 0.19368792 -0.0069781668
000280 b4 f9 c6 bb 0a 18 25 3d 12 ea 5b bb e2 84 af 3d
       -0.0060722474 0.04030613 -0.0033556265 0.08570267
000290 d1 d2 3e 3d 77 35 08 bc ff cd 69 3e 56 5e d6 bc
       0.04658777 -0.008313528 0.22832488 -0.02616803
0002a0 23 7e 91 3d 21 29 6c bb 46 5b 52 bc db e8 37 3d
       0.07104137 -0.0036035257 -0.012839144 0.044899803
0002b0 b1 c2 93 bd 81 79 51 3d d2 42 c4 bb d6 d2 c5 bd
       -0.07214869 0.051141266 -0.005989411 -0.096593544
0002c0 f2 6e a0 3d 73 74 07 bd f6 13 6a 3d 89 f9 97 3d
       0.07833661 -0.03307004 0.057147942 0.07420642
0002d0 77 69 64 be b9 a8 85 3d 9d 04 80 3e a0 84 08 3e
       -0.22305857 0.06526322 0.2500352 0.13331842
0002e0 05 57 67 3e 59 20 d2 3c d4 1b 40 3c 97 c9 8a 3e
       0.22591789 0.02565019 0.011725385 0.27106926
0002f0 2d 3e 97 3c 98 25 66 bd 1d 99 89 3b 51 da 40 3d
       0.018462265 -0.056188196 0.0041991607 0.047083203
000300 e9 d1 9c be c7 3f 95 3d e2 88 bb bd 6e f0 43 bc
       -0.306289 0.07287555 -0.09156968 -0.011959178
000310 98 7e 2c bc e0 df c1 3b da c3 83 be 2f 24 0b be
       -0.010528229 0.0059165806 -0.2573536 -0.13588022
000320 a3 6b c2 bc 9e 39 62 bd 0a 60 64 3e 8c 57 2a 3e
       -0.023732966 -0.05523073 0.22302261 0.16634959
000330 2f f3 57 bc bc 69 0f 3b b6 f3 8d 3d c5 d6 b1 bd
       -0.013180538 0.002188309 0.0693125 -0.08683542
000340 20 30 87 be b6 1a 3b 3d e3 c4 9a bc 8e 7e 62 bb
       -0.26403904 0.04567977 -0.018892711 -0.0034560296
000350 2d 76 38 3e c3 4d bf bd 31 be e9 3b b8 91 df 3c
       0.1801383 -0.09341004 0.0071332683 0.027291164
000360 a4 a8 97 bc f9 4d ba bc c7 97 24 3d f5 29 e2 bd
       -0.018513031 -0.022742258 0.04018381 -0.11043159
000370 b0 f9 5f be 5f 0d eb 3b b1 10 89 3d bc 5f 20 be
       -0.21872592 0.007173225 0.06692637 -0.1566152
000380 2e 3f df bc c2 33 5d bd 27 97 09 be 31 ba fd bc
       -0.027251806 -0.05400444 -0.13436566 -0.030972572
000390 fe 92 13 bd d7 11 52 3e 27 28 53 3e 32 8d 1e bc
       -0.036028855 0.20514618 0.20620786 -0.009677218
0003a0 9d c2 d0 3b a6 ba 39 3c 4d 0b 3e be 11 2b 20 3a
       0.006370856 0.011336004 -0.18558998 0.0006109933
0003b0 56 79 79 3e 1c 4d 37 bd 81 8e 4d 3b d5 52 eb 3d
       0.24362692 -0.04475127 0.0031365457 0.11490408
0003c0 fb 51 6a be db e2 46 be dc 98 ed 3d 1d 16 4d 3c
       -0.22882836 -0.19422476 0.11601421 0.012517479
0003d0 71 f0 4a bd 6e 2b 9a 3d e9 a8 a8 3c bd 95 1a bd
       -0.04954571 0.07527815 0.020588355 -0.037740458
0003e0 2e c1 f1 3d db 57 f7 3d 67 a7 a7 be 03 bc 27 3e
       0.11804424 0.12077304 -0.32744905 0.16380315
0003f0 18 a3 c1 3d 16 40 ac bc e3 42 2f 3d 5a 83 96 bb
       0.09454936 -0.021026652 0.042788398 -0.004593295

bias f4 [50]
000000 a0 c8 83 3e 7b 77 b8 3e 59 25 30 3e f4 d5 9a 3e
       0.25739002 0.36028656 0.17201747 0.30241358
000010 d5 f2 b7 3e 62 ef 35 3e 07 7f 5f 3e 4c f1 5b 3e
       0.35927454 0.17767099 0.21825801 0.21478766
000020 52 5b a7 3e 0c 5a 95 3e f5 45 12 3e 45 20 42 3e
       0.3268686 0.29170263 0.14284499 0.18957622
000030 1d ef b4 3e 14 03 0b 3e 29 1f 89 3e fc 3d 79 3e
       0.3533868 0.13575393 0.26781586 0.24340051
000040 26 7f 86 3e 31 61 82 3e 00 93 88 3e 44 7f 7e 3e
       0.26268882 0.25464776 0.26674652 0.24853235
000050 74 26 93 3e de b9 6c 3e 13 aa 5e 3e a6 86 a8 3e
       0.28740275 0.23117778 0.21744566 0.3291523
000060 e4 da 29 3e 7f 18 78 3e 81 35 81 3e 8d d1 6c 3e
       0.16587406 0.24228095 0.25236133 0.23126812
000070 c9 65 9e 3e 9a 5a 9b 3e ac 29 a2 3e 86 7c 1c 3e
       0.3093703 0.3034256 0.31672418 0.15281877
000080 c0 c6 bd 3e ec f4 cd 3e d5 af 9a 3e fb e8 f2 3e
       0.37065697 0.40225923 0.30212274 0.47443375
000090 3d 6e b7 3e 85 2e ab 3e b1 3a 5b 3e 63 d4 a3 3e
       0.35826293 0.3343393 0.21409108 0.31997976
0000a0 96 9a 30 3e 01 e3 e1 3e 21 c6 97 3e 5c 9a be 3e
       0.1724647 0.44118503 0.29643348 0.37227142
0000b0 1b 10 82 3e be 19 b4 3e 0b 56 a0 3e 5c 55 98 3e
       0.25402912 0.3517589 0.31315646 0.29752624
0000c0 3e 6a a3 3e 8b 48 ab 3e
       0.31916994 0.33453783
