Saved_models/conv2_layer_64x64_9Jan.pt (torch_old, 331528 bytes, 14 tensors)

weight f4 [10, 1, 5, 5]
0.075048275 -0.4086867 -0.40520406 0.034582254 -0.20695576 0.05143227 -0.07097516 0.1696317
0.04821434 0.10611572 0.022145975 -0.1274569 -0.038136356 0.0075932965 0.070845 -0.10007163
0.034240812 -0.09940662 -0.058696203 0.19685382 -0.12917306 0.14437333 0.3295706 0.16494788
-0.073138975 -0.07892335 -0.108580016 0.21824786 -0.012045866 0.014989714 -0.033138257 -0.14548187
0.17343171 0.09150444 0.16520053 -0.09100691 -0.016021993 -0.0145174945 -0.12159991 -0.051892962
-0.07551503 0.023727357 0.30716732 -0.047921058 -0.16810116 0.1142104 -0.08410192 0.21096136
-0.135431 -0.047721464 -0.19170843 -0.07734961 -0.10745976 -0.0071678315 -0.18871027 -0.18837918
0.14455457 -0.06853886 -0.20217383 -0.011776084 0.045754816 -0.2269686 -0.17056604 -0.06627488
0.15138747 -0.18639523 0.14715645 -0.05496951 0.17760578 -0.050905507 -0.11218013 -0.14028202
-0.050597902 0.122463375 -0.20298783 0.26346257 -0.08585714 -0.13714276 0.05280802 0.2233832
0.24526376 -0.06836198 -0.12770297 -0.1406407 0.2590439 -0.056095213 -0.16812709 -0.18886955
0.026533699 0.16843049 0.11678202 0.10808183 -0.10790989 -0.17805114 0.2495166 -0.05659916
-0.11321206 0.03042951 -0.13545239 0.07912195 0.063643806 0.130454 -0.11421664 0.0598205
0.048003267 -0.03812428 -0.04287055 0.075752355 -0.034460258 0.19608277 -0.27221805 -0.057367444
0.20186369 -0.0034863928 -0.088386215 -0.06594596 0.20445964 0.09224083 -0.107208714 -0.24609824
-0.20456411 0.15619111 0.033495437 -0.10095376 -0.059117537 -0.12887432 -0.06516958 0.008569635
0.058636133 -0.1133778 0.061727006 -0.1447653 0.115118034 -0.04939302 -0.078865916 -0.12220768
0.10664011 0.041410178 -0.09222126 -0.005210319 0.035212692 0.06475813 -0.21344592 0.049216613
-0.13091919 -0.14891759 -0.18522677 -0.076294385 -0.055604387 -0.11476816 0.014453645 0.1362988
0.05678205 0.16342814 -0.03728761 0.18499492 -0.058430333 -0.15257561 0.050565705 0.10760681
-0.076864615 -0.18371768 -0.21634175 -0.047038272 0.17864718 0.008725017 -0.1894799 -0.15828869
0.106663465 0.15816979 0.06671992 0.12554806 -0.26171425 -0.07004958 -0.07849786 -0.047344003
0.08144284 0.14676274 0.3353144 0.26658857 0.10011184 0.1709516 0.18919098 0.072477706
0.06398251 -0.24247912 -0.028544841 0.2083237 0.0451938 0.028355142 -0.0031353612 -0.15132073
0.17412436 -0.050228067 -0.08318001 -0.36259213 -0.13574344 -0.1368368 -0.30973327 -0.13368095
0.08383703 -0.30887982 -0.27760673 0.120979756 0.006538031 -0.10876443 -0.10295372 -0.17169668
0.27740356 0.015396248 0.103270486 -0.024175264 0.16469629 -0.15418689 -0.10968891 -0.15015353
0.0069409707 0.056519605 0.19286938 0.20795847 -0.113193594 -0.050829664 -0.10572787 0.24907713
0.045773022 0.04717395 0.07186184 0.009259975 -0.16487202 -0.08282309 -0.012818072 0.043459814
-0.14678767 0.19816557 -0.038631726 0.1624109 -0.08403602 0.15043852 -0.16726746 0.22018473
0.065045245 0.006857509 0.04988953 -0.11590163 0.13731939 0.21697804 0.024787245 -0.0077843247
0.120458886 0.26365998
00000000: e9b2 993d 623f d1be e876 cfbe 1fa6 0d3d
00000010: 36ec 53be a5aa 523d 6d5b 91bd efb3 2d3e
00000020: 667c 453d 3353 d93d 7a6b b53c 1084 02be
00000030: de34 1cbd 30d1 f83b 2f17 913d 5bf2 ccbd
00000040: 1840 0c3d b395 cbbd 6e6b 70bd 0c94 493e
00000050: f145 04be 9ad6 133e 7abd a83e 19e8 283e
00000060: e3c9 95bd 91a2 a1bd 335f debd 5e7c 5f3e
00000070: 065c 45bc 6b97 753c fbbb 07bd 33f9 14be
00000080: 1598 313e ae66 bb3d 542a 293e d561 babd
00000090: 8e40 83bc c9da 6dbc 6009 f9bd b78d 54bd
000000a0: a0a7 9abd e05f c23c 0945 9d3e df48 44bd
000000b0: b622 2cbe 24e7 e93d a13d acbd 4106 583e
000000c0: 6dae 0abe 9577 43bd 374f 44be 7969 9ebd
000000d0: dd13 dcbd 21e0 eabb 443d 41be 79e6 40be
000000e0: 1d06 143e 1a5e 8cbd a806 4fbe 7af0 40bc
000000f0: 6769 3b3d 756a 68be dda8 2ebe 20bb 87bd
00000100: 5105 1b3e 64de 3ebe 2eb0 163e b527 61bd
00000110: 4ade 353e 4b82 50bd b2be e5bd 17a6 0fbe
00000120: bf3f 4fbd 14ce fa3d 0bdc 4fbe 91e4 863e
00000130: ded5 afbd 276f 0cbe 394d 583d 91be 643e
00000140: 6c26 7b3e 5e01 8cbd 91c4 02be 1e04 10be
00000150: 67a1 843e 18c4 65bd 8229 2cbe 0567 41be
00000160: 335d d93c 0b79 2c3e 692b ef3d 025a dd3d
00000170: dcff dcbd 0a53 36be 4881 7f3e 85d4 67bd
00000180: b9db e7bd 4f47 f93c 08b4 0abe b00a a23d
00000190: af57 823d bc95 053e 6aea e9bd 5706 753d
000001a0: 139f 443d 3428 1cbd 0899 2fbd 0d24 9b3d
000001b0: 3326 0dbd ecc9 483e 2a60 8bbe 20fa 6abd
000001c0: 5bb5 4e3e f77b 64bb d503 b5bd ad0e 87bd
000001d0: de5d 513e c3e8 bc3d 3e90 dbbd 2d01 7cbe
000001e0: 4179 51be 90f0 1f3e 8332 093d d8c0 cebd
000001f0: 3b25 72bd a1f7 03be a177 85bd a867 0c3c
00000200: 712c 703d 9f32 e8bd 75d5 7c3d 5b3d 14be
00000210: 01c3 eb3d 5650 4abd 7484 a1bd 0548 fabd
00000220: 2166 da3d b89d 293d 80de bcbd 53bb aabb
00000230: 2f3b 103d e99f 843d 9191 5abe 5c97 493d
00000240: ae0f 06be da7d 18be 16ac 3dbe 3b40 9cbd
00000250: 6dc1 63bd 920b ebbd fbce 6c3c ea91 0b3e
00000260: 4b94 683d b559 273e e5ba 18bd 4f6f 3d3e
00000270: a554 6fbd c83c 1cbe fc1d 4f3d f660 dc3d
00000280: 326b 9dbd 7d20 3cbe b188 5dbe 34ab 40bd
00000290: 49ef 363e 60f3 0e3c 0507 42be 6e16 22be
000002a0: 6072 da3d 43f7 213e 74a4 883d ac8f 003e
000002b0: 69ff 85be 2776 8fbd 7cc3 a0bd c9eb 41bd
000002c0: 81cb a63d f948 163e 54ae ab3e 4c7e 883e
000002d0: 7007 cd3d f00d 2f3e 48bb 413e 316f 943d
000002e0: 4309 833d 724c 78be dfd6 e9bc cf52 553e
000002f0: 221d 393d 0b49 e83c a27a 4dbb d2f3 1abe
00000300: a84d 323e f2bb 4dbd 485a aabd ada5 b9be
00000310: 5400 0bbe f21e 0cbe 5c95 9ebe a9e3 08be
00000320: c0b2 ab3d 7f25 9ebe 7822 8ebe 3cc4 f73d
00000330: fb3c d63b e3bf debd 66d9 d2bd 41d1 2fbe
00000340: d707 8e3e 8b40 7c3c 7a7f d33d 340b c6bc
00000350: 25a6 283e 2be3 1dbe 94a4 e0bd d9c1 19be
00000360: 1571 e33b 1a81 673d 8d7f 453e 11f3 543e
00000370: 0bd2 e7bd c432 50bd da87 d8bd 130e 7f3e
00000380: 7e7c 3b3d 7939 413d 4d2c 933d 26b7 173c
00000390: 36d4 28be 279f a9bd e402 52bc eb02 323d
000003a0: 824f 16be eaeb 4a3e 4d3c 1ebd 0b4f 263e
000003b0: 141b acbd 8e0c 1a3e 2948 2bbe 1b78 613e
000003c0: 7136 853d f4b4 e03b f758 4c3d d55d edbd
000003d0: 749d 0c3e 7e2f 5e3e 9f0e cb3c a613 ffbb
000003e0: 26b3 f63d 71fe 863e

bias f4 [10]
-0.15852118 0.020799812 -0.1966803 0.014838388 0.20658703 0.022295987 0.1587412 0.07136771
0.07898319 -0.20575632
00000000: 6053 22be 5e64 aa3c 9066 49be b61c 733c
00000010: 8d8b 533e 13a6 b63c 0e8d 223e 3c29 923d
00000020: f0c1 a13d c9b1 52be

weight f4 [20, 10, 5, 5]
0.05127141 -0.061017405 -0.0025209298 0.008658388 -0.03088645 0.048650622 -0.0359977 -0.0063067097
-0.016035732 -0.02994569 -0.029075122 -0.063945025 -0.031403642 -0.03706247 0.04967249 0.030210737
0.030111426 0.028303798 -0.013486419 -0.0033211955 0.039621904 0.02882492 0.046547957 0.0092833005
0.008834873 0.048525892 0.03494824 -0.03566739 -0.016747495 0.014475539 0.057305105 0.045749146
0.04031834 0.033885997 -0.004899992 -0.027359083 -0.056198377 -0.013208553 -0.07104451 -0.0361962
0.01070772 -0.015976796 -0.03774077 -0.06396092 0.03947593 -0.0058039944 -0.034271695 0.0063459766
-0.05802752 -0.002375615 -0.004784908 0.054655552 0.03294649 0.015081398 -0.05351321 -0.0054989643
-0.057715252 -0.0209702 0.028846689 0.052287295 0.060904026 -0.05187488 0.048244566 -0.029924948
-0.0145939775 0.040834367 -0.0071251728 -0.02005589 -0.033697996 0.03505323 -0.023063071 -0.010112479
-0.0040704384 -0.039429165 -0.021571472 0.021868894 -0.051042814 0.045083344 0.01995914 -0.044471607
-0.0041792146 0.030418998 0.02667685 -0.04674055 -0.041572705 0.011388742 0.01878582 0.01867115
0.03392759 -0.0011950453 0.054540914 -0.02694474 -0.07062099 0.007390369 0.05506072 -0.009242325
-0.01498531 -0.031517122 -0.061200894 0.0053924406 -0.003874212 0.027139578 0.04558272 0.02558348
-0.06644332 0.034994926 -0.021232234 -0.052399468 0.055200465 0.053381536 0.044583056 0.03599055
0.0066621415 -0.028540151 -0.014550447 -0.015591427 -0.035735227 0.052072458 -0.06162256 -0.01086555
0.010269559 -0.016147826 0.039071783 -0.0032458978 0.018260032 -0.06120008 -0.014744923 0.024124311
0.020721545 0.062442288 -0.023075039 0.04819479 -0.03834983 0.008344899 0.024461964 -0.061373815
-0.0042431224 0.03574811 -0.014801696 -0.043321945 -0.05752249 -0.041520353 -0.010085922 0.038899194
0.011382081 -0.042168085 -0.019757716 0.03875734 -0.06477693 0.0028133444 -0.060868364 0.02349443
-0.01958669 -0.029634139 0.02344988 -0.022008546 -0.025923185 -0.046287835 -0.056511216 -0.0060142414
-0.012021582 0.035989802 -0.015344812 0.015755555 0.024148418 0.029244833 0.034062725 -0.026428064
-0.018285021 0.04098775 -0.062300216 0.034118146 -0.051794518 -0.030158047 -0.065271854 -0.05730816
0.041616444 0.013721323 -0.029101692 0.050711118 -0.032733954 -0.019660993 -0.03146986 0.015492112
-0.02347212 -0.016466875 0.007685658 -0.050317 -0.03125144 -0.045162607 -0.0148146385 -0.047870893
-0.024785051 -0.013333332 -0.017035518 -0.030324208 -0.046504628 -0.0026022573 -0.016379852 -0.032688815
-0.0043500727 -0.00811106 0.05614139 0.0036570826 0.047484856 -0.037093863 0.032633018 -0.05576212
-0.037621837 0.030791158 0.017549235 0.024319837 -0.019729272 0.027448334 -0.059765525 0.047997434
0.021484345 -0.05979441 -0.0015819175 0.004767871 0.030200083 0.03661837 -0.025329173 -0.026939638
-0.018393906 0.008664658 0.034141816 -0.062357098 -0.03905006 0.03725958 0.030449465 -0.031046141
-0.066436395 -0.015260455 0.031094912 0.036593467 -0.06492414 0.0388563 0.02126701 -0.062376782
-0.041746836 -0.04998481 -0.067487486 0.017290946 0.017468322 -0.05262319 -0.06491932 0.009235562
-0.067995094 -0.014662456 -0.042648982 0.015303992 0.039840784 0.058097653 -0.0321642 -0.021380838
00000000: f801 523d 63ed 79bd 2f36 25bb e9db 0d3c
00000010: 9505 fdbc e045 473d 5372 13bd 84a8 cebb
00000020: 5e5d 83bc aa50 f5bc f32e eebc 9cf5 82bd
00000030: 1ba1 00bd d1ce 17bd 6275 4b3d 827c f73c
00000040: 3dac f63c 5edd e73c 24f6 5cbc 6aa8 59bb
00000050: 944a 223d 3d22 ec3c 12a9 3e3d fc18 183c
00000060: 25c0 103c 16c3 463d e325 0f3d f817 12bd
00000070: 0b32 89bc d02a 6d3c c2b8 6a3d 7563 3b3d
00000080: d824 253d 0bcc 0a3d 1d90 a0bb 2820 e0bc
00000090: 4530 66bd b068 58bc c97f 91bd 7742 14bd
000000a0: 6f6f 2f3c c5e1 82bc 1196 1abd f1fd 82bd
000000b0: 83b1 213d 6f2f bebb 7a60 0cbd e9f1 cf3b
000000c0: 44ae 6dbd 35b0 1bbb b8ca 9cbb 80de 5f3d
000000d0: e6f2 063d f817 773c ab30 5bbd a830 b4bb
000000e0: d466 6cbd b2c9 abbc e44f ec3c 342b 563d
000000f0: 8076 793d c17a 54bd 189c 453d 2a25 f5bc
00000100: 941b 6fbc f041 273d 487a e9bb 404c a4bc
00000110: e906 0abd fa93 0f3d c4ee bcbc d0ae 25bc
00000120: 5061 85bb 7a80 21bd a8b6 b0bc 6526 b33c
00000130: 4512 51bd 50a9 383d 5a81 a33c dc27 36bd
00000140: cbf1 88bb 4331 f93c 6989 da3c 0573 3fbd
00000150: 2448 2abd d997 3a3c b8e4 993c 3df4 983c
00000160: a8f7 0a3d 11a3 9cba 4b66 5f3d 37bb dcbc
00000170: bda1 90bd e92a f23b 5987 613d 1f6d 17bc
00000180: f284 75bc 1918 01bd caad 7abd 12b3 b03b
00000190: 7ee6 7dbb d253 de3c f2b4 3a3d 7294 d13c
000001a0: 6f13 88bd d756 0f3d 39ef adbc d3a0 56bd
000001b0: e219 623d 99a6 5a3d b99c 363d d46a 133d
000001c0: 184e da3b 09cd e9bc 0065 6ebc 2f73 7fbc
000001d0: 1a5f 12bd ee49 553d f067 7cbd 6b05 32bc
000001e0: a741 283c 7248 84bc bc09 203d 21b9 54bb
000001f0: 1096 953c efac 7abd b194 71bc 59a0 c53c
00000200: 3bc0 a93c 7cc3 7f3d dd07 bdbc e667 453d
00000210: b614 1dbd 0bb9 083c 7564 c83c 1c63 7bbd
00000220: e409 8bbb 9c6c 123d d082 72bc 5a72 31bd
00000230: b49c 6bbd 3f11 2abd 6c3f 25bc c354 1f3d
00000240: e87b 3a3c 71b8 2cbd efda a1bc 04c0 1e3d
00000250: c4a9 84bd 1660 383b 1b51 79bd 6477 c03c
00000260: 4474 a0bc 4bc3 f2bc f619 c03c 444b b4bc
00000270: dc5c d4bc 5098 3dbd 4e78 67bd 1d13 c5bb
00000280: 2bf6 44bc 0b6a 133d ce68 7bbc cb11 813c
00000290: e7d2 c53c dc92 ef3c 5b85 0b3d ab7f d8bc
000002a0: 78ca 95bc c5e2 273d 832e 7fbd 78bf 0b3d
000002b0: 7d26 54bd 020e f7bc 40ad 85bd f6bb 6abd
000002c0: 0176 2a3d 66cf 603c ac66 eebc 76b6 4f3d
000002d0: 0a14 06bd 1710 a1bc 8ae6 00bd a1d2 7d3c
000002e0: 9a48 c0bc 8ae5 86bc f9d7 fb3b 3319 4ebd
000002f0: 8301 00bd 6dfc 38bd 19b9 72bc 4514 44bd
00000300: 050a cbbc 0c74 5abc 128e 8bbc 796a f8bc
00000310: a37b 3ebd a28a 2abb 0a2f 86bc b5e4 05bd
00000320: 0e8b 8ebb 40e4 04bc 84f4 653d aaab 6f3b
00000330: 7b7f 423d bcef 17bd 33aa 053d d266 64bd
00000340: 5b19 1abd bd3d fc3c 6ac3 8f3c 653a c73c
00000350: 489f a1bc 54db e03c b2cc 74bd f598 443d
00000360: f0ff af3c fcea 74bd 5858 cfba cd3b 9c3b
00000370: 2a66 f73c 25fd 153d 207f cfbc 84b0 dcbc
00000380: d1ae 96bc 36f6 0d3c 4ad8 0b3d 286a 7fbd
00000390: f5f2 1fbd 809d 183d 2871 f93c 7a54 febc
000003a0: ce0f 88bd fd06 7abc c2ba fe3c 08e3 153d
000003b0: f3f6 84bd c927 1f3d 2738 ae3c cc7e 7fbd
000003c0: bbfe 2abd dfbc 4cbd e136 8abd bea5 8d3c
000003d0: ba19 8f3c 6a8b 57bd 6cf4 84bd c150 173c
000003e0: 0341 8bbd cc3a 70bc b3b0 2ebd 98bd 7a3c
000003f0: 1730 233d cef7 6d3d 9cbe 03bd de26 afbc

bias f4 [20]
-0.0028921298 -0.03727361 0.09402081 -0.0040142913 -0.015376507 -0.013793704 0.04403253 -0.03685458
-0.030312605 0.08049881 -0.042941183 -0.008216734 0.008610674 0.056213748 -0.052397195 0.041343465
0.06397486 0.014314868 0.07189204 -0.040580396
00000000: e389 3dbb 36ac 18bd fc8d c03d 518a 83bb
00000010: bfed 7bbc fdfe 61bc 745b 343d d4f4 16bd
00000020: 2452 f8bc 8fdc a43d 18e3 2fbd 7b9f 06bc
00000030: c913 0d3c 6340 663d 719e 56bd c457 293d
00000040: 4005 833d e888 6a3c 223c 933d a137 26bd

weight f4 [30, 20, 5, 5]
-0.023399347 0.013858881 -0.03756036 -0.015689224 0.03722591 0.022122396 -0.025956884 0.025842318
-0.04898654 -0.04168048 0.004988205 0.027464595 0.0175235 0.022641437 0.02182055 0.0012960869
-0.010909521 0.020154 0.018406624 -0.010558411 -0.035193335 -0.0473145 -0.0011036659 -0.003250998
-0.034843266 -0.041475907 0.005191046 -0.020582575 -0.03317947 0.049464874 -0.00074034644 0.014047253
-0.02937085 0.037144143 -0.024831459 0.050216578 -0.02073395 -0.007049564 -0.0017820543 0.033664208
-0.02345123 0.014623541 0.020615486 -0.01685908 0.03194283 0.022858912 -0.025640111 -0.03278998
-0.020135498 0.039008353 0.022778368 0.029871862 0.113574445 0.06856707 0.15442412 -0.1281906
0.015582855 0.03469671 0.021842215 0.060765676 -0.14548053 -0.12280011 -0.033646863 0.04207397
0.047521636 -0.11306939 -0.19710353 -0.13238981 -0.036664095 0.050251592 -0.04311118 -0.09107755
-0.16829035 -0.13178833 -0.10508874 0.015704466 0.023175107 0.0034368099 -0.050005414 0.011988933
-0.012155127 -0.039822645 0.030291513 -0.027591722 0.02954231 -0.03174164 0.0089734895 0.0009287043
0.003072308 -0.01962519 0.0039401427 -0.047368128 -0.03834328 -0.004015701 0.02281963 0.015811011
0.02937348 0.0064830855 -0.0031986278 0.0045896983 0.041644003 0.04031196 0.016339354 0.0030336455
-0.017330213 -0.01914201 0.04252388 -0.017303267 0.03388231 0.0058360174 0.005064279 0.010184471
0.023869205 -0.008477759 0.012132749 -0.025049744 0.03246345 0.0071668103 0.021940608 -0.0033092052
0.017615836 0.037858594 -0.016962098 -0.02863907 0.022004459 -0.010495935 -0.014265249 -0.04520328
0.020779792 -0.035644777 -0.032666013 0.032747857 -0.01988899 -0.029873399 0.0056137242 0.010107125
-0.02504321 -0.039571058 -0.043734297 -0.03804432 0.017695313 -0.031767994 -0.047868337 0.022087067
0.036532383 -0.014145716 0.013996761 -0.045464203 0.02851012 -0.050695464 0.018109249 -0.037794773
-0.03895333 -0.031137068 -0.016052505 0.03406907 -0.041243907 0.0013932541 -0.01093996 0.040185507
0.019089881 0.014281173 0.018188331 0.04105181 -0.014730056 -0.019173006 0.006661842 -0.031132191
-0.0024600206 -0.011117695 0.004379157 0.026890822 -0.04757374 0.041607883 0.037558425 -0.010033209
0.036157895 0.020373542 0.02470382 0.007965982 -0.0032389127 -0.017074788 0.0054613613 -0.025762867
0.0127142705 0.032476593 -0.02686965 -0.012594219 0.0019301139 -0.015510764 -0.0108926855 0.01053118
0.0038100593 -0.03679513 -0.03815145 -0.038267687 0.0028007142 -0.02375029 0.041734595 -0.019273516
-0.030458491 0.042104445 0.03162183 0.00021721445 -0.034364846 0.014769013 0.008762867 0.040465195
-0.0038457103 -0.005842337 -0.040238768 -0.009278792 -0.0018965019 0.026302652 0.019718422 0.005522363
-0.023223186 -0.032116234 -0.016651386 -0.026861431 -0.027973816 -0.01330922 -0.04058698 -0.042462446
-0.039644048 -0.0089592775 0.06344828 0.033672962 0.09226164 0.14450306 -0.12881494 -0.04766365
0.009006812 0.06601632 0.11158673 -0.15889274 -0.20119002 -0.09546536 -0.023407819 0.099159576
-0.07590807 -0.19282237 -0.12896614 -0.094333276 0.026243608 -0.09153384 -0.13323116 -0.16360189
-0.1617042 -0.109520055 0.007323094 0.020493366 -0.02390856 0.017246049 0.03616101 0.018357122
00000000: fdaf bfbc 5c10 633c e4d8 19bd b086 80bc
00000010: 327a 183d 073a b53c 88a3 d4bc 45b3 d33c
00000020: 1ca6 48bd 27b9 2abd 1974 a33b 6efd e03c
00000030: 718d 8f3c 897a b93c 03c1 b23c 76e1 a93a
00000040: d9bd 32bc 001a a53c 7dc9 963c 2ffd 2cbc
00000050: e326 10bd d9cc 41bd e2a8 90ba b20e 55bb
00000060: d0b7 0ebd a4e2 29bd a619 aa3b ca9c a8bc
00000070: 32e7 07bd ae9b 4a3d cf13 42ba 7326 663c
00000080: 239b f0bc 7524 183d 586b cbbc e6af 4d3d
00000090: 3fda a9bc 0700 e7bb d293 e9ba 7be3 093d
000000a0: cb1c c0bc 9497 6f3c cfe1 a83c 0e1c 8abc
000000b0: 7cd6 023d 9d42 bb3c 360b d2bc c94e 06bd
000000c0: 33f3 a4bc 39c7 1f3d b399 ba3c d6b5 f43c
000000d0: b899 e83d e46c 8c3d 5b21 1e3e 6644 03be
000000e0: 3b4f 7f3c 231e 0e3d 72ee b23c 6ee5 783d
000000f0: d9f8 14be a07e fbbd 4bd1 09bd c155 2c3d
00000100: 0ca6 423d ed90 e7bd 82d5 49be 3291 07be
00000110: 172d 16bd 9dd4 4d3d 5995 30bd de86 babd
00000120: 4e54 2cbe 85f3 06be c438 d7bd a7a6 803c
00000130: b9d9 bd3c 1a3c 613b 7ad2 4cbd 3b6d 443c
00000140: 4c26 47bc 121d 23bd e825 f83c 0908 e2bc
00000150: b702 f23c 8603 02bd 8b05 133c 4a74 733a
00000160: c658 493b 02c5 a0bc 501c 813b 1505 42bd
00000170: d80d 1dbd 2496 83bb 3cf0 ba3c 1886 813c
00000180: a7a0 f03c 1070 d43b 12a0 51bb 2e65 963b
00000190: e792 2a3d 271e 253d 1cda 853c 20d0 463b
000001a0: 17f8 8dbc b4cf 9cbc 852d 2e3d 95bf 8dbc
000001b0: 2dc8 0a3d 103c bf3b 40f2 a53b c4dc 263c
000001c0: 5a89 c33c 4ce6 0abc 70c8 463c 1f35 cdbc
000001d0: 65f8 043d 90d7 ea3b cabc b33c 40df 58bb
000001e0: 164f 903c 9d11 1b3d 19f4 8abc 7c9c eabc
000001f0: b242 b43c 24f7 2bbc cab8 69bc 1327 39bd
00000200: 623a aa3c 4200 12bd cccc 05bd 9e22 063d
00000210: 3cee a2bc 0fb9 f4bc 55f3 b73b 5b98 253c
00000220: 6b27 cdbc 4315 22bd bc22 33bd 5cd4 1bbd
00000230: c3f5 903c 281f 02bd 9711 44bd f0ef b43c
00000240: fba2 153d 6fc3 67bc ac52 653c ac38 3abd
00000250: 0e8e e93c 0ca6 4fbd d959 943c b1ce 1abd
00000260: 878d 1fbd 2a13 ffbc 8b80 83bc 028c 0b3d
00000270: 5fef 28bd da9d b63a 853d 33bc 8f99 243d
00000280: 6262 9c3c 95fb 693c b2ff 943c f125 283d
00000290: 5556 71bc b510 9dbc 954b da3b f008 ffbc
000002a0: 4c38 21bb fe26 36bc 087f 8f3b 244a dc3c
000002b0: afdc 42bd 076d 2a3d ddd6 193d 5462 24bc
000002c0: 4d1a 143d 6ae6 a63c aa5f ca3c c083 023c
000002d0: f043 54bb 6de0 8bbc 38f5 b23b a60c d3bc
000002e0: 844f 503c 2d06 053d be1d dcbc fc57 4ebc
000002f0: e0fb fc3a dc20 7ebc 3c77 32bc f88a 2c3c
00000300: 30b2 793b 7eb6 16bd b244 1cbd 94be 1cbd
00000310: 308c 373b f88f c2bc e5f1 2a3d 7ee3 9dbc
00000320: 1684 f9bc b675 2c3d e485 013d 0fc4 6339
00000330: 27c2 0cbd bbf9 713c 2192 0f3c d5be 253d
00000340: 5008 7cbb 1371 bfbb 68d1 24bd 1306 18bc
00000350: 0b94 f8ba a978 d73c 8788 a13c f0f4 b43b
00000360: 8d3e bebc 508c 03bd 7d68 88bc 810c dcbc
00000370: 5829 e5bc ea0e 5abc 883e 26bd 1aed 2dbd
00000380: cc61 22bd efc9 12bc 2cf1 813d a9ec 093d
00000390: acf3 bc3d 9cf8 133e 10e8 03be f63a 43bd
000003a0: 4f91 133c 9033 873d 9587 e43d c7b4 22be
000003b0: c204 4ebe 5883 c3bd c1c1 bfbc 2d14 cb3d
000003c0: b175 9bbd 3a73 45be b30f 04be ce31 c1bd
000003d0: d6fc d63c 1876 bbbd c06d 08be 4187 27be
000003e0: c995 25be 0d4c e0bd 91f6 ef3b b4e1 a73c
000003f0: e2db c3bc 9647 8d3c 911d 143d ad61 963c

bias f4 [30]
0.044869035 -0.24850674 -0.0955141 0.0407857 -0.0025013594 0.007684111 -0.10643984 -0.30205974
-0.16485697 0.013588619 0.0068414803 -0.059805967 -0.020577533 0.23480286 0.1028181 -0.04937368
-0.045972247 -0.11955928 0.050703585 0.04043359 -0.042262003 0.41508472 -0.24850309 0.02305646
-0.4268942 0.07990044 -0.13895443 0.06406403 0.041899797 -0.08932013
00000000: 98c8 373d 8d78 7ebe e59c c3bd e80e 273d
00000010: d9ed 23bb ffca fb3b 21fd d9bd 93a7 9abe
00000020: 44d0 28be cda2 5e3c 7f2e e03b 1af7 74bd
00000030: 3792 a8bc 2970 703e 4c92 d23d 0e3c 4abd
00000040: 654d 3cbd 7fdb f4bd 90ae 4f3d b19d 253d
00000050: ec1a 2dbd fc85 d43e 9877 7ebe e7e0 bc3c
00000060: e091 dabe d8a2 a33d 124a 0ebe 0134 833d
00000070: 1f9f 2b3d 79ed b6bd

weight f4 [100, 480]
-0.01566586 0.011047924 -0.06411527 -0.049186498 0.00917692 0.014710983 -0.034257382 -0.0124751665
-0.10334546 -0.08728309 -0.07279575 -0.041061193 0.024358412 -0.002290824 -0.05811748 -0.03690244
-0.038307637 0.013031131 -0.0062327967 -0.056250643 0.028125405 0.04242635 0.03964426 -0.007817359
-0.01381906 -0.040674984 -0.04414353 -0.07860166 -0.06412018 -0.049837008 -0.026568035 -0.04636064
-0.07652897 -0.050426483 -0.074106045 -0.059959427 -0.01744341 -0.027685724 -0.06166051 -0.042164326
-0.041850254 -0.0069861384 0.013363556 -0.005896498 -0.06082988 0.0034112232 0.02001847 0.016120687
-0.07277345 -0.07318117 0.011222094 -0.022330683 -0.028406283 -0.0031350593 0.007005036 -0.023116225
-0.03450212 -0.077266484 0.02287575 -0.041206963 -0.0030264752 -0.049877677 -0.048616897 -0.063394405
-0.0015345083 -0.021957392 -0.034971096 -0.015035181 -0.06050577 -0.04476078 -0.06451492 -0.061181683
-0.054615017 0.031616468 -0.012556345 -0.0249535 -0.042097885 -0.05900116 -0.053921144 0.013512691
-0.047178786 -0.0333563 -0.013744093 -0.05671979 -0.07009076 -0.008947899 -0.060852077 -0.06307365
0.006045048 -0.01987687 -0.026205203 -0.047820643 -0.013969219 0.01372325 -0.040209346 -0.035304077
-0.012917386 -0.08555109 -0.08164728 -0.001334459 -0.075051256 -0.059633084 -0.034330186 -0.050010778
-0.076007366 -0.055207226 -0.025876423 -0.065156296 -0.07064375 -0.018406557 -0.04588496 -0.09251135
-0.073469184 -0.03437749 -0.022991901 -0.06999073 -0.037995126 -0.035941325 -0.043836214 -0.01618791
0.010906512 -0.05451926 -0.04857377 -0.070012726 0.006996586 -0.05427629 -0.072300784 0.009576206
-0.082635455 -0.0073286616 -0.07881542 -0.08515331 -0.088071525 -0.021300357 -0.04736257 -0.047894996
-0.0449288 -0.034354143 -0.0055131563 -0.036728285 0.008190306 -0.05934564 -0.035632707 0.0009476021
0.0044561676 -0.06786139 -0.025928799 -0.06368172 0.019609723 -0.052884776 0.0009918938 -0.041652445
-0.049456034 0.022624427 0.04902313 -0.011948038 -0.0053631896 -0.011042766 0.00071560993 0.020946778
-0.016245479 0.01854556 -0.0053125625 -0.017492715 0.016476532 0.010176272 -0.049883675 -0.0015527905
0.0004582091 -0.050505467 -0.0142681245 0.017194938 -0.054064944 -0.012574061 -0.004485225 -0.05902898
0.027649729 0.0311008 -0.032747973 -0.067211166 -0.019292746 -0.028312352 0.055848952 0.007828883
-0.016372172 -0.005246828 -0.018192079 -0.024053238 -0.034825608 -0.018993072 0.016031856 0.012355782
-0.018489175 -0.0130999815 -0.049528375 -0.07215071 -0.06616247 -0.04457419 -0.043476194 -0.0114325285
-0.042645615 -0.018880699 -0.061434265 -0.044995748 -0.038286746 -0.009131904 -0.0039789313 -0.031113248
-0.005792075 0.0034432746 -0.017596988 0.0058024838 0.0062511824 0.0058373436 -0.01685754 -0.046885576
-0.030584278 0.010197754 -0.0029283743 -0.03137453 -0.029459491 -0.018361716 -0.06484233 -0.018503336
-0.007130851 -0.021082928 -0.011860728 -0.015901007 0.03481304 0.031957254 -0.03840123 -0.060393415
0.036466222 -0.06150787 -0.080146946 -0.06703927 -0.0773717 -0.06748312 -0.01827355 -0.056657095
-0.018834813 -0.026649691 -0.079708084 -0.047545888 -0.07314274 -0.089685395 -0.0017199217 -0.024729973
-0.052696053 -0.109064676 -0.051321797 -0.066020265 -0.018485485 -0.040193956 -0.033490945 0.00010072925
00000000: b155 80bc 5a02 353c de4e 83bd c877 49bd
00000010: cb5a 163c 5606 713c 7851 0cbd a464 4cbc
00000020: c9a6 d3bd 7ac1 b2bd f015 95bd c82f 28bd
00000030: 4b8b c73c a621 16bb 980c 6ebd 0327 17bd
00000040: 78e8 1cbd 8680 553c 7d3c ccbb 1367 66bd
00000050: 4067 e63c 41c7 2d3d 0562 223d 6114 00bc
00000060: 5769 62bc d09a 26bd d9cf 34bd e8f9 a0bd
00000070: 7151 83bd e421 4cbd 35a5 d9bc a8e4 3dbd
00000080: 38bb 9cbd 008c 4ebd e9c4 97bd 0498 75bd
00000090: 7be5 8ebc 2ccd e2bc bb8f 7cbd 80b4 2cbd
000000a0: 2c6b 2bbd faeb e4bb d1f2 5a3c 6937 c1bb
000000b0: c128 79bd d48e 5f3b c6fd a33c 880f 843c
000000c0: 3f0a 95bd 02e0 95bd e0dc 373c d6ee b6bc
000000d0: 4bb4 e8bc 9175 4dbb 808a e53b 3d5e bdbc
000000e0: 1852 0dbd e43d 9ebd ed65 bb3c a2c8 28bd
000000f0: d457 46bb 894c 4cbd 8322 47bd edd4 81bd
00000100: 8e21 c9ba fddf b3bc da3d 0fbd 1f56 76bc
00000110: e6d4 77bd 1457 37bd 6620 84bd a599 7abd
00000120: ffb3 5fbd 4580 013d 21b9 4dbc 486b ccbc
00000130: d56e 2cbd 33ab 71bd 6bdc 5cbd 5564 5d3c
00000140: 8b3e 41bd 9ea0 08bd e72e 61bc 0353 68bd
00000150: bf8b 8fbd 359a 12bc 0740 79bd c22c 81bd
00000160: 8a15 c63b d1d4 a2bc 4bac d6bc 94df 43bd
00000170: 27df 64bc 7bd7 603c 8eb2 24bd 029b 10bd
00000180: 72a3 53bc 6935 afbd b036 a7bd 04e9 aeba
00000190: 79b4 99bd d241 74bd cf9d 0cbd 1ad8 4cbd
000001a0: c0a9 9bbd f920 62bd cbfa d3bc aa70 85bd
000001b0: acad 90bd 59c9 96bc def1 3bbd 9776 bdbd
000001c0: 0377 96bd 69cf 0cbd 8359 bcbc 4d57 8fbd
000001d0: c7a0 1bbd 3637 13bd 9a8d 33bd 829c 84bc
000001e0: 3ab1 323c 964f 5fbd 4af5 46bd d562 8fbd
000001f0: 9e43 e53b d150 5ebd 6f12 94bd 85e5 1c3c
00000200: c73c a9bd 4525 f0bb fb69 a1bd dc64 aebd
00000210: d85e b4bd 167e aebc 41ff 41bd 8b2d 44bd
00000220: 4307 38bd eeb6 0cbd b5a7 b4bb 6670 16bd
00000230: a230 063c 6a14 73bd 9af3 11bd 8068 783a
00000240: 0b05 923b eafa 8abd a268 d4bc 906b 82bd
00000250: 92a4 a03c b59d 58bd 6f02 823a c19b 2abd
00000260: 6992 4abd dd56 b93c 7acc 483d b4c1 43bc
00000270: b2bd afbb b8ec 34bc c597 3b3a 9498 ab3c
00000280: 3d15 85bc dcec 973c 0115 aebb e24c 8fbc
00000290: cbf9 863c 61ba 263c d352 4cbd 0187 cbba
000002a0: c93b f039 d2de 4ebd dac4 69bc 66dc 8c3c
000002b0: 3473 5dbd 6f03 4ebc cbf8 92bb 5fc8 71bd
000002c0: af81 e23c 1bc7 fe3c bd22 06bd 02a6 89bd
000002d0: d20b 9ebc 4eef e7bc dfc1 643d b744 003c
000002e0: ef1e 86bc 95ed abbb 8e07 95bc 4c0b c5bc
000002f0: 4ca5 0ebd 5c97 9bbc 3d55 833c e86f 4a3c
00000300: 9c76 97bc 4ea1 56bc 44de 4abd c0c3 93bd
00000310: 3080 87bd 6d93 36bd 1814 32bd 804f 3bbc
00000320: 2bad 2ebd b2ab 9abc 7fa2 7bbd 764d 38bd
00000330: 90d2 1cbd fb9d 15bc b261 82bb 36e1 febc
00000340: 72cb bdbb 90a8 613b 8f27 90bc c322 be3b
00000350: b8d6 cc3b 3047 bf3b d318 8abc 170b 40bd
00000360: e18b fabc 7b14 273c f8e9 3fbb 9482 00bd
00000370: 0855 f1bc 4f6b 96bc 0ecc 84bd 4f94 97bc
00000380: eaa9 e9bb 1bb6 acbc 8053 42bc d442 82bc
00000390: 1e98 0e3d 9ce5 023d 9c4a 1dbd 165f 77bd
000003a0: 9b5d 153d adef 7bbd 1524 a4bd e34b 89bd
000003b0: 0e75 9ebd 9734 8abd 69b2 95bc 4511 68bd
000003c0: 774b 9abc 7450 dabc fe3d a3bd 7abf 42bd
000003d0: dccb 95bd faac b7bd ff6e e1ba 8396 cabc
000003e0: d1d7 57bd 4d5d dfbd ce36 52bd a235 87bd
000003f0: df6e 97bc 6ba2 24bd cd2d 09bd 9b3e d338

bias f4 [100]
0.010814374 0.18465754 0.19255121 0.29517263 0.20800325 -0.028411774 0.1448142 -0.2995848
-0.046776854 0.27387434 -0.733866 -0.14112537 -0.050171904 -0.28417608 -0.29873833 -0.069718085
-0.01803392 0.11559366 0.22012265 0.1085708 0.25207752 0.23183979 -0.04551076 -0.018571403
0.01325422 0.27755332 -0.26208434 0.22455223 0.35553 -0.029592596 0.24483006 0.23173259
0.17909268 -0.543594 -0.030467067 0.29990172 0.021872645 -0.011199585 -0.12360888 0.0854875
-0.21615295 0.39237013 -0.5848631 0.28229058 0.17653126 0.2664805 0.28094265 -0.03696056
-0.06999804 0.07741576 -0.48267466 0.070251115 0.2066056 0.19715844 0.12668033 0.3355845
0.06662095 0.17721032 0.0815859 0.20343868 0.16263942 0.32308245 0.22138998 -0.19112024
0.091915525 0.11571299 -0.00926652 0.20330723 0.19412148 0.10453196 0.22788447 0.031118035
0.08994679 0.16098203 0.26546407 -0.16092208 0.02764201 0.32142624 0.022017602 -0.06047092
0.31362584 0.35359383 0.21222618 0.023392923 0.24890706 0.21865766 0.3026716 -0.36920238
0.11824492 0.2894305 0.32602015 0.14004074 0.30623284 0.13133843 0.18413475 0.015035805
0.08090526 0.14537771 -0.030028777 0.30439934
00000000: c62e 313c de16 3d3e 252c 453e de20 973e
00000010: cefe 543e cfbf e8bc 2c4a 143e 2e63 99be
00000020: 1699 3fbd 4239 8c3e a4de 3bbf 2b83 10be
00000030: 0e81 4dbd 877f 91be 3bf4 98be 5bc8 8ebd
00000040: dfbb 93bc 5ebc ec3d d567 613e 5e5a de3d
00000050: 4e10 813e 6967 6d3e 7e69 3abd 0e23 98bc
00000060: 3a28 593c 781b 8e3e eb2f 86be 05f1 653e
00000070: 0708 b63e 2c6c f2bc bbb4 7a3e 4f4b 6d3e
00000080: 1264 373e fa28 0bbf 1296 f9bc b88c 993e
00000090: 432e b33c 777e 37bc a726 fdbd 1214 af3d
000000a0: 3357 5dbe bde4 c83e 97b9 15bf 6488 903e
000000b0: 9cc4 343e 2270 883e b7d7 8f3e f563 17bd
000000c0: 225b 8fbd 278c 9e3d 2221 f7be d1df 8f3d
000000d0: 6b90 533e e7e3 493e 7db8 013e bbd1 ab3e
000000e0: 9170 883d 9f76 353e 8216 a73d 3b52 503e
000000f0: f38a 263e 106b a53e 0eb4 623e 06b5 43be
00000100: 353e bc3d effa ec3d 9ad2 17bc c52f 503e
00000110: c8c7 463e da14 d63d 8c5a 693e 40eb fe3c
00000120: 0636 b83d 79d8 243e e8ea 873e c2c8 24be
00000130: 7f71 e23c fb91 a43e 425e b43c 5bb0 77bd
00000140: 9193 a03e 400a b53e d251 593e 84a2 bf3c
00000150: 7ee1 7e3e cbe7 5f3e c6f7 9a3e 1808 bdbe
00000160: 652a f23d 3c30 943e 1dec a63e d766 0f3e
00000170: 8dca 9c3e 957d 063e d28d 3c3e bd58 763c
00000180: a8b1 a53d e5dd 143e e9fe f5bc 3bda 9b3e

weight f4 [80, 100]
0.048579983 0.030938841 -0.12510346 0.117174424 -0.15366144 -0.14779986 -0.020825649 0.046263672
0.07408336 -0.062232863 -0.003728223 0.003268691 0.067324944 0.009089817 -0.1010457 -0.00450259
0.026446957 0.017797211 0.085660756 0.25822762 -0.15773126 -0.068665564 -0.056625586 0.01577898
0.10042034 0.037148025 -0.11293175 0.0154384645 -0.008394187 -0.040859498 0.1632583 0.046557106
-0.053992514 -0.025379742 0.051139824 0.011835288 -0.077212505 -0.142363 -0.09121406 -0.03114407
-0.0034939481 0.08915138 0.031088764 -0.07693745 0.022657176 -0.010721248 0.25472915 0.07975123
0.009001764 -0.024217447 -0.05371867 0.04824395 -0.23090155 0.17210019 -0.023629555 -0.064549
0.11027961 0.059617717 -0.04813847 0.12204807 0.08525355 0.047826532 0.051153407 -0.0070784027
-0.07895229 -0.1399707 -0.05663255 0.030962957 -0.11141881 -0.018842334 0.08678684 -0.15547924
0.101479575 0.020374145 -0.103147104 -0.10352839 0.03070129 0.01265039 0.1943801 -0.03511174
-0.15471736 -0.11554952 -0.103249945 -0.016127862 -0.17985108 0.021940134 -0.07490367 -0.033773918
0.08937623 -0.027974743 -0.11161366 -0.045933645 0.12861992 -0.021754239 0.04560619 0.0013212305
-0.18404229 0.23372084 0.008960082 -0.12004327 0.11773091 0.06074328 0.1396878 -0.081950545
0.19064951 0.02735198 -0.22683176 -0.19450775 -0.06941725 -0.056835365 0.07227114 -0.09551847
0.023612162 0.052249983 -0.030741092 0.07934254 0.08291399 0.07474208 -0.1597448 -0.06768559
0.06280228 0.08371669 -0.026664317 0.101945095 -0.039917365 0.07496945 0.07673805 -0.053563297
0.121856615 0.063519955 0.06347179 -0.058087748 -0.034030586 -0.102845505 -0.11451457 -0.07999361
-0.008014755 -0.23101318 -0.100186534 -0.029791737 -0.10510334 -0.110535555 -0.09300443 0.09121787
0.01892681 -0.24387822 0.08166241 -0.07767221 -0.014393782 -0.016306961 -0.14185357 0.06608291
-0.012875162 0.011237915 0.022446707 -0.09634549 -0.22390358 -0.10245867 0.044409137 -0.040482238
0.10030313 -0.121623926 0.05143901 -0.15337002 -0.07513306 0.009933187 0.002389149 -0.08159064
-0.12141923 -0.101400994 0.023406254 0.077012524 0.08145497 -0.109418646 -0.13141418 0.10133143
-0.0017814207 0.15513201 0.017000547 -0.034378044 0.09353828 0.15890609 0.040780727 -0.0791964
-0.05952984 0.010295752 -0.060077474 -0.020044614 -0.03623321 0.14115928 0.0554118 -0.06733698
-0.004360529 -0.048195932 -0.13703354 0.14281777 0.050977375 -0.16872402 0.052502394 0.05388829
0.017994722 0.07471575 -0.03762333 -0.0921313 0.0982892 0.012520808 -0.037303284 -0.035271157
0.009643118 -0.074317545 -0.051095515 -0.013086228 -0.052174184 -0.12512717 -0.18610148 -0.0925078
-0.065243214 0.081786044 0.1616562 0.22584406 -0.054496042 0.005978784 -0.024618585 0.105851084
0.10204411 -0.04278471 -0.09538736 -0.050035592 0.074747734 -0.08799971 0.09041419 -0.011602001
0.110002525 -0.053165786 0.0067994054 0.060273256 0.032886226 -0.07515399 -0.07462711 0.036429904
-0.09329578 -0.1756202 0.07255769 0.055439305 0.0022922528 -0.16217382 0.14687102 -0.09220175
0.03396738 -0.14292161 -0.15059242 0.0014625045 0.026947211 -0.063107856 -0.06994172 0.04969883
00000000: cefb 463d 7473 fd3c 1f1b 00be 25f9 ef3d
00000010: 6d59 1dbe d958 17be 8d9a aabc fa7e 3d3d
00000020: 04b9 973d e3e7 7ebd 3455 74bb 8937 563b
00000030: a9e1 893d 75ed 143c 0cf1 cebd 768a 93bb
00000040: 4aa7 d83c 75cb 913c e86e af3d 6936 843e
00000050: 4e84 21be 88a0 8cbd 3bf0 67bd eb42 813c
00000060: 2ea9 cd3d 8728 183d c348 e7bd 9df1 7c3c
00000070: c687 09bc 4a5c 27bd 2f2d 273e aab2 3e3d
00000080: 4127 5dbd 2de9 cfbc fe77 513d cce8 413c
00000090: 9721 9ebd 9bc7 11be 70ce babd d921 ffbc
000000a0: b9fa 64bb 0095 b63d ddad fe3c 6291 9dbd
000000b0: 8b9b b93c 2ca8 2fbc dc6b 823e 9d54 a33d
000000c0: 227c 133c ab63 c6bc 1c08 5cbd 739b 453d
000000d0: 7571 6cbe 083b 303e c592 c1bc 4432 84bd
000000e0: 47da e13d b531 743d d82c 45bd 57f4 f93d
000000f0: 6a99 ae3d c1e5 433d 3c86 513d f2f1 e7bb
00000100: bdb1 a1bd 7b54 0fbe 88f7 67bd 07a6 fd3c
00000110: 8c2f e4bd 3d5b 9abc 4cbd b13d f335 1fbe
00000120: 86d4 cf3d aee7 a63c ca3e d3bd b106 d4bd
00000130: 4681 fb3c 9543 4f3c 940b 473e 54d1 0fbd
00000140: 3a6e 1ebe 3aa5 ecbd b574 d3bd 941e 84bc
00000150: e22a 38be ccbb b33c 1867 99bd 8556 0abd
00000160: e30a b73d 4a2b e5bc b495 e4bd eb24 3cbd
00000170: f1b4 033e f235 b2bc 8ecd 3a3d 242d ad3a
00000180: 9575 3cbe 8454 6f3e 4fcd 123c 3fd9 f5bd
00000190: e71c f13d f2cd 783d 520a 0f3e b0d5 a7bd
000001a0: a039 433e 4211 e03c 9646 68be 0a2d 47be
000001b0: a22a 8ebd 33cc 68bd e402 943d 309f c3bd
000001c0: 4b6e c13c 1404 563d bed4 fbbc 577e a23d
000001d0: cfce a93d 6012 993d 2494 23be be9e 8abd
000001e0: 7b9e 803d a873 ab3d 206f dabc 97c8 d03d
000001f0: 6480 23bd 9589 993d d728 9d3d 3065 5bbd
00000200: f68f f93d c016 823d 7ffd 813d 6bed 6dbd
00000210: a863 0bbd aaa0 d2bd 9d86 eabd b1d3 a3bd
00000220: 5250 03bc b88e 6cbe 992e cdbd cd0d f4bc
00000230: 6c40 d7bd 7760 e2bd 1b79 bebd 6fd0 ba3d
00000240: 660c 9b3c 36bb 79be 9f3e a73d 9c12 9fbd
00000250: e6d3 6bbc 2d96 85bc 1042 11be 7a56 873d
00000260: 58f2 52bc 3b1f 383c 28e2 b73c c950 c5bd
00000270: fb46 65be dad5 d1bd 5be6 353d b4d0 25bd
00000280: ba6b cd3d f715 f9bd b6b1 523d 080d 1dbe
00000290: 5ddf 99bd cebe 223c 4593 1c3b fe18 a7bd
000002a0: a5aa f8bd 53ab cfbd 79be bf3c beb8 9d3d
000002b0: ddd1 a63d e216 e0bd 7091 06be da86 cf3d
000002c0: 8f7e e9ba edda 1e3e bb44 8b3c fecf 0cbd
000002d0: ff90 bf3d 47b8 223e b109 273d b931 a2bd
000002e0: 90d5 73bd 84af 283c cc13 76bd 9a34 a4bc
000002f0: 4669 14bd 0f8c 103e 7cf7 623d f8e7 89bd
00000300: c5e2 8ebb 1969 45bd 8552 0cbe d23e 123e
00000310: a7cd 503d fdc5 2cbe c00c 573d f8b9 5c3d
00000320: ab69 933c 9204 993d ec1a 1abd 56af bcbd
00000330: d94b c93d 1324 4d3c 54cb 18bd 7d78 10bd
00000340: 2bfe 1d3c cc33 98bd 8849 51bd 9e67 56bc
00000350: 99b4 55bd 5621 00be 6391 3ebe bb74 bdbd
00000360: 3c9e 85bd 717f a73d 3489 253e aa43 673e
00000370: 3e37 5fbd ade9 c33b eaac c9bc 74c8 d83d
00000380: 81fc d03d 053f 2fbd 735a c3bd 1ff2 4cbd
00000390: 5715 993d 3139 b4bd 132b b93d 5216 3ebc
000003a0: 0149 e13d 5ec4 59bd 8ccd de3b 17e1 763d
000003b0: b5b3 063d 56ea 99bd 19d6 98bd 8637 153d
000003c0: dc11 bfbd c8d5 33be 2099 943d 5314 633d
000003d0: 9f39 163b e510 26be 5b65 163e 45d4 bcbd
000003e0: 6121 0b3d 0b5a 12be e634 1abe 82b1 bf3a
000003f0: 66c0 dc3c b13e 81bd 9b3d 8fbd 0091 4b3d

bias f4 [80]
0.082140155 0.086393476 0.047626674 0.069490515 0.24885498 0.23353398 0.20547555 0.15754059
0.15032262 0.2352779 0.082033776 0.29923865 0.19971171 0.24100281 0.23009181 0.26431605
0.20889515 0.10287804 0.03297204 0.24455975 0.3583135 0.08694249 0.116012454 0.13566867
0.14482698 0.22813283 0.19921286 0.05903071 0.08465408 0.31313798 0.18553695 0.24078088
0.15279827 0.27701178 0.25455254 0.08832267 0.17493226 0.24912798 0.19206151 0.17761901
0.049452055 0.18835467 0.2395479 0.31113368 0.284781 0.17620471 -0.1494632 0.20067292
0.2321491 0.17527302 -0.041559175 0.21076448 0.22647114 0.22193198 0.30579478 0.16557662
0.2183317 0.11719198 0.15680088 0.26537117 0.37815067 0.19777976 0.2356825 0.21331917
0.20140968 0.23580933 0.19896248 0.16183923 0.2631983 0.23791096 0.22969122 0.16287822
0.11919798 0.24504128 0.22727469 0.19133277 -0.07754655 0.26131985 0.076048404 0.13723278
00000000: 1939 a83d 10ef b03d 3014 433d 0b51 8e3d
00000010: d7d3 7e3e 8823 6f3e 2f68 523e 5252 213e
00000020: 2cee 193e b1ec 703e 5301 a83d cf35 993e
00000030: 3a81 4c3e 71c9 763e 309d 6b3e 6f54 873e
00000040: 9ce8 553e b9b1 d23d b10d 073d df6d 7a3e
00000050: de74 b73e e70e b23d f097 ed3d baec 0a3e
00000060: 864d 143e a79b 693e 75fe 4b3e 30ca 713d
00000070: 1e5f ad3d 9f53 a03e 66fd 3d3e 438f 763e
00000080: 2677 1c3e 7dd4 8d3e b654 823e 84e2 b43d
00000090: 7121 333e 681b 7f3e c6ab 443e c2e1 353e
000000a0: 3d8e 4a3d 0ce0 403e 0b4c 753e ea4c 9f3e
000000b0: d1ce 913e 026f 343e e20c 19be 347d 4d3e
000000c0: 7eb8 6d3e c57a 333e f439 2abd a5d2 573e
000000d0: 0de8 673e 2342 633e 2291 9c3e eb8c 293e
000000e0: 5892 5f3e 5902 f03d 6990 203e bbde 873e
000000f0: f79c c13e c786 4a3e c156 713e 5770 5a3e
00000100: 573e 4e3e 0078 713e d2bc 4b3e 2fb9 253e
00000110: edc1 863e ee9e 733e 2d34 6b3e 8cc9 263e
00000120: 121e f43d 1aec 7a3e b2ba 683e bdec 433e
00000130: bad0 9ebd b7cb 853e 44bf 9b3d c086 0c3e

weight f4 [50, 80]
-0.014534272 0.027226757 -0.004610769 -0.24085312 -0.1557446 -0.105340675 0.031730894 -0.00054763234
0.1006935 0.1381352 0.08158538 0.06133417 0.008110759 -0.056895223 -0.013585555 -0.035103787
-0.119598 -0.019338282 -0.08654914 -0.14757709 0.22712918 -0.12206105 -0.16496383 -0.007837135
-0.22770616 0.053728458 0.16024345 -0.078854814 0.1337991 -0.07918482 0.022697479 -0.11167362
0.009419285 -0.017818457 -0.006651879 0.06099024 0.11401373 0.0802834 -0.05895464 -0.002083252
-0.0060424623 -0.008703689 0.06258221 0.10016464 0.020390835 -0.02554977 0.1358424 0.13396867
0.03799592 0.053768054 -0.049492933 0.018015474 0.089324854 -0.026595026 0.27515617 0.025914691
-0.0075167394 -0.18817902 0.054080606 -0.017019989 0.07859618 0.05589031 0.058830835 0.09420051
-0.009687279 -0.16251032 -0.0069793495 0.0306251 0.02659461 -0.2343442 -0.07364857 0.057122868
-0.14346212 0.0068623004 0.041345235 -0.04131222 0.11583708 -0.23140177 -0.19863287 0.1586172
0.011160694 0.008728049 0.08250903 0.020998547 0.0369919 -0.04143956 0.04672194 -0.010551534
-0.002477166 0.087954745 -0.18823665 0.047509085 0.10727866 0.0010445041 0.092443906 0.09005762
-0.05490104 -0.21243173 0.012228754 0.10099663 -0.030364433 -0.1136167 0.020529704 -0.1968317
0.065906726 -0.0025640815 -0.027259082 0.035822634 -0.0052770167 -0.3390979 -0.106651604 -0.26240134
-0.053710606 0.029287657 0.23572901 -0.031151047 -0.2518039 -0.22738542 0.027137134 0.01191088
0.121388346 0.08177857 0.027577661 -0.08474473 -0.056085553 0.11720589 0.03224705 0.048089225
0.048457596 -0.015754 0.06667069 -0.1415338 -0.017763352 -0.12210011 0.059452336 -0.0061576893
-0.06395458 0.04893461 0.0146194035 -0.20159288 -0.15386751 -0.15863383 0.07649786 0.069937006
0.17814218 0.042760246 -0.079119876 -0.08641813 -0.053155843 0.08894715 -0.19381188 0.06982065
0.0830776 0.07721387 -0.22272184 0.0027217756 0.05671116 0.16392674 0.017746547 -0.0050801365
0.2090176 -0.0033270537 0.08339039 -0.018506257 0.07871185 0.15630652 0.0009589135 0.025178462
0.020798137 -0.15523192 -0.010673497 -0.031691965 -0.13201573 -0.13075751 0.021351814 -0.026288442
0.21256976 0.052882954 0.086581804 -0.031139107 0.01690602 0.18907315 -0.29016018 -0.18255301
-0.22609843 -0.03010153 0.036921185 -0.11257157 0.033620164 0.06199834 0.14450496 0.039922774
0.072461225 -0.2610869 -0.10189415 0.22683325 0.09592118 0.038837265 -0.031872265 0.021354243
-0.14964464 -0.010038355 -0.106682874 0.09753477 0.05623067 -0.21937042 0.07181688 -0.22127002
0.07594394 0.0633323 0.14112993 -0.0019251818 -0.037949085 0.026248375 -0.12981243 0.08663939
0.012427284 -0.07745632 0.017415242 0.028835703 -0.037437983 -0.018345492 -0.2221978 0.056432307
-0.07003105 0.17901392 0.008682191 -0.02517653 -0.05077653 0.037086353 -0.038965303 0.14868478
0.017561287 0.07235928 -0.026771273 0.05193829 0.009797893 -0.11640255 0.11440497 0.013023348
0.1754801 -0.008640019 -0.010438053 0.14323352 0.23376964 -0.033168897 0.057462048 0.16592339
-0.035302844 0.022335581 -0.025878424 0.12176476 0.023553066 -0.14138615 -0.04663394 -0.044371594
00000000: 2821 6ebc a60a df3c ef15 97bb 33a2 76be
00000010: 837b 1fbe dabc d7bd 41f8 013d fc8e 0fba
00000020: 6538 ce3d 5073 0d3e 3c16 a73d 8a39 7b3d
00000030: fde2 043c f70a 69bd f395 5ebc fdc8 0fbd
00000040: ccef f4bd 516b 9ebc ad40 b1bd 731e 17be
00000050: 8d94 683e 25fb f9bd 47ec 28be 5467 00bc
00000060: ce2b 69be 5f12 5c3d dc16 243e a27e a1bd
00000070: a202 093e a72b a2bd 10f0 b93c 24b5 e4bd
00000080: 5853 1a3c 03f8 91bc 01f8 d9bb e7d0 793d
00000090: 0880 e93d a06b a43d 6c7a 71bd 2b87 08bb
000000a0: d9ff c5bb eb99 0ebc 1a2b 803d 1e23 cd3d
000000b0: ae0a a73c c04d d1bc 451a 0b3e 152f 093e
000000c0: 9ca1 1b3d e43b 5c3d 1ab9 4abd 3095 933c
000000d0: f3ef b63d d0dd d9bc 45e1 8c3e 0c4b d43c
000000e0: fb4e f6bb 00b2 40be a083 5d3d 816d 8bbc
000000f0: 09f7 a03d 3ded 643d 9af8 703d 32ec c03d
00000100: 65b7 1ebc 1b69 26be 07b3 e4bb 7de1 fa3c
00000110: f1dc d93c edf7 6fbe 10d5 96bd abf9 693d
00000120: bce7 12be 26dd e03b 9f59 293d 0137 29bd
00000130: fe3b ed3d 96f4 6cbe 6a66 4bbe 8c6c 223e
00000140: 58db 363c 1700 0f3c 7ffa a83d 2505 ac3c
00000150: d284 173d 87bc 29bd 815f 3f3d 57e0 2cbc
00000160: f357 22bb 9e21 b43d 1cc1 40be e398 423d
00000170: eab4 db3d bee7 883a 3b53 bd3d 2170 b83d
00000180: eadf 60bd b487 59be 1d5b 483c 52d7 ce3d
00000190: d5be f8bc dfaf e8bd e92d a83c 408e 49be
000001a0: 1bfa 863d 260a 28bb 704e dfbc c1ba 123d
000001b0: d3ea acbb 3d9e adbe 286c dabd 7859 86be
000001c0: a7ff 5bbd abec ef3c f262 713e 7b30 ffbc
000001d0: 71ec 80be b9d7 68be b24e de3c da25 433c
000001e0: 749a f83d 867b a73d 8cea e13c a58e adbd
000001f0: f7b9 65bd a409 f03d 7c15 043d 35f9 443d
00000200: 797b 463d 880e 81bc a58a 883d 3dee 10be
00000210: 7384 91bc 9f0f fabd 4b84 733d 71c6 c9bb
00000220: 9efa 82bd a86f 483d 3986 6f3c 5d6e 4ebe
00000230: 728f 1dbe e870 22be e9aa 9c3d 223b 8f3d
00000240: e76a 363e 5e25 2f3d 9a09 a2bd fdfb b0bd
00000250: f1b9 59bd ec29 b63d 9f76 46be 21fe 8e3d
00000260: 9724 aa3d 4e22 9e3d 3211 64be d15f 323b
00000270: f649 683d 69dc 273e 3561 913c 4677 a6bb
00000280: b608 563e b30a 5abb 95c8 aa3d 6f9a 97bc
00000290: ae33 a13d d10e 203e 985f 7b3a 1043 ce3c
000002a0: db60 aa3c 1ef5 1ebe e4df 2ebc 6fcf 01bd
000002b0: 222f 07be 4ce5 05be 00ea ae3c dc5a d7bc
000002c0: e3ab 593e cc9b 583d cd51 b13d 7117 ffbc
000002d0: 7e7e 8a3c 649c 413e e08f 94be 2def 3abe
000002e0: 5986 67be 7c97 f6bc ab3a 173d ec8b e6bd
000002f0: 4cb5 093d f9f1 7d3d 1cf9 133e 1086 233d
00000300: 8d66 943d 2fad 85be e1ad d0bd fa46 683e
00000310: 5372 c43d d313 1f3d 7e8c 02bd 18ef ae3c
00000320: 723c 19be ea77 24bc 8d7c dabd 4fc0 c73d
00000330: 2252 663d a4a2 60be ba14 933d 9c94 62be
00000340: 7f88 9b3d 5db4 813d 5d84 103e 6256 fcba
00000350: 8070 1bbd d506 d73c 8ded 04be fe6f b13d
00000360: cf9b 4b3c 6ba1 9ebd 69aa 8e3c da38 ec3c
00000370: 9258 19bd 4949 96bc d287 63be 9025 673d
00000380: 706c 8fbd 6d4f 373e c03f 0e3c 033f cebc
00000390: 0dfb 4fbd dce7 173d 159a 1fbd d340 183e
000003a0: b0dc 8f3c 1a31 943d 6e4f dbbc 3fbd 543d
000003b0: 5887 203c 7664 eebd 274d ea3d e15f 553c
000003c0: 0eb1 333e de8e 0dbc 5e04 2bbc cfab 123e
000003d0: 4f61 6f3e 1cdc 07bd 535d 6b3d d2e7 293e
000003e0: b799 10bd 1cf9 b63c fdfe d3bc cd5f f93d
000003f0: 5cf2 c03c 88c7 10be 3b03 3fbd fdbe 35bd

bias f4 [50]
0.20483889 0.25582287 0.116286896 0.117216736 0.2597112 0.20699851 0.20541282 0.15849254
0.26256558 0.20378791 0.19708794 0.13614605 0.11732922 0.14267337 0.31445488 0.20981975
0.122757725 0.25653878 0.31678218 0.22551931 0.12344632 0.09412899 0.27205276 0.19809213
0.1999655 0.29204467 0.16042553 0.11192841 0.2089894 0.28835398 0.22758222 0.11349112
0.17675214 0.14081553 0.25250408 0.25354025 0.3226033 0.19713055 0.12237936 0.23407604
0.17138524 0.0702717 0.16959056 0.24941023 0.28444487 0.21048097 0.33378446 0.19700515
0.2288527 0.24422313
00000000: 49c1 513e 37fb 823e d327 ee3d 540f f03d
00000010: def8 843e 6bf7 533e bd57 523e de4b 223e
00000020: ff6e 863e c7ad 503e 6cd1 493e df69 0b3e
00000030: 4d4a f03d f818 123e 3b00 a13e fdda 563e
00000040: 6768 fb3d 0d59 833e 4631 a23e 89ee 663e
00000050: 6dd1 fc3d b3c6 c03d 804a 8b3e aad8 4a3e
00000060: c2c3 4c3e e186 953e 9746 243e b93a e53d
00000070: 5101 563e 22a3 933e 500b 693e 086e e83d
00000080: 83fe 343e f231 103e 3748 813e 07d0 813e
00000090: 422c a53e 97dc 493e 08a2 fa3d a1b1 6f3e
000000a0: 9d7f 2f3e 9cea 8f3d 26a9 2d3e 6565 7f3e
000000b0: c2a2 913e 5388 573e cce5 aa3e b8bb 493e
000000c0: 5d58 6a3e a115 7a3e
