models/conv2_layer_64x64.pt (torch_old, 702110 bytes, 8 tensors)

weight f4 [10, 1, 5, 5]
00000000: 32f2 d63d f3e5 01bd c2f0 8c3d 3b63 72bc
00000010: 132b a0bc c907 4e3e ed55 41bd a75c 3e3e
00000020: 62dd eabd 98fb 533e 2e1d e0bd 49ff bf3c
00000030: 2d14 7cbe e1a1 efbc 3c3a a6bd a9a1 b43d
00000040: e111 c93d 58f6 f2bd ba66 113e 9b09 1d3e
00000050: 4f58 2cbe 6c16 efbd d619 c3bd cbd4 c2bd
00000060: 82cd b13d 8618 2c3e b09d 993c 3c12 153e
00000070: c1cb 0cbe d652 1abe 8210 7e3d 88d1 323d
00000080: 555e 99ba d4f3 a6bc b36b 4fbc b220 1c3e
00000090: 02e7 3cbe 4508 39be e6d4 0d3e 5e76 c3bd
000000a0: 4fcc 253e 53fb 09be 72f8 d9bd 906c 1e3e
000000b0: ce97 803d 4b9b 2bbe 254b 0fbc de99 b53d
000000c0: 273f c93d 6c79 973d 1c09 513c 4cab d53d
000000d0: 5b31 f13d 2a42 2bbd f3d9 9f3c 819a e4bd
000000e0: ff6d 6cbd a5bf 9f3c 1f66 593d e926 4f3d
000000f0: 2333 0b3e 2197 2f3e 46a4 243d def0 3abe
00000100: ecf0 4abd cc03 6d3b 8bf4 d13d 84ad abbd
00000110: 4bd8 33be 0e84 29be a7d2 fcbd 558f e33c
00000120: 71a6 90bd 0a7f 32be d755 b8bd 8fb0 213e
00000130: 18a6 89bd f17e 103e a7cb 6a3d 28c3 28be
00000140: e00e e4bd 0c67 d23d df55 f63d bf90 17be
00000150: 1e5e 13bc 3c7a cbbd b232 1bbe 6a75 563d
00000160: cd2e 063e 0150 323e bc82 a3bc 24a9 ee3d
00000170: 0664 2e3a 5e4a 3b3e e447 bdbd 008a 3e3d
00000180: c4e5 99bd 03a8 243e 8fd7 bebd 3879 e93d
00000190: 013d 26be 7287 1b3e 7793 2e3e eb0b 2f3e
000001a0: 517c 4c3e cd87 153e d1e0 f2bd 9bf3 21be
000001b0: 3b71 e4bd 0518 8d3d 5866 a9bd cbaa 0dbe
000001c0: ee48 573c bae9 14bd 8c74 07be bbed 8e3c
000001d0: 3384 2c3e f19f 0bbd 3d23 653e 8b86 9cbc
000001e0: 2c00 f2bd f629 35be e4f7 443e f3c6 23be
000001f0: c72e 9bbd da86 f2bc d2ad 183e 2916 073e
00000200: 3c0a 043e c859 43be edb7 d63d c862 0c3e
00000210: 23fd b63c 612b c4bd 7def 2f3d 9cb6 b53c
00000220: 41dd c1bd be0d cabc 7f86 07be 2a6f d5bd
00000230: 2f22 fdbd 1c9f 8fbc 5ed3 2b3e ea6c 05be
00000240: 2d79 033e 993e 0fbe f738 8c3d 07ea 6f3c
00000250: f4bd debd 54ac 793d 5d42 1bbe 45e9 15be
00000260: 2506 193d 57d5 e33c 7cf0 6e3e 2509 f8bd
00000270: e877 54bd 1755 cabb 57c6 23be 47b2 2abe
00000280: ce22 a0bd f492 183e 1b2f 4a3e f6d8 083e
00000290: 5972 a5bd c503 03be f87b b63d bcb8 e8bd
000002a0: 06aa 4abd 1df7 653e d462 f3bd f249 06be
000002b0: 50d8 403e ac52 0c3e f322 833c 441a 5b3e
000002c0: 2726 12bd ddcb 09bd 5183 05be 8eb3 9f3d
000002d0: 29c8 39be 63de 1abe 290b 353e 11c9 26be
000002e0: 0d13 1ebe 87da 823c 0c07 923c 9a95 233e
000002f0: 4e7b 1abc b405 7ebc 8bbe 213e 406e 13be
00000300: 49a3 513e 8ecc 253d d521 2abe 7b82 12be
00000310: 5eb7 203e cdf4 af3c 9408 973d fa04 b83d
00000320: 622d fc3c 6076 25bc e666 f5bd 6f95 efbb
00000330: 05d1 4ebd 6835 32be 00b1 073e 8917 293d
00000340: 20e9 223e 4e0f b43d 3209 55be 3bbe d0bd
00000350: c0df 373d 2131 50be 6ee2 923c 8ebf 9fbd
00000360: fff3 9e3d c259 1c3e 08d5 4d3e e4af 343c
00000370: 352c 363e 15cc 69be e954 883c 9496 77bd
00000380: 2016 813c 09de 34be 6c4d 3e3e c185 663d
00000390: 7839 d9b9 c138 fdbd 7300 873d 4769 2dbe
000003a0: af75 c0bd 3cc5 3dbe 2fea 1a3d 0bce 4fbe
000003b0: c1a2 4b3e 7d50 333e 1f00 63bd 0253 1dbe
000003c0: d7cb 313d 8d55 2e3e 0160 643d 4e06 e33c
000003d0: 49de a8bd ce14 803d e7d6 58bd ca90 0d3e
000003e0: 3703 b63d c303 7abc
0.10495414 -0.031713437 0.068818584 -0.014794166 -0.01955179 0.20120157 -0.047201086 0.18590032
-0.11468007 0.20701444 -0.109430656 0.02343716 -0.24617071 -0.029251995 -0.08116576 0.08819897
0.09817863 -0.118633926 0.14199343 0.15335695 -0.16830562 -0.116741985 -0.09526412 -0.09513243
0.08681776 0.1680623 0.01875195 0.14557737 -0.13749601 -0.15070662 0.06202746 0.043656856
-0.0011701087 -0.020379938 -0.012659955 0.15246847 -0.18447497 -0.18069561 0.13850746 -0.09544061
0.16191219 -0.13474779 -0.1064309 0.15471101 0.062789544 -0.16758458 -0.008745943 0.088672385
0.098264985 0.07396206 0.0127585195 0.10433063 0.11776992 -0.041811146 0.019513106 -0.11162282
-0.057722088 0.019500563 0.053075906 0.050574217 0.13593726 0.17147495 0.040195726 -0.18255946
-0.049546167 0.0036165593 0.10251721 -0.08382705 -0.17562978 -0.16554281 -0.12344866 0.027778307
-0.07062996 -0.17431274 -0.09000748 0.15790008 -0.06721133 0.14110924 0.057323124 -0.16480696
-0.1113565 0.10273561 0.12028097 -0.1480131 -0.008994607 -0.09935424 -0.15156057 0.05235807
0.1310379 0.17413332 -0.0199598 0.11653355 0.0006652478 0.18290088 -0.09242228 0.046518326
-0.075145274 0.16079716 -0.09318458 0.11400074 -0.16234209 0.15188387 0.17048441 0.1709439
0.19969298 0.14602585 -0.118592866 -0.15815584 -0.111544095 0.06889347 -0.08271474 -0.13834684
0.013139946 -0.03635571 -0.13228053 0.017447343 0.16847305 -0.03408808 0.22376724 -0.019107124
-0.11816439 -0.17691788 0.19235188 -0.15993862 -0.075772814 -0.029605318 0.14910057 0.13192047
0.12894529 -0.19077218 0.104843 0.13709557 0.022337502 -0.09578586 0.042953003 0.022181801
-0.09466029 -0.024664756 -0.132349 -0.104215935 -0.12360036 -0.017531924 0.16779849 -0.13029829
0.12839194 -0.13988723 0.06846803 0.014643199 -0.108760744 0.06095536 -0.15162034 -0.14639767
0.037359376 0.02781169 0.23333925 -0.12111119 -0.051872164 -0.0061746943 -0.1599363 -0.1666957
-0.078191385 0.14899808 0.19744532 0.13364014 -0.08078451 -0.12794407 0.08910364 -0.1136336
-0.049478553 0.22457547 -0.11884084 -0.13114145 0.18832517 0.13703412 0.016007876 0.21396738
-0.035680916 -0.033641685 -0.13038374 0.07797919 -0.18142761 -0.15123896 0.17680039 -0.16287638
-0.15436955 0.015973343 0.017825626 0.15975037 -0.009428812 -0.015504289 0.15795343 -0.14397526
0.20472445 0.04047828 -0.16614468 -0.14307587 0.15694949 0.021479035 0.07374683 0.08985324
0.030783359 -0.010099024 -0.11982517 -0.007311515 -0.050492305 -0.17403185 0.13251114 0.04128221
0.15909243 0.08791982 -0.20804289 -0.101925336 0.04489112 -0.20331241 0.017930236 -0.07800208
0.07761382 0.15268615 0.20100796 0.011028264 0.17790301 -0.22831757 0.01664205 -0.060446337
0.01575762 -0.17662825 0.18584222 0.0562799 -0.00041432283 -0.123643406 0.065918826 -0.16934691
-0.09397446 -0.1853227 0.03782099 -0.20293443 0.19886304 0.17511173 -0.055420037 -0.15363696
0.043407287 0.17024823 0.05575562 0.027712967 -0.082455225 0.06253968 -0.05293932 0.13824764
0.08887332 -0.015259686

bias f4 [10]
00000000: 8620 8fbd 3a9e 19be 87ba 3b3e 9d88 53bd
00000010: f293 ab3c 1a4c 013c 1c47 043d 6954 9fbd
00000020: 6a4e 953d 92f6 54bb
-0.06988625 -0.15001765 0.18332873 -0.051643956 0.02094457 0.007891679 0.032294378 -0.07779772
0.07290347 -0.00324956

weight f4 [20, 10, 5, 5]
00000000: 2614 d1bd d6d8 91bd 4602 9d3c 6396 95bd
00000010: c666 85bc 0539 973b f3c3 8c3d c963 4dbd
00000020: 8139 b83d 3d54 7b3d b455 5cbc 6138 12bb
00000030: 9e3e 94bc 2419 b93d daa1 843d 0f5b 8c3d
00000040: dc65 01bd 8b14 363c 8f8d e4bc 760a 1bbd
00000050: 85ad 50bc c79c 12bd 029b c63c 2f2f 80bd
00000060: 88e6 153d db97 b2bc 37d2 d6bc 2f19 a43c
00000070: fb36 ce3c edc1 30bb d6b9 4b3d e8fb 05bd
00000080: 48c7 0e3d ae43 3cbc 55f6 a8bb 4f96 e53d
00000090: ae70 b03d 7c62 cf3c f849 cd3d 87c5 903d
000000a0: 9f0b d53d f2bc 5c3d 4ae4 cc3d c4bc 933c
000000b0: b62e ad3d 804d 603d 0238 983c 1dc1 02bd
000000c0: d78e be3b 234f 3fbc ee8c 613d 4a9e b53d
000000d0: 694a 2a3d 59e5 553d c6cb 033e 97a3 b43d
000000e0: d46a 2a3d 9ad1 b63d c245 a93d 1d3a ed3d
000000f0: 107d 363d 3caf 1f3e 92fa 0f3e 46ab 133e
00000100: 0b56 063e a190 8d3c ec1c 983d 0ebc c33d
00000110: acea 073e ebf3 df3d 45e3 093d 15df 4f3d
00000120: 1d71 923d 0854 653d 6c64 a23c 577e 463d
00000130: b54b 4ebc fad4 173d c2d9 57bc d9c2 1cbd
00000140: 83a0 533d 6926 4abd eb4b afbc d267 df3c
00000150: 08fb 75bd 0760 ca3b 74f6 a5bd fe9c 4e3d
00000160: c00f afbc d2f3 3cbd 2492 f33c 8cef 33bd
00000170: decf 84bd 814f 143c 3092 393c 2bee 553d
00000180: c88a 47bd b255 573c dd7c 78bd 5dc4 e53c
00000190: ed14 b63c 2a47 16bd be10 57bd 4311 a4bc
000001a0: bf97 a5bc 9ca9 44bd 4ae8 0a3c dd09 883d
000001b0: c892 983c 1abc 6d3d b1ba dcbb 856c dd3d
000001c0: c8fd 9c3d 4fb7 cc3d 4aeb dbbb 5db4 8fbd
000001d0: aac4 b33d fdeb 3e3d 836c 283d 8c6c 10bd
000001e0: 5dd6 dcbc 4780 923c 1bc9 20bb a65e 623d
000001f0: dc85 4b3d 3628 04b9 d563 943c cd07 043d
00000200: b069 503d 4c7d e03c 9b5a 973d 3405 de3b
00000210: 28f4 0c3d 3b4b 6a3d 4c16 933b ac6a 3a3c
00000220: a008 a43d 4511 9b3d 7838 ce3d dcdd c63c
00000230: 2ae8 b63d 7ddd bb3d a75f c6bb 3bab a23d
00000240: ecaf 38bc ba35 8abc 5b12 7d3d 29e3 0e3d
00000250: ff59 893d 8bd9 f13c 287f 14bd 238a dcbd
00000260: d539 a93d 6afd a83c 2c07 a53c 02b0 4cbd
00000270: 112f 01be 9744 e43c bb2b d8bc 0536 02bd
00000280: f14c 6bbc 4c22 11bd 3cac be3b ca22 9c3c
00000290: 8378 08bd 8f09 c63c 0a3b 203d babb d83c
000002a0: 410a 0f3d 6bcf d43d 833a ae3d 06b9 783d
000002b0: 7202 b63b 5fbb 7fbd 7adf 253c 3655 f83b
000002c0: 3184 21bd 4132 093d 4e68 57bc 5d86 5e3d
000002d0: 3b1c 92bc b4e4 98bd f7f4 263c d11d 263d
000002e0: 6a56 063d 3759 45bd f445 ae3d f04d e13b
000002f0: 5698 16bd e164 8d3d e5e8 5c3c 476b a73d
00000300: 3376 083d 4c4b 513d 2d9e ba3d 8691 32bd
00000310: 0ea2 783d 92f7 003d 830d 503d 9cf0 af3d
00000320: bb59 03bd 332a c2bd f849 bd3c 1361 74bd
00000330: f0ac a3bd ec0d d1bc dd5b c6bd 55ff 06bd
00000340: 8eec b5bd 9092 51bc 1899 253d 3aa1 4c3d
00000350: 5d76 a23d 6db8 113d 615f 963d a27d 693c
00000360: c16f dbbb 199d 7e3d 6a0d b13d a925 423c
00000370: 216e 493d e317 243d 9794 fcbc f317 3ebd
00000380: 28d7 a53a 7376 7fbc f522 ce3c 5c74 d83a
00000390: 805d 733d 5ae9 1ebd 2109 703b 0f22 113d
000003a0: 518e 553d 69c6 b6bb f050 673d f2d6 efbb
000003b0: d3fe ab3d e6d6 663d cf03 773c fe18 a0b8
000003c0: 60e9 b03d 5831 b03d 1619 e23d 36bf d23d
000003d0: 9f62 663c c618 c13d 0dba 623c 2f47 cc3d
000003e0: 9167 c43c bbdd c73c dff1 0d3d 1457 183d
000003f0: 2783 ab3d a8ee d23d 239b 213d ef46 b03c
-0.10208921 -0.07121436 0.019166123 -0.073040746 -0.016284358 0.0046149516 0.06873312 -0.05014399
0.08995343 0.061359633 -0.013448168 -0.0022311436 -0.018096264 0.09037998 0.06476183 0.068533055
-0.03159128 0.011113296 -0.027899532 -0.037851773 -0.012736683 -0.035794046 0.024243835 -0.062589996
0.036596805 -0.021800926 -0.026223285 0.02003154 0.025172701 -0.0026971058 0.049737774 -0.03271094
0.03485802 -0.0114907455 -0.005156318 0.1121031 0.08615242 0.025315516 0.10023874 0.07068925
0.10402607 0.05389113 0.1000448 0.018034346 0.08456175 0.05476141 0.018581394 -0.03192245
0.0058153677 -0.0116765825 0.05506604 0.08868082 0.04157487 0.052220676 0.12870702 0.08820265
0.041605785 0.08926697 0.08265258 0.1158335 0.044552863 0.1559419 0.14060429 0.14420804
0.1311876 0.017280878 0.074273914 0.09557353 0.13273114 0.109351955 0.033664007 0.050749857
0.07150481 0.05598834 0.019823276 0.04846033 -0.012591292 0.037068345 -0.013174476 -0.03827176
0.051666748 -0.049353037 -0.021398505 0.027271185 -0.060053855 0.006175998 -0.08103648 0.05044269
-0.021369815 -0.046130963 0.029732771 -0.04392962 -0.0648496 0.009052158 0.011326358 0.052229088
-0.048716336 0.01314299 -0.060665954 0.028047735 0.022226775 -0.03668896 -0.0525062 -0.020027762
-0.02021396 -0.048013315 0.008478234 0.06642506 0.018624678 0.058040716 -0.0067361225 0.10811714
0.076655924 0.09995901 -0.0067113983 -0.070168234 0.08777745 0.046611775 0.04111911 -0.03525977
-0.026957685 0.017883433 -0.002453393 0.055266045 0.049688205 -0.0001260348 0.01811401 0.032234002
0.05088204 0.027403496 0.073903285 0.0067755226 0.034412533 0.05720065 0.004488742 0.011377972
0.080094576 0.07571653 0.10069364 0.024275713 0.089310005 0.09173105 -0.006053883 0.07942816
-0.011272412 -0.016871322 0.061785083 0.034884606 0.067066185 0.029522678 -0.03625408 -0.10768535
0.08262984 0.02062865 0.020145021 -0.04997254 -0.1261561 0.027864737 -0.02638804 -0.0317898
-0.014361606 -0.0354331 0.005818872 0.019059557 -0.033318054 0.02417448 0.039118804 0.026456703
0.03492189 0.10391124 0.08507254 0.060723327 0.0055544907 -0.06243455 0.010124082 0.0075785173
-0.03943271 0.03349519 -0.013147427 0.054327358 -0.017835727 -0.07465497 0.01019024 0.04055578
0.032797255 -0.048180785 0.08509436 0.006875746 -0.036766373 0.06904007 0.013483261 0.081747584
0.03331585 0.0510972 0.09112201 -0.043595813 0.060701422 0.0314861 0.050794136 0.085908145
-0.032067996 -0.09480705 0.02310656 -0.05966289 -0.079919696 -0.025519334 -0.0968549 -0.032958347
-0.0888301 -0.012791291 0.040429205 0.049958445 0.07932732 0.035576273 0.07342411 0.014251145
-0.0066966717 0.06216154 0.08645137 0.011849799 0.049177293 0.040061843 -0.030832572 -0.04640956
0.0012652623 -0.015592205 0.025163153 0.001651417 0.05941534 -0.03879676 0.0036626535 0.03543287
0.052137677 -0.0055778516 0.056473672 -0.0073193246 0.08398213 0.056357287 0.015076592 -7.63405e-05
0.08638263 0.086031616 0.11039941 0.10290377 0.014061599 0.09428553 0.013838303 0.09974515
0.023975166 0.024397722 0.034654494 0.03719242 0.08374625 0.10299426 0.03945459 0.021518199

bias f4 [20]
00000000: b70f 343c 5793 2c3d c773 713d a964 4a3c
00000010: b9c1 6ebd aaeb 89bd bcd7 44bd 931f 3cbd
00000020: c44f b63c 2014 19bd 67d0 70bd 3106 71bd
00000030: 1bb3 51bd 0b50 20bc 359c 4abd f974 ed3b
00000040: ad0f 2ebd 1cf1 27bc f0ff 3dbd 21b4 a93d
0.010990075 0.0421327 0.058948305 0.012353101 -0.058290217 -0.067344025 -0.048057303 -0.04592855
0.022254832 -0.03737271 -0.058792498 -0.058843795 -0.0511962 -0.009784709 -0.049465377 0.0072466102
-0.04249542 -0.010250356 -0.04638666 0.0828631

weight f4 [50, 3380]
00000000: 7a1b bbbb bd04 bf3c 0ca2 00ba 3ee7 dcba
00000010: 6e1c c33c d296 fab9 e87d 813c c8f1 1f3b
00000020: d539 a63b aaf3 803c 3e5d 4a3c 5100 10bc
00000030: 3c8c 1a3c a1a6 923c 8e0f 583b d31c 1e3c
00000040: 9b4d 973b a32a 8bbb f296 e93a 7e2b 063c
00000050: e219 993c e81b 9f3b 8b3d b53c b875 91bb
00000060: 3844 b4bb 4c80 a33c f072 c03c 48d8 23bb
00000070: 791f 193c 0e46 0ebc c1a6 423c f004 e2ba
00000080: fca4 5cbc d5bb 3dbc 49f1 753c 2e12 cbbb
00000090: fa36 1f3c 38d3 e238 a157 e93c 118d bf3c
000000a0: 0e3e df3b 9dc2 92bc babf d7bc fa34 15bd
000000b0: c8b7 b7bc fbd9 06bc 4889 00bc 9a15 193b
000000c0: e6bf 22bc 4099 88bb 24a7 3e3c 2173 9c3c
000000d0: 687b 92bb cd91 a9bc 1dbd 263b 3781 36bb
000000e0: 425c 25bc d8f1 dabc 112a babb a766 97bc
000000f0: 5134 11bc 06b7 86bc e943 2abc 56d5 303c
00000100: b485 a63c d43c bb3a 6dbb c7bc 8d28 53bc
00000110: fa1d 4bbc 6e71 99bc 7c7a 8cbc e86b b8bc
00000120: ec3f 1b3b 6bfe b5bc edaa 4f3c e2d2 333c
00000130: 2b4d 24bb 3708 db3c 16a5 bdba 5d23 fbbc
00000140: 29a1 42bd abab 01bd a231 01bd ce57 0ebc
00000150: 0921 e1bb 88c1 ebb9 efbb 9ebc a00f 733b
00000160: 866e f3ba c01e fd3b ea2d 9f3c 6917 edbc
00000170: ea59 43bd f9f9 27bd d1ab 3ebd db5d 09bd
00000180: 3d14 91bc 5c16 7cbc e4e1 11bd 5c97 84bc
00000190: 02d4 fabb 725b 89bc 49ea 2e3b c091 d73c
000001a0: 8f2e c9bc 768d f8bc 9d0e 2ebd 770b 55bd
000001b0: b303 0bbd d1d8 07bd ec32 40bc 574f 97bc
000001c0: 73e3 03bc 709b 90bb 0b3c 9e3c e097 d7ba
000001d0: 1db3 903c 3e8c e43c 5740 10bd 28c6 51bc
000001e0: aa7e e2bc c142 93bb 9c36 08bc 41b9 a9bc
000001f0: 4214 073b 0877 1d3c 7426 793c cb89 043d
00000200: 4370 183d e3cb 043d b71d 4a3d 0ab2 233d
00000210: 9df0 883c ed3e 413c 42ff 2f3c 3a4a 54b9
00000220: 6aba 8bbc 1a0d 39bc d01a f03c 4f46 063d
00000230: 21ec 393d e3a6 cf3c 6102 763d fec7 523d
00000240: bb8a 083d 0d0c ae3c 3c5c 443c 4deb 3b3c
00000250: 1010 6cbc 3dfd cdbc 4e28 2a3b 5a0c 423a
00000260: 5e78 a33c 50f5 9f3c 4342 af3c 51ef fe3c
00000270: dead bb3c d285 053d 0ba4 9c3c 4396 803c
00000280: 335f 563c b9cc ecbc d338 49bb 38e0 fb3b
00000290: 37cb 413c 6fc3 cb3b 6d17 9f3a 7f30 dd3c
000002a0: f5cc 133d 102e ea3c 3817 903c fa40 3d3c
000002b0: 1ea3 763c 8847 643b 706c dbbb ceef bd3c
000002c0: 84e8 d53b 3f06 973c 6dc9 9f3c 3460 b1b9
000002d0: aa50 013d 7b8b 98ba 327a 94bc 6871 263b
000002e0: 4078 1e3c e81f 1b3c d08d 333c 92a1 e33b
000002f0: 40c1 6f38 12be 023c a9c1 d13c f842 013c
00000300: e632 0bbb b453 1a3b e0dc c83b 6a06 343c
00000310: 5870 b2bc b76b 3b3c de7b 8d3c 0a39 113c
00000320: b6af cb3c de6c 76ba 9d1d 373c 8ede 783c
00000330: 1c69 75bb 05ef 1cbc 79cb 46bc 99e5 d6bb
00000340: 6caa 323c 798c a43c fd51 a23c 8689 243c
00000350: cd79 8d3c 7a32 a9ba f5c1 223b 2b8c 9d3b
00000360: 8d54 cb3b 058f 47bc 9cb2 6f3b 0dc5 9b3c
00000370: 0096 f23b 191d ddba 67b1 97ba 6f19 1b3a
00000380: 19e7 513b e85e 903c bb83 e83b b5bb 08bc
00000390: ca8b 013c e3a6 013b ecb5 f63b f3f3 493c
000003a0: 62cb bd3c bdb6 b43c 4a0a 1d3b 219c 93ba
000003b0: 827a 19bc 53e0 afbb 03ce 24bc 5ed3 88bc
000003c0: b776 94bb fe03 fc3b ef91 37ba 6e5c 8bba
000003d0: 8c1d f53a 0fb9 ff3b 8172 403a c458 25bc
000003e0: a5c3 ccbc afe4 a53b dc7b 583c 3308 b03c
000003f0: 9dfb f53c 8bdb 5a3c bf58 833d 4e28 003d
-0.0057100626 0.02331769 -0.00049069594 -0.0016853584 0.023817267 -0.00047796086 0.015807107 0.0024405587
0.005072812 0.015741188 0.012351332 -0.008789138 0.009432849 0.01790172 0.0032968256 0.009650427
0.0046174056 -0.004247026 0.0017821474 0.00818908 0.0186891 0.0048556216 0.022124073 -0.004439082
-0.0055012964 0.019958638 0.023492306 -0.002500074 0.009345883 -0.0086836945 0.011880578 -0.0017243903
-0.01346707 -0.011580427 0.01501114 -0.0061972355 0.009717697 0.00010815862 0.028484168 0.023382695
0.0068128174 -0.017915064 -0.02633654 -0.036427476 -0.0224265 -0.0082306815 -0.00784523 0.0023358823
-0.009933447 -0.0041686594 0.011636529 0.019097866 -0.0044702776 -0.020699406 0.002544231 -0.0027848014
-0.010092797 -0.026726648 -0.0056812842 -0.018481566 -0.008862571 -0.016444694 -0.010392168 0.010793051
0.020327426 0.0014285096 -0.024381364 -0.012888086 -0.012397284 -0.018730845 -0.017148249 -0.022512391
0.0023689223 -0.022216043 0.012675029 0.010975571 -0.002507041 0.026737316 -0.0014468755 -0.030656511
-0.047516976 -0.031657856 -0.031541474 -0.008687926 -0.006870393 -0.00044966885 -0.019376723 0.003708817
-0.0018572367 0.007724613 0.019431073 -0.028941827 -0.04769317 -0.041009877 -0.046550576 -0.033536773
-0.017709846 -0.01538619 -0.035615817 -0.016185455 -0.007654668 -0.016767237 0.0026689938 0.026314616
-0.024558334 -0.030340891 -0.042494405 -0.052012887 -0.033939075 -0.033165757 -0.011730891 -0.01847045
-0.008049834 -0.004413061 0.01931574 -0.001644846 0.017663533 0.027898904 -0.03521761 -0.012803592
-0.027648289 -0.0044940417 -0.008313801 -0.020718219 0.002061144 0.009610899 0.015206922 0.032357972
0.037216436 0.032421004 0.049344745 0.039964713 0.016716296 0.011794788 0.010742011 -0.00020245547
-0.017056663 -0.011294628 0.02930966 0.032781895 0.045391206 0.025348132 0.060060862 0.05146026
0.03333543 0.02124598 0.011984881 0.011469674 -0.0144081265 -0.025145167 0.0025963965 0.0007402353
0.019954856 0.019526154 0.0213939 0.031119974 0.022910055 0.032598324 0.01912119 0.01569665
0.013084221 -0.028906213 -0.0030704036 0.007686641 0.011828235 0.006218366 0.0012137719 0.027000664
0.036084134 0.028586417 0.017589197 0.011551136 0.015053539 0.0034832675 -0.0066962764 0.023185637
0.006527962 0.018435596 0.019505227 -0.00033831748 0.031571068 -0.0011638248 -0.018124674 0.0025397185
0.0096722245 0.009468056 0.010959104 0.006946751 5.716202e-05 0.007979887 0.02560504 0.007889502
-0.0021240055 0.0023548426 0.006129846 0.010987857 -0.021782085 0.011439255 0.017270979 0.008863697
0.024864059 -0.0009400378 0.011176494 0.01518978 -0.0037446683 -0.009578471 -0.012133473 -0.006558132
0.01090489 0.020086514 0.019814486 0.010042554 0.017269993 -0.001290872 0.0024834846 0.004807969
0.0062051476 -0.012180095 0.0036574965 0.01901486 0.0074031353 -0.0016869634 -0.0011573256 0.00059165707
0.0032028614 0.01762338 0.0070957816 -0.008345534 0.0079068635 0.001978331 0.007529011 0.012326228
0.02316827 0.022059793 0.0023962432 -0.001126174 -0.009367587 -0.0053673177 -0.010058883 -0.01670235
-0.0045307535 0.0076909056 -0.0007002642 -0.0010632405 0.0018700822 0.007804043 0.0007341281 -0.010091964
-0.024995634 0.0050626616 0.013213124 0.021488285 0.030027205 0.013358007 0.06413411 0.031288438

bias f4 [50]
00000000: f0b4 813c 53c0 57bb 7069 f3bb e982 8a3c
00000010: 6ae4 173c 4431 b13c 0fbb 893b d86d fabc
00000020: 0b04 173b 0ca6 5c3b 2bf9 2b3c c1ad 7abc
00000030: 9d1c 333c acd4 9dbc c206 f93b fe67 2ebb
00000040: 270a 12bc 8780 42bb ac02 2ebc ddde 76bc
00000050: 2a32 023b b84e 49bb d614 38bc d463 c23c
00000060: b533 64bb da61 693b 6910 61bc 2858 fe3b
00000070: 3cc5 9ebc 1418 263d 934f f4bb c1ff 2c3c
00000080: 9c83 b63c 89c2 a5bc 244f 263d b333 393c
00000090: 3d48 373c 3653 f9bb e43e b8bb dc87 fa3c
000000a0: 3d56 453b 183c ae3b af08 5f3c 2377 9239
000000b0: 6590 c83c 6c14 e6bc 450b 263d d1cc 84bc
000000c0: 5f48 94bc 07a7 a23b
0.015833348 -0.003292103 -0.0074283406 0.016908126 0.009270767 0.021629937 0.0042032073 -0.030569956
0.0023043181 0.0033668308 0.010496418 -0.015300215 0.010932115 -0.019266449 0.0075996825 -0.0026612277
-0.008913553 -0.002967866 -0.010620754 -0.015067783 0.0019866326 -0.0030717086 -0.011235436 0.023729242
-0.003482086 0.0035611303 -0.013736823 0.007761974 -0.019381158 0.040550306 -0.007455775 0.010559023
0.022279553 -0.020234363 0.040602818 0.01130383 0.011186657 -0.0076087965 -0.0056227315 0.03058236
0.0030111216 0.0053172223 0.01361291 0.00027936054 0.024482915 -0.02808591 0.04053809 -0.016210945
-0.018100915 0.004963759

weight f4 [10, 50]
00000000: 6fd0 86bd b4a7 42be f17c c13d 6324 59bd
00000010: 1399 203e 8a3c f03d 7623 173e b418 713d
00000020: 986b 6f3c c3f4 b83c 3b96 2e3c f35a 22be
00000030: 842b 42be a525 d33d 5253 11be d3f4 3e3d
00000040: fca3 923d 6657 14be 63cf 07be 33e3 80bd
00000050: d35a 17be 8283 45bd 39c9 20be 0140 ee3d
00000060: 5ee7 a03d 7e52 083e 233d dfbd ede3 e7bd
00000070: 4975 293d 3111 b43b 7d03 2a3e 7114 09be
00000080: 93c1 1e3e bf05 33be f459 803d cdc2 e0bc
00000090: 540b babc 963e d6bd 727c 85bd 15d1 2f3d
000000a0: dc5b b83d be4c 4cbd 7aa2 7e3d 3564 05be
000000b0: 0190 c03d 4a23 e9bc ae09 34be 0baf 4e3d
000000c0: 5895 e8bd 454d ca3d bb5b 47be 2126 883d
000000d0: 4e15 c43d c62c b0bd 685e 8dbd 76e2 5f3c
000000e0: 35b7 a13c 42d0 b93d 2547 f2bc 974d 00be
000000f0: 4b13 f1bd d0ec cd3d 1003 093d bab5 cf3d
00000100: cd13 edbd 8b0a 98bd f288 5f3c 36d2 60bd
00000110: 94b0 e63d a387 f1bb 637a a53d 6b24 553c
00000120: c1bc bf3d ccea 883d 98e2 833d 9e6f 27bd
00000130: 6993 f93d 5011 ddb9 2892 f93c d783 0abc
00000140: 8631 91bd c8f5 a7bd 9b20 4f3d e647 fd3c
00000150: 0889 fabc 58ad 703d 9008 66bb 408e 183d
00000160: bc39 5abc f86a ba3d 1e54 a7bd ff54 02bd
00000170: 9bfa e9bd e9df a53c a9db 573d fead 6f3d
00000180: aed0 b33d d7dc 21bd 8e9d 5a3d 9931 0b3d
00000190: bae9 6e3d bf69 093d 8ba4 0ebe d977 0fbb
000001a0: 2b78 a0bd 78af 1a3e 7988 e6bd a96f 3bbe
000001b0: 1af1 c3bd 9baa e43c f09c cebc 0b06 f13d
000001c0: 239d 1ebd 7bfe 5ebc c07e 143d 6820 a33a
000001d0: 2a7d d9bd aa5c 123e f08c 82bd 693f 9cbd
000001e0: 0051 71bd 70d1 27be 5fae 0f3d c29a 053d
000001f0: f86a 043e bb6f f53c 937b 5fbd 9d27 b03d
00000200: d1e5 1bbe 08a4 173e 547c cdbd 2d91 2e3d
00000210: 5a3b 09be 915f 63bd b3a2 dfbb 1d06 59bd
00000220: c632 d83d fe68 e03d 1b15 a4bc 38a0 a63c
00000230: 1b5f 333d 19d6 c1bd 404a 19be 9596 ed3c
00000240: 5378 ad3d cc8c 843d 8882 9d3d 5e5a 133e
00000250: cd2c 1ebe 1d6f a83d face a3bd 8659 b43d
00000260: b2bd 6f3d 2409 83bc 3f52 933d afe0 e63d
00000270: 54d2 033e 990e 26be 18dc b23d 9e01 2dbe
00000280: 04e1 13be 9696 cb3d 27f5 fbbd df80 c6bd
00000290: 0d6f 01be f612 473d da15 17be 20b5 9e3d
000002a0: c23d f0bb 8032 d33d 9df9 d83c eb37 10be
000002b0: e1bf 3cbe 3db0 f03d 5d01 e3bc c021 33bd
000002c0: 4c4b f1bd f03f e63d 843e dbbd bfef bf3d
000002d0: 283b 473d 4b7a fd3c 51cb 953d bbf9 793c
000002e0: 636e 103c 28dc 883d 4099 a3bd 2b7c 04be
000002f0: 1578 f3bd aedc b0bd 1afb 8b3d 4d77 ea3d
00000300: b5f8 b8bc 5169 72bc c70b b7bd d365 9c3d
00000310: b40b bebd 48c3 553d a7fa 6cbd 52ee 203e
00000320: 29bd c03d d4a3 a43c 56c7 9e3d df1b 25be
00000330: d31a d4bc 8773 e5bd bd22 9ebd 9e0c af3d
00000340: b0e5 ca3d 838f 323d b21f 94bd 9ee8 90bd
00000350: e389 433d 858d db3d 1ef3 11bd 831f c03d
00000360: 6771 0dbe cff8 ecbd c762 dc3d 0c76 113c
00000370: 14c2 593c 391b 3fbd ffb0 db3d f04e f93c
00000380: f37e 60bd 7348 dfbd b308 083d 529b 3abd
00000390: 005f 8ebb 86c2 97bd 7fda 4d3d 41a7 d93c
000003a0: 0d9c babd 3a22 59bb 400d c8bc d6ac fd3d
000003b0: 3721 86bd 44bf e1bd 6f94 ecbc f0e9 e43d
000003c0: 3f29 eabd 22cb 45bc c79c 703d 8ec6 f23c
000003d0: b172 c03d ffaa 893d 34cc 29bd 34bb d13d
000003e0: d1df e93d 9623 ffbd 76ce 0dbe d542 bbbc
000003f0: b2a2 b23d ce26 d4bd 4fb9 2a3d 32b0 37be
-0.06582724 -0.19009286 0.09447659 -0.053013217 0.15683393 0.11730297 0.14759621 0.05886145
0.014613055 0.022577649 0.010655935 -0.15855007 -0.18961912 0.103099145 -0.1419194 0.0466202
0.07160184 -0.14486465 -0.13262706 -0.06293335 -0.1478074 -0.04822112 -0.1570176 0.116333015
0.0785663 0.13312718 -0.10900333 -0.1132277 0.041371617 0.0054952134 0.16602893 -0.13386704
0.1550353 -0.1748266 0.06267157 -0.027436638 -0.02271048 -0.10461156 -0.06517877 0.042924006
0.09001896 -0.049877875 0.06216667 -0.13026507 0.094024666 -0.02845921 -0.17581818 0.050459903
-0.1135661 0.09878019 -0.19468586 0.066478975 0.09574376 -0.0860229 -0.06902772 0.013664832
0.01974068 0.09072925 -0.02957494 -0.12529598 -0.11771258 0.10054934 0.033450186 0.101420835
-0.11576042 -0.07423886 0.01364349 -0.054887973 0.11264148 -0.0073709055 0.08079984 0.013009171
0.09362174 0.06685409 0.06439704 -0.04087793 0.121863194 -0.00042165304 0.0304652 -0.008454285
-0.07089524 -0.08201176 0.050568204 0.030918073 -0.03058292 0.058759063 -0.0035100318 0.037245035
-0.013319429 0.09102434 -0.08170341 -0.03181934 -0.11424752 0.02024837 0.05269972 0.05851554
0.08780037 -0.03951725 0.053372912 0.033982847 0.058328368 0.033548113 -0.13929956 -0.0021891503
-0.0783542 0.15105999 -0.11256499 -0.18304314 -0.09567471 0.027913382 -0.025221318 0.11768731
-0.038724076 -0.013610478 0.03625369 0.0012445571 -0.10619576 0.14293161 -0.06374538 -0.07629282
-0.05891514 -0.16388488 0.035078403 0.03261829 0.1293143 0.029960504 -0.05456121 0.08601306
-0.15224387 0.14808667 -0.10033479 0.04261892 -0.13401547 -0.05551106 -0.006824815 -0.052984346
0.10556559 0.10957526 -0.020029595 0.02034007 0.04379187 -0.09464664 -0.1496973 0.029002467
0.08470216 0.064721674 0.076909125 0.14389941 -0.15446778 0.08224318 -0.07998462 0.08806138
0.058530517 -0.01599557 0.071934216 0.11273324 0.12873203 -0.16216506 0.08733386 -0.16895148
-0.14441305 0.09940831 -0.123026185 -0.09692549 -0.12640019 0.048602067 -0.1475443 0.077493906
-0.007331581 0.103123665 0.026486212 -0.14083831 -0.18432571 0.11752365 -0.027710611 -0.04373336
-0.1178194 0.11242664 -0.10705283 0.093719 0.0486404 0.030942103 0.0731417 0.015257294
0.008815381 0.066826165 -0.079882145 -0.12937991 -0.11888138 -0.08635841 0.06835003 0.11448536
-0.02257953 -0.014795617 -0.08937793 0.07636609 -0.09279576 0.052188188 -0.05785623 0.15715912
0.094110794 0.02009765 0.07752864 -0.16123913 -0.025891697 -0.11203676 -0.077214696 0.085473284
0.09907091 0.043593895 -0.07232608 -0.07075618 0.04773892 0.10720352 -0.035632245 0.093810104
-0.13812791 -0.11570894 0.10761028 0.008878242 0.013290901 -0.04665682 0.10727119 0.030433148
-0.05480857 -0.109024905 0.03321142 -0.04555828 -0.004344821 -0.07410149 0.050257202 0.02656901
-0.091117956 -0.0033131973 -0.02442038 0.123864815 -0.06549304 -0.11022809 -0.028879372 0.111774325
-0.11433648 -0.012072356 0.058743265 0.029635694 0.09396876 0.06722068 -0.04145451 0.10240784
0.11419643 -0.12457959 -0.1384829 -0.022859016 0.08722438 -0.10358964 0.04168063 -0.17938307

bias f4 [10]
00000000: 9c9c 453d 2471 fdbd c299 bebd 8c69 033e
00000010: c54e d5bd 177b d2bd ba29 d73d 5ba3 383d
00000020: fcc5 a8bc 1fc9 ba3d
0.048245057 -0.123750955 -0.09306671 0.12833232 -0.10415415 -0.10277384 0.105060056 0.045077663
-0.020602219 0.09120392
