models/conv2_layer_64x64_<class 'datetime.datetime'>.pt (torch_old, 702110 bytes, 8 tensors)

weight f4 [10, 1, 5, 5]
0.036027163 0.13456161 -0.1531458 0.05104045 -0.039505206 -0.003131456 0.018371826 0.056701716
-0.053059466 0.17553735 -0.11207339 0.05289063 -0.059697937 -0.20282851 -0.08458202 0.2021868
0.01180083 0.022640817 -0.009594527 0.021481855 -0.087523654 0.062309206 -0.20343333 0.016103989
0.1868399 -0.020202745 0.13744955 0.02575033 0.12765321 -0.0012454242 -0.17367509 0.1213474
-0.018976629 -0.1458029 -0.057358015 0.1121746 0.02198966 0.04455665 -0.16030394 0.08561987
0.15151645 0.07967881 -0.08024441 -0.14965515 0.1895424 -0.15928137 -0.027537972 -0.011513798
-0.15076293 0.01945819 0.042549115 0.1640448 -0.16558027 -0.15947737 -0.07139977 -0.008203928
-0.05225954 -0.172188 0.023709213 -0.091376126 0.076034255 -0.16997479 0.065304354 0.13038005
0.13040842 -0.10032534 0.17656294 0.065891735 -0.11647766 0.10770362 0.031959984 -0.11624122
0.07268108 0.20993835 -0.056151245 0.16202293 0.059161037 0.029675 0.09008281 -0.19161317
0.14546724 0.09303586 -0.16730212 0.12348752 0.039063025 0.010552334 -0.111260355 0.085633434
-0.20933194 -0.081137925 0.037320483 0.058520816 0.11902639 0.11215139 -0.106439345 0.09097503
-0.105210364 -0.1344576 -0.032285333 -0.205428 -0.110066205 0.09360021 -0.10643476 0.10483289
0.13583222 -0.16734137 -0.19842324 0.18829094 0.05158631 0.083175264 0.014039894 -0.038964078
0.12136653 -0.10650408 0.00085319043 0.06208383 -0.00228278 0.062445045 0.12487939 -0.17677826
-0.036860306 0.11279196 -0.15274161 0.13424261 0.12375745 -0.18888459 0.11094367 0.09686515
0.044992544 0.029027697 -0.13487028 0.0800363 0.0002391411 0.07327799 0.051554285 0.053378094
-0.20351306 -0.07501198 0.011399741 0.13901027 0.18207437 -0.12169136 0.15672594 0.073378466
0.14158115 -0.15116975 -0.18738502 -0.16499978 0.0138912415 0.16928421 -0.17393932 -0.0741734
0.12619767 -0.08931408 0.03474035 -0.01761921 0.09178204 -0.1637358 -0.099138625 0.094781816
-0.18297681 -0.05517981 -0.15375493 -0.11383898 -0.016608 0.072292954 0.18038388 -0.19219254
-0.11394968 0.02786884 -0.096279524 -0.20999508 -0.04266494 0.08554795 -0.08744938 -0.083004065
-0.1683109 0.016847378 0.101205 -0.02215389 0.0119490465 0.051731046 -0.22671022 -0.16846949
-0.16659643 0.10785978 0.0035660479 -0.03737608 0.13200435 -0.025762599 0.07324911 -0.09003625
-0.16851227 0.037642777 0.10678451 0.14213215 0.012553158 0.08730626 0.11676131 0.04493636
0.17978747 -0.12268038 0.07567662 0.042897787 -0.020798743 -0.1937159 0.15382355 -0.16433838
0.1750314 -0.027678562 0.074542 -0.04731093 -0.08999633 0.1830287 0.12771831 -0.018750899
-0.19021007 0.17953163 0.15897357 -0.12142821 -0.011500779 0.070715204 -0.037832186 -0.15902014
-0.13545352 -0.095280014 0.14961481 0.038999274 0.013661903 -0.009016138 0.0002516954 -0.123997256
-0.0636162 0.11544247 0.11431839 -0.18654267 -0.20991756 0.17849657 0.17177673 0.062876
0.10115348 -0.19026287 0.03148499 0.12886912 0.1355516 -0.2075158 0.08811416 -0.11929823
-0.22548872 0.03276867
00000000: 3891 133d 85ca 093e 41d2 1cbe ca0f 513d
00000010: 36d0 21bd 1d39 4dbb 8380 963c 0f40 683d
00000020: e254 59bd 10c0 333e bc86 e5bd d8a3 583d
00000030: d385 74bd 47b2 4fbe 5739 adbd 0e0a 4f3e
00000040: 4558 413c 3c79 b93c 5d32 1dbc b7fa af3c
00000050: 9a3f b3bd f037 7f3d d450 50be 83ec 833c
00000060: f552 3f3e 3a80 a5bc 93bf 0c3e 5bf2 d23c
00000070: 86b7 023e 803d a3ba e2d7 31be fc84 f83d
00000080: e074 9bbc 5b4d 15be 3df0 6abd ccbb e53d
00000090: a923 b43c 0981 363d b726 24be 7859 af3d
000000a0: 2127 1b3e a52e a33d 2e57 a4bd 333f 19be
000000b0: 6717 423e a81a 23be 5097 e1bc 5ea4 3cbc
000000c0: 9961 1abe c866 9f3c fb47 2e3d 5cfb 273e
000000d0: e08d 29be 094e 23be 0b3a 92bd c569 06bc
000000e0: 190e 56bd 0d52 30be d339 c23c 6823 bbbd
000000f0: d9b7 9b3d df0d 2ebe 4abe 853d 5982 053e
00000100: c989 053e 5f77 cdbd eacc 343e 3ff2 863d
00000110: d78b eebd b793 dc3d 79e8 023d e00f eebd
00000120: d1d9 943d 14fa 563e d9fe 65bd 57e9 253e
00000130: d852 723d fc18 f33c 567d b83d 3e36 44be
00000140: 5df5 143e 9689 be3d 3f51 2bbe 06e7 fc3d
00000150: 8d00 203d b2e3 2c3c 78dc e3bd 9560 af3d
00000160: 1d5b 56be a42b a6bd 5ddd 183d 86b3 6f3d
00000170: 1cc4 f33d a1af e53d dffc d9bd 1e51 ba3d
00000180: 8878 d7bd 41af 09be a03d 04bd b85b 52be
00000190: 646a e1bd 78b1 bf3d 78fa d9bd a0b2 d63d
000001a0: 9a17 0b3e 895b 2bbe 762f 4bbe 57cf 403e
000001b0: 2b4c 533d cb57 aa3d 9507 663c cc98 1fbd
000001c0: 048f f83d d01e dabd a4a8 5f3a 9d4b 7e3d
000001d0: b19a 15bb 60c6 7f3d c4c0 ff3d 5c05 35be
000001e0: d5fa 16bd 79ff e63d 4c68 1cbe e576 093e
000001f0: 8c74 fd3d f66a 41be 6f36 e33d 3c61 c63d
00000200: 1a4a 383d 7ecb ed3c 6f1b 0abe 12ea a33d
00000210: f3c1 7a39 c512 963d 962a 533d fda2 5a3d
00000220: ba65 50be e29f 99bd fbc5 3a3c b558 0e3e
00000230: b471 3a3e 5239 f9bd c47c 203e 7347 963d
00000240: a6fa 103e 3ecc 1abe dce1 3fbe b4f5 28be
00000250: 1798 633c d758 2d3e 261d 32be 39e8 97bd
00000260: f639 013e 4dea b6bd e64b 0e3d 2956 90bc
00000270: 39f8 bb3d 5caa 27be 3109 cbbd f81c c23d
00000280: 465e 3bbe 3904 62bd ef71 1dbe 6924 e9bd
00000290: 800d 88bc 540e 943d 8db6 383e 1fce 44be
000002a0: 735e e9bd 324d e43c 332e c5bd f308 57be
000002b0: 6fc1 2ebd c333 af3d a918 b3bd 09fe a9bd
000002c0: b159 2cbe 8303 8a3c 9144 cf3d 137c b5bc
000002d0: efc5 433c efe3 533d b926 68be 4483 2cbe
000002e0: 4198 2abe 97e5 dc3d 5bb4 693b a917 19bd
000002f0: 262c 073e 160c d3bc a103 963d ed64 b8bd
00000300: 7b8e 2cbe 502f 1a3d d6b1 da3d 178b 113e
00000310: c3ab 4d3c a0cd b23d 8e20 ef3d 300f 383d
00000320: 351a 383e da3f fbbd 58fc 9a3d 97b5 2f3d
00000330: 2062 aabc 765d 46be ec83 1d3e 5248 28be
00000340: 6e3b 333e 27be e2bc 7aa9 983d 1bc9 41bd
00000350: ff4f b8bd e06b 3b3e 97c8 023e 7c9b 99bc
00000360: 6ec6 42be 24d7 373e f8c9 223e 5aaf f8bd
00000370: c36d 3cbc 22d3 903d ecf5 1abd 2dd6 22be
00000380: 54b4 0abe 2b22 c3bd a034 193e b4bd 1f3d
00000390: 2dd6 5f3c 6cb8 13bc fcf5 8339 46f2 fdbd
000003a0: 3649 82bd 1a6d ec3d c31f ea3d 0b05 3fbe
000003b0: a1f4 56be cec7 363e 3de6 2f3e 22c5 803d
000003c0: 8e29 cf3d 45d4 42be 68f6 003d 44f6 033e
000003d0: 0ace 0a3e 067f 54be 3275 b43d a152 f4bd
000003e0: 84e6 66be 7138 063d

bias f4 [10]
-0.047303498 -0.15394135 -0.025727982 0.08097443 0.14696422 0.051389545 -0.07744346 0.10836401
-0.10050829 0.06726958
00000000: 50c1 41bd cda2 1dbe 7dc3 d2bc ecd5 a53d
00000010: ca7d 163e d87d 523d ad9a 9ebd f3ed dd3d
00000020: 4ad7 cdbd a2c4 893d

weight f4 [20, 10, 5, 5]
0.0074966587 0.0003767688 0.027079098 0.030124543 0.061657313 -0.02839918 -0.0023884156 0.043185573
0.012433433 0.06374967 0.050420944 0.05887025 0.057686705 0.07731344 0.01923613 0.078119926
-0.03923845 0.08184949 -0.028215282 0.08219057 0.002392461 -0.0034481722 -0.022476729 0.0035017983
0.048255946 0.07935972 -0.037543517 -0.025223924 0.003373773 0.002961839 0.0038446311 -0.058530554
-0.010663347 -0.061695755 0.008450478 0.080822416 0.032330755 0.057240516 0.010981094 -0.036441084
-0.018425193 0.0033456727 -0.01616089 -0.025481677 0.012639352 0.08567181 0.046306297 0.078241006
-0.03650566 0.0032468913 0.059296716 -0.04591827 0.050296247 0.030035907 -0.023446057 0.057691712
-0.03667051 0.07222527 0.005779583 -0.017296787 0.08423996 -0.013999601 0.04676467 0.07348292
0.024697639 0.044372436 -0.0012510464 0.025294479 0.05654135 0.07603281 -0.0066139423 0.007325261
0.032773677 -0.0056134793 0.049539108 -0.037574768 0.02405201 0.011871796 -0.009123801 -0.013977783
0.018040618 0.014729303 -0.038720474 0.018913548 0.0015622542 0.039861914 -0.028074741 0.057255723
-0.050979026 0.06331839 0.010633894 0.041763064 -0.056615237 -0.01318361 0.012164264 -0.0643551
-0.06418447 0.05845495 0.009663343 -0.04268431 -0.017539201 -0.060105838 -0.03812507 -0.0205739
-0.010436137 0.036120586 0.028739749 -0.050209038 0.047460534 0.044026826 -0.006181661 0.04274797
-0.05842173 0.05358886 -0.0039022367 0.037946753 -0.05095966 -0.030566135 0.010524337 -0.005594359
-0.036969382 -0.025828142 -0.022098105 0.05103554 -0.054346908 -0.054176684 0.052441265 0.04998009
0.03227267 0.046506464 -0.054219324 -0.053307142 0.035780642 0.018719517 0.0052494104 -0.0294611
0.037642952 -0.003926357 -0.0057332716 -0.055814654 -0.024510005 0.0063959733 0.04508039 0.06420856
0.00781365 0.00963694 -0.050206438 0.029453715 0.047519732 0.047131076 -0.064901836 -0.058115024
-0.06435632 0.05403157 0.04325249 -0.06025489 0.015158198 0.010453049 0.015785638 -0.072268106
0.012996528 0.05279108 0.039656658 -0.01998899 -0.026113145 -0.048198894 -0.038665425 0.03270955
-0.037051164 0.034315914 -0.024932314 -0.05107088 -0.010308466 0.015949922 -0.047345728 0.01535349
0.047179222 -0.04799828 0.037198924 -0.020223208 0.010497731 0.055946223 -0.04597963 0.010685442
0.061283935 -0.038103804 -0.009437248 -0.012504231 -0.003038621 -0.050814796 -0.024015462 0.024642555
0.02646258 0.062287334 0.06601207 0.07064238 -0.017056817 -0.044436686 -0.03376473 0.043247487
-0.00657743 0.07595292 0.017576464 0.052184016 0.084312126 0.0020479334 0.08739635 -0.027157772
-0.024682656 0.016899306 0.013215796 0.044757906 0.0642808 -0.012380721 -0.03699948 0.00574709
0.012592302 0.062501214 0.046252966 0.02397365 -0.035720725 0.073410615 -0.033612054 0.034319624
-0.035694964 -0.033324245 0.04738768 0.04339309 0.062117834 0.027015401 0.028159332 0.017498592
0.06336691 0.056016903 -0.057000652 -0.025037901 0.028506994 -0.04730941 -0.0035288096 -0.005657309
0.044926595 0.0188556 -0.007985061 0.0012905991 -0.036123686 0.052491724 0.06013401 0.014163012
-0.03431087 0.05188331 0.018197501 -0.072656214 0.034641247 0.0045065153 0.089723065 0.03286094
00000000: 88a6 f53b 0d89 c539 fcd4 dd3c bfc7 f63c
00000010: 618c 7c3d 66a5 e8bc f786 1cbb 5be3 303d
00000020: 99b5 4b3c 308f 823d 3186 4e3d ee21 713d
00000030: e548 6c3d 8256 9e3d 1795 9d3c 57fd 9f3d
00000040: 7fb8 20bd b5a0 a73d bc23 e7bc 8853 a83d
00000050: d6ca 1c3b bbfa 61bb 1e21 b8bc 6d7e 653b
00000060: 07a8 453d 5987 a23d 3bc7 19bd 67a2 cebc
00000070: 851a 5d3b 6a1b 423b 35f6 7b3b bcbd 6fbd
00000080: 52b5 2ebc b0b4 7cbd e073 0a3c 3986 a53d
00000090: 416d 043d 0875 6a3d 0cea 333c 3f43 15bd
000000a0: 6ef0 96bc 1343 5b3b d863 84bc f3be d0bc
000000b0: 4915 4f3c b474 af3d acab 3d3d d23c a03d
000000c0: f586 15bd ccc9 543b 1de1 723d cc14 3cbd
000000d0: 7003 4e3d dd0d f63c f211 c0bc 254e 6c3d
000000e0: d133 16bd d8ea 933d a862 bd3b feb1 8dbc
000000f0: 0086 ac3d 955e 65bc 508c 3f3d 377e 963d
00000100: b452 ca3c dfbf 353d 27fa a3ba 5e36 cf3c
00000110: e797 673d 17b7 9b3d c5b9 d8bb be08 f03b
00000120: b13d 063d 47f1 b7bb 85e9 4a3d 00e8 19bd
00000130: b908 c53c ec81 423c ff7b 15bc 1203 65bc
00000140: ebc9 933c 2d53 713c 5c99 1ebd 96f0 9a3c
00000150: 8dc4 cc3a 3f46 233d 00fd e5bc fa84 6a3d
00000160: 62cf 50bd 12ad 813d c939 2e3c bf0f 2b3d
00000170: 61e5 67bd 1100 58bc 9f4c 473c 9bcc 83bd
00000180: 2673 83bd 756e 6f3d 0053 1e3c bed5 2ebd
00000190: 5fae 8fbc 8a31 76bd 0929 1cbd 988a a8bc
000001a0: 55fc 2abc 2ef3 133d 9f6f eb3c fea7 4dbd
000001b0: fa65 423d 7955 343d 888f cabb 7f18 2f3d
000001c0: a04b 6fbd fe7f 5b3d abbc 7fbb 0e6e 1b3d
000001d0: 14bb 50bd d565 fabc 456e 2c3c e250 b7bb
000001e0: 356d 17bd 8a95 d3bc 1607 b5bc a40a 513d
000001f0: dd9a 5ebd 5fe8 5dbd a7cc 563d ecb7 4c3d
00000200: 5930 043d 907d 3e3d 1515 5ebd 9758 5abd
00000210: b98e 123d ac59 993c 3f03 ac3b 6858 f1bc
00000220: 7f2f 1a3d aba8 80bb 2bde bbbb e89d 64bd
00000230: 35c9 c8bc 5095 d13b 37a6 383d c77f 833d
00000240: d304 003c 42e4 1d3c 44a5 4dbd eb48 f13c
00000250: 0da4 423d 840c 413d 41eb 84bd 050a 6ebd
00000260: 3fcd 83bd 3550 5d3d 8629 313d d5cd 76bd
00000270: 175a 783c 4443 2b3c e250 813c 4d01 94bd
00000280: 64ef 543c 763b 583d 056f 223d f3bf a3bc
00000290: 3ceb d5bc 346c 45bd a35f 1ebd 73fa 053d
000002a0: f6c2 17bd d88e 0c3d da3e ccbc b32f 51bd
000002b0: d7e4 28bc 69a9 823c 98ed 41bd 348d 7b3c
000002c0: 003f 413d d899 44bd e65d 183d 24ab a5bc
000002d0: adfe 2b3c de27 653d 2355 3cbd fe11 2f3c
000002e0: dd04 7b3d bc12 1cbd b09e 1abc 8cde 4cbc
000002f0: 9a23 47bb 2d23 50bd 13bc c4bc 2fdf c93c
00000300: 0dc8 d83c 0121 7f3d 5631 873d f4ac 903d
00000310: bdba 8bbc 3e03 36bd e34c 0abd 4724 313d
00000320: 7b87 d7bb 348d 9b3d 84fc 8f3c e8be 553d
00000330: d6ab ac3d 9f36 063b dcfc b23d fa79 debc
00000340: 4833 cabc 6a70 8a3c 1187 583c 1154 373d
00000350: a7a5 833d 82d8 4abc c48c 17bd 1652 bc3b
00000360: f14f 4e3c a300 803d c073 3d3d 6364 c43c
00000370: e54f 12bd 4e58 963d cbac 09bd bc92 0c3d
00000380: e234 12bd 017f 08bd 9519 423d f4bc 313d
00000390: 456f 7e3d 674f dd3c 66ae e63c 3559 8f3c
000003a0: 83c6 813d fb71 653d 8479 69bd 491c cdbc
000003b0: 8087 e93c 83c7 41bd 9a43 67bb f360 b9bb
000003c0: f304 383d 0f77 9a3c c6d3 02bc 5229 a93a
000003d0: 6ef6 13bd 9001 573d 144f 763d fa0b 683c
000003e0: 8e89 0cbd 9883 543d ed12 953c c8cc 94bd
000003f0: fbe3 0d3d 64ab 933b bac0 b73d 3199 063d

bias f4 [20]
-0.055562682 -0.0010984186 0.021471426 0.03138164 -0.034456503 0.025213186 0.006828252 -0.06142491
-0.02272357 -0.058703184 0.0029286304 -0.03111742 -0.020206757 0.03595128 -0.007184853 -0.0068234
0.0038146307 -0.010927995 0.04170678 0.009952135
00000000: b295 63bd d0f8 8fba d8e4 af3c 098a 003d
00000010: 4322 0dbd e28b ce3c 88bf df3b b098 7bbd
00000020: c826 babc c072 70bd 44ee 3f3b f6e9 febc
00000030: a488 a5bc a641 133d ea6e ebbb d496 dfbb
00000040: e2fe 793b 550b 33bc bbd4 2a3d 480e 233c

weight f4 [50, 3380]
0.014849457 0.012910107 0.022728423 0.026445163 0.014878515 -0.004421511 0.00042048848 -0.009688199
-0.006549227 0.017451243 0.007046771 -0.0009466179 0.014619827 0.034121446 0.030188704 0.03185928
0.008176693 0.019132065 0.0025374927 0.020174488 0.006767541 0.004944105 -0.0038806312 0.003908277
-0.008451053 0.02198456 0.03671608 0.01608094 0.020037113 -0.00037427008 0.0067106215 -0.007895081
-0.012206989 -0.016426396 -0.009653069 -0.02004715 -0.0059908554 0.008126425 0.01728373 0.03401733
0.019545276 0.01837568 0.019339873 0.008827276 0.008923303 -0.011173588 0.0019907032 -0.013651156
-0.0010342977 -0.013410385 -0.01862413 0.0027494607 0.018016838 0.00063662254 0.021699851 0.015048423
0.011929427 0.0059581106 -0.0033545021 -0.016395973 -0.026873663 -0.0029556046 -0.02414099 -0.01774947
-0.023568703 0.0064444095 -0.010022179 0.009818309 0.008012692 -0.015011061 -0.023795972 -0.020200139
-0.0019792235 -0.0019175729 -0.014522357 -0.01369796 -0.0077307313 -0.028090425 -0.0065728426 0.012059876
-0.008526084 0.0016893494 -0.004098509 -0.018772686 0.00072224246 -0.02465147 -0.009571672 -0.014283931
-0.031062044 -0.037980374 -0.006830923 0.012533052 0.008550794 -0.017277522 -0.01453236 -0.0048839697
-0.00012288461 -0.0011723639 -0.030847574 -0.032078907 -0.033837836 -0.029495072 -0.018027274 -0.012073383
0.033775132 0.016842421 0.018730307 -0.015601211 -0.001424368 -0.023987109 -0.004201975 -0.014614595
-0.0032904372 -0.022095257 -0.026513614 -0.016246688 0.017343538 0.036855146 0.024195122 0.023080043
0.019126527 -0.00995984 0.008911156 0.0024341696 -0.008320859 0.009722629 -0.016951827 -0.012148464
0.008232035 0.016543804 0.03681517 0.015228238 0.0116134975 0.006897142 0.0031090176 0.019258209
-0.0026857771 0.010873931 0.013050799 0.0060633575 0.00963327 0.034052704 0.025201157 0.022130089
0.005547908 0.010399128 -0.013440041 -0.0024684935 -0.010166742 -0.0064913635 0.030946469 0.018757077
0.01060595 0.022192564 0.031737134 0.018993147 0.022396969 0.006320795 -0.007894547 -0.023871746
-0.022273049 0.0009942232 -0.0043630777 0.009782479 0.021420663 0.026198614 0.034874152 0.029291095
0.026795194 0.0037838365 0.01309761 0.0004479541 0.002308473 0.008024033 0.019686392 0.019082941
0.007956065 0.004049678 -0.010128849 0.0032005294 -0.0036137581 0.006306896 0.014874087 0.032664675
0.0060038352 0.0015496762 0.019282069 -0.0014030787 -0.0010946796 0.006818292 -0.012538188 0.016037134
-0.012000984 -0.012921797 -0.00010895381 0.0042886203 0.030489754 0.03159115 0.0059894165 0.020215202
0.016935322 -0.007881068 -0.0023186326 0.009522643 0.008052148 -0.011791593 0.009713431 0.0066976654
0.020336304 0.0113402335 0.025547592 0.021775493 -0.006877986 0.004772787 0.014281068 0.0067898184
-0.023977885 -0.0075494465 -0.0037235543 0.0022936966 -0.014622782 0.001344545 0.0005139888 0.013293972
-0.00039378594 -0.014822979 -0.0006093207 -0.008183327 -0.002716069 0.0043587186 -0.023849722 -0.0106248455
-0.02018117 0.015202806 -0.01956745 -0.006012304 0.0034683926 -0.022682017 -0.017775789 -0.005781921
-0.010460399 -0.001602914 -0.020481892 -0.010694118 -0.026249474 0.0029544493 0.0020933482 0.003465896
-0.016097281 -0.017385783 -0.0007872049 4.0829764e-06 0.00013172015 -0.004946517 -0.014698687 -0.010172689
00000000: 234b 733c ea84 533c f530 ba3c 87a3 d83c
00000010: 04c5 733c 53e2 90bb 0275 dc39 40bb 1ebc
00000020: e69a d6bb e9f5 8e3c 99e8 e63b 7426 78ba
00000030: 0088 6f3c eec2 0b3d 4d4e f73c e07e 023d
00000040: 89f7 053c d9ba 9c3c 104c 263b f844 a53c
00000050: 40c2 dd3b 2902 a23b 3052 7ebb 0111 803b
00000060: 4976 0abc f718 b43c 9a63 163d 2dbc 833c
00000070: df24 a43c ae39 c4b9 c6e4 db3b 5f5a 01bc
00000080: d3ff 47bc a690 86bc e827 1ebc ec39 a4bc
00000090: f04e c4bb b224 053c 9c96 8d3c c155 0b3d
000000a0: 6a1d a03c 9888 963c a76e 9e3c 47a0 103c
000000b0: 0c33 123c 6d11 37bc 7576 023b 19a9 5fbc
000000c0: 4691 87ba 3bb7 5bbc a291 98bc 4c30 343b
000000d0: 0c98 933c 04e3 263a e3c3 b13c a98d 763c
000000e0: a573 433c 413c c33b 35d7 5bbb d950 86bc
000000f0: 2826 dcbc d1b2 41bb 53c3 c5bc 5667 91bc
00000100: 2713 c1bc a02b d33b 1134 24bc f9dc 203c
00000110: ab47 033c f4f0 75bc c5ef c2bc c37a a5bc
00000120: dcb5 01bb 1257 fbba 2eef 6dbc 696d 60bc
00000130: 1352 fdbb e41d e6bc 0061 d7bb c996 453c
00000140: fdb0 0bbc 296d dd3a c94c 86bb 2dc9 99bc
00000150: df54 3d3a e1f1 c9bc 81d2 1cbc 2607 6abc
00000160: d475 febc 4f91 1bbd efd5 dfbb 6e57 4d3c
00000170: a118 0c3c 9789 8dbc 2319 6ebc b509 a0bb
00000180: 96da 00b9 01aa 99ba 0db4 fcbc 2c65 03bd
00000190: 8b99 0abd a69f f1bc efad 93bc 70cf 45bc
000001a0: cb57 0a3d 1ef9 893c 4d70 993c 399c 7fbc
000001b0: dcb1 baba 9d80 c4bc b9b0 89bb 0e72 6fbc
000001c0: 60a4 57bb 1d01 b5bc 1433 d9bc c617 85bc
000001d0: 0914 8e3c 6cf5 163d d934 c63c 5c12 bd3c
000001e0: 3caf 9c3c 992e 23bc 1900 123c 9786 1f3b
000001f0: 3654 08bc a94b 1f3c 8fde 8abc 5a0a 47bc
00000200: a8df 063c df86 873c 81cb 163d dc7f 793c
00000210: 8a46 3e3c 6c01 e23b a9c0 4b3b 64c3 9d3c
00000220: dd03 30bb 9328 323c 05d3 553c 21af c63b
00000230: ddd4 1d3c d97a 0b3d a872 ce3c 294a b53c
00000240: 3acb b53b 1b61 2a3c 9e33 5cbc 73c6 21bb
00000250: 6892 26bc 81b5 d4bb 7383 fd3c 71a8 993c
00000260: 94c4 2d3c 2ecd b53c ccfe 013d 8497 9b3c
00000270: d979 b73c ac1e cf3b 2158 01bc ae8e c3bc
00000280: f875 b6bc 9850 823a 26f8 8ebb b146 203c
00000290: 637a af3c 7a9e d63c 33d8 0e3d e1f3 ef3c
000002a0: 9881 db3c 3efa 773b 5c97 563c 62db ea39
000002b0: c049 173b 3c77 033c 5b45 a13c d453 9c3c
000002c0: 285a 023c 29b3 843b 79f3 25bc f9bf 513b
000002d0: cdd4 6cbb 14aa ce3b 71b2 733c 65cb 053d
000002e0: d2bb c43b 811e cb3a 6ef5 9d3c 82e7 b7ba
000002f0: 5a7b 8fba fb6b df3b f96c 4dbc 4f60 833c
00000300: c69f 44bc f2b5 53bc 227e e4b8 8e87 8c3b
00000310: a6c5 f93c b965 013d de42 c43b 5a9a a53c
00000320: f2bb 8a3c 981f 01bc 33f4 17bb dc04 1c3c
00000330: 28ed 033c 8731 41bc 1525 1f3c 1778 db3b
00000340: 5298 a63c 63cc 393c 2f49 d13c 8562 b23c
00000350: ba60 e1bb 0a65 9c3b 24fb 693c 207d de3b
00000360: 456d c4bc 5961 f7bb e006 74bb d851 163b
00000370: 6594 6fbc 723b b03a 34bd 063a f6ce 593c
00000380: 0e75 ceb9 15dc 72bc d2ba 1fba 5c13 06bc
00000390: 1400 32bb 95d3 8e3b 7e60 c3bc d513 2ebc
000003a0: fb52 a5bc 3115 793c eb4b a0bc dd02 c5bb
000003b0: f94d 633b a3cf b9bc 889e 91bc 4576 bdbb
000003c0: 1862 2bbc de18 d2ba a4c9 a7bc 6236 2fbc
000003d0: 2309 d7bc 6f9f 413b 8e30 093b 1624 633b
000003e0: 72de 83bc a16c 8ebc 6d5c 4eba 8000 8936
000003f0: 5c1e 0a39 6416 a2bb c3d2 70bc 5aab 26bc

bias f4 [50]
-0.0043694754 0.006852801 0.0035526876 0.023735236 -0.023263952 -0.010649829 -0.017952032 -0.0038654543
0.0058069844 -0.011929446 -0.018390136 -0.026406197 -0.0051854122 0.0016268169 -0.004356512 -0.019178426
-0.023111692 0.008744591 0.022018401 -0.008954438 0.008872556 -0.0018634 -0.021870812 0.014052698
0.0014791351 0.0042575854 0.01872617 -0.0022943798 -0.018980686 0.01898114 -0.011848398 0.004622645
0.0018404063 0.002505688 0.019153468 0.008692636 0.0038453867 -0.012260859 0.010190907 -0.021087902
0.013789857 -0.005591843 -0.013458732 0.016453551 0.020593276 -0.027570963 -0.015250557 0.009471368
-0.0017518607 -0.0048216083
00000000: d12d 8fbb 768d e03b 35d4 683b 6670 c23c
00000010: 0b94 bebc 9f7c 2ebc 2410 93bc 9053 7dbb
00000020: 8448 be3b b973 43bc e9a6 96bc cf51 d8bc
00000030: 64ea a9bb eb3a d53a 12c1 8ebb 131c 9dbc
00000040: bb54 bdbc 7945 0f3c ef5f b43c a3b5 12bc
00000050: 325e 113c 543d f4ba 6b2a b3bc 4a3d 663c
00000060: 8adf c13a 3783 8b3b a067 993c 4e5d 16bb
00000070: 627d 9bbc 567e 9b3c c81f 42bc 8f79 973b
00000080: ca39 f13a 7836 243b bce7 9c3c 8f6b 0e3c
00000090: e202 7c3b c5e1 48bc c3f7 263c 89c0 acbc
000000a0: daee 613c c73b b7bb 0382 5cbc 99c9 863c
000000b0: 3bb3 a83c 80dc e1bc 79dd 79bc cc2d 1b3c
000000c0: b19e e5ba 95fe 9dbb

weight f4 [10, 50]
-0.12368419 -0.06107598 0.124663666 -0.007993939 0.0787033 0.037816606 0.08926607 -0.074485
0.17142445 0.04150296 0.039647408 0.033152252 0.010494135 -0.04255494 -0.11332023 -0.0895633
-0.09959995 0.07668919 0.1566916 0.077726744 0.038118392 -0.04552395 0.0017493754 0.05479669
-0.1764821 -0.09287746 0.1522858 0.09055509 0.085170634 0.08351696 -0.13023646 0.013335398
-0.009996934 0.009189768 0.1292439 0.13617295 -0.08602122 -0.063251145 0.0057732677 0.0053778915
0.037535507 -0.12747774 -0.13973708 -0.06922488 -0.10166589 0.03017268 -0.15590559 -0.15263356
-0.0862184 -0.08070247 0.022045648 0.09625225 -0.022203157 -0.097640105 0.10900224 0.11277461
-0.035097305 0.11786538 0.018419893 -0.029020978 -0.013649499 0.11976994 -0.02811322 -0.10002175
-0.08783053 0.030369679 -0.018978693 -0.10296763 0.05769241 -0.11705242 -0.095781095 0.051819123
0.10738199 0.08492924 -0.0397425 0.018753808 0.08951794 0.12446397 -0.10522595 -0.0522476
0.13665774 -0.09004077 0.084565006 0.081576854 -0.08473894 -0.12512736 0.032362223 0.01565672
-0.05550894 0.0917398 -0.049956277 -0.047849186 0.09687094 -0.10527392 -0.0717871 0.07861375
0.08332656 -0.07075517 0.11532768 -0.031981863 -0.0071435343 0.0055010854 -0.09121412 -0.018007552
-0.13329048 -0.005375728 0.12909494 -0.016952876 0.0770904 -0.029522192 0.12463792 -0.0010706914
0.060691237 -0.087983854 0.07077784 -0.0078517115 -0.07406593 -0.0995646 0.0749934 -0.033667453
0.0046813074 -0.06781816 -0.0655837 0.02256937 -0.027788622 0.035061475 0.11126763 0.017164499
-0.07600923 0.03986518 0.097958274 -0.10781569 -0.12794141 0.02928838 0.1321749 -0.12171589
0.116669334 -0.056360416 -0.091586076 -0.009498836 -0.0679023 -0.09743874 0.06256132 0.14629667
-0.0032850092 -0.033351973 0.122153774 0.029262535 -0.08848767 0.10731352 0.08702335 0.013734112
0.083117485 0.0146201 -0.04265617 -0.05964032 -0.10736998 -0.049203765 0.02217439 -0.01010499
-0.043098498 -0.030413937 -0.049218614 0.112148166 -0.053728156 0.10983109 0.011359166 -0.090157785
-0.031247662 0.051103763 0.11697173 0.05912756 -0.006253196 0.09971121 0.020530075 0.03721859
0.11148777 0.033433925 0.045769226 0.07926551 -0.019481303 0.06277797 0.0053707776 0.043151617
0.015136878 -0.051254734 0.03686584 -0.14258239 -0.11642043 0.01629312 -0.07112278 -0.042757586
0.1015086 -0.032691512 -0.05753535 -0.018629318 0.016795807 0.11853346 -0.13099736 0.123683184
-0.118973956 -0.12587574 0.102152064 -0.057709064 -0.061211746 -0.03846238 -0.11586626 0.003970704
0.102425314 -0.06974614 -0.09228729 0.076657794 -0.09519254 -0.083069704 0.094051965 0.007579149
0.038435854 -0.039022002 0.0483057 -0.03957384 0.09034705 -0.020463342 0.06254136 -0.0015016397
0.056189615 0.02124638 -0.10858822 0.118958555 -0.03732853 -0.09696939 0.037695907 -0.07642641
0.12505455 0.092315145 -0.071349956 0.06690359 -0.07556062 0.12367335 0.092067264 -0.106292196
-0.004260198 0.035264097 -0.12508477 0.009869672 0.05386948 0.069233835 0.03502876 0.054796945
0.102660775 0.037575096 -0.087494545 0.022058733 -0.04574883 -0.1245154 -0.075192764 0.039144985
00000000: 234e fdbd cf2a 7abd aa4f ff3d 03f9 02bc
00000010: 322f a13d 96e5 1a3d 21d1 b63d 978b 98bd
00000020: e489 2f3e 02ff 293d 5265 223d a8ca 073d
00000030: 98ef 2b3c 174e 2ebd 7014 e8bd f76c b7bd
00000040: 0ffb cbbd 390f 9d3d c373 203e 332f 9f3d
00000050: 0822 1c3d 5277 3abd 4c4b e53a 7e72 603d
00000060: b9b7 34be 8a36 bebd cff0 1b3e f274 b93d
00000070: f16d ae3d f10a ab3d b55c 05be b77c 5a3c
00000080: 2eca 23bc ae90 163c 8358 043e ec70 0b3e
00000090: e52b b0bd d189 81bd ae2d bd3b 0639 b03b
000000a0: d5be 193d 8689 02be 3d17 0fbe c6c5 8dbd
000000b0: 3536 d0bd b22c f73c b7a5 1fbe f94b 1cbe
000000c0: 4693 b0bd 5647 a5bd 1399 b43c e61f c53d
000000d0: 65e3 b5bc 89f7 c7bd 913c df3d 60f6 e63d
000000e0: 31c2 0fbd 6863 f13d 51e5 963c 67bd edbc
000000f0: 26a2 5fbc f149 f53d b24d e6bc 34d8 ccbd
00000100: 7ee0 b3bd d5c9 f83c 3479 9bbc b1e0 d2bd
00000110: e04e 6c3d 2eb9 efbd e128 c4bd 4a40 543d
00000120: 17eb db3d 62ef ad3d 08c9 22bd 96a1 993c
00000130: 2f55 b73d f7e6 fe3d b480 d7bd 9401 56bd
00000140: 02f0 0b3e 4c67 b8bd 6b30 ad3d c411 a73d
00000150: 9c8b adbd 6321 00be 408e 043d 8642 803c
00000160: 585d 63bd 14e2 bb3d f49e 4cbd 82fd 43bd
00000170: 4564 c63d da99 d7bd 1d05 93bd 3f00 a13d
00000180: 1ea7 aa3d 16e8 90bd eb30 ec3d 6aff 02bd
00000190: 4f14 eabb 7342 b43b 78ce babd 9384 93bc
000001a0: 4d7d 08be e026 b0bb 7731 043e c2e0 8abc
000001b0: 92e1 9d3d 86d8 f1bc 2a42 ff3d 7156 8cba
000001c0: 6097 783d e130 b4bd f9f3 903d 77a4 00bc
000001d0: e1af 97bd 86e8 cbbd 2496 993d e2e6 09bd
000001e0: a765 993b 3fe4 8abd bf50 86bd 66e3 b83c
000001f0: f7a4 e3bc 9f9c 0f3d 48e0 e33d 909c 8c3c
00000200: baaa 9bbd ac49 233d 599e c83d 79ce dcbd
00000210: 1303 03be 2fee ef3c db58 073e 2e46 f9bd
00000220: 55f0 ee3d 2eda 66bd 7b91 bbbd 01a1 1bbc
00000230: 5c10 8bbd f68d c7bd 2620 803d cbce 153e
00000240: 4f49 57bb 149c 08bd c22b fa3d fcb7 ef3c
00000250: 0639 b5bd 31c7 db3d 4c39 b23d 0a05 613c
00000260: 8039 aa3d 2589 6f3c 3cb8 2ebd 6849 74bd
00000270: cbe4 dbbd e389 49bd 11a7 b53c 668f 25bc
00000280: 0d88 30bd a626 f9bc 7599 49bd f0ad e53d
00000290: 0e12 5cbd 1fef e03d cc1b 3a3c a5a4 b8bd
000002a0: 19fb ffbc 2e52 513d e08e ef3d be2f 723d
000002b0: 9ce7 ccbb 6435 cc3d b02e a83c 8572 183d
000002c0: b353 e43d 03f2 083d 8378 3b3d f555 a23d
000002d0: 4197 9fbc bd91 803d 59fd af3b c0bf 303d
000002e0: ab00 783c 7cf0 51bd a300 173d 1e01 12be
000002f0: d66d eebd 2679 853c d2a8 91bd 9422 2fbd
00000300: bee3 cf3d 89e7 05bd 30aa 6bbd 839c 98bc
00000310: 5c97 893c acc1 f23d 2c24 06be 9c4d fd3d
00000320: 9ea8 f3bd 92e5 00be 1a35 d13d 5760 6cbd
00000330: 2bb9 7abd bb8a 1dbd 4a4b edbd ae1c 823b
00000340: 5dc4 d13d 10d7 8ebd 1e01 bdbd c3fe 9c3d
00000350: 4ef4 c2bd 7320 aabd 519e c03d 835a f83b
00000360: ea6e 1d3d 89d5 1fbd 33dc 453d 2e18 22bd
00000370: e007 b93d bda2 a7bc af15 803d abd2 c4ba
00000380: 1527 663d e30c ae3c 8063 debd 8ba0 f33d
00000390: cde5 18bd e397 c6bd 0667 1a3d 7385 9cbd
000003a0: 4d0e 003e b90f bd3d ed1f 92bd c004 893d
000003b0: 87bf 9abd 7448 fd3d c38d bc3d b9af d9bd
000003c0: 2299 8bbb 1671 103d 3916 00be 68b4 213c
000003d0: 3ea6 5c3d 78ca 8d3d 517a 0f3d c372 603d
000003e0: d03f d23d 58e8 193d 5730 b3bd 84b4 b43c
000003f0: 2063 3bbd ee01 ffbd aafe 99bd 7e56 203d

bias f4 [10]
-0.10463942 0.041787967 -0.090765685 0.07432917 0.11493393 -0.016820863 -0.054402474 0.10204795
-0.05537217 0.065030076
00000000: 314d d6bd dc29 2b3d 5ce3 b9bd e439 983d
00000010: 7b62 eb3d e8cb 89bc 21d5 5ebd 84fe d03d
00000020: eecd 62bd 7d2e 853d
