models/conv2_layer_28x28.pt (torch_old, 90108 bytes, 8 tensors)

weight f4 [10, 1, 5, 5]
000000 b1 23 ba be 94 36 86 be 5e fa 0c be d7 1d 1d be
       -0.36355355 -0.26213515 -0.13767383 -0.15343414
000010 7e 1d 33 3e f0 16 3d be d8 a7 b7 bc 5e e4 0d bd
       0.17491719 -0.18465781 -0.022418901 -0.034641616
000020 62 f4 f6 3c ca cf 8f bd fa f1 53 be 87 36 86 be
       0.030145828 -0.070220545 -0.20697775 -0.26213476
000030 cd 74 70 be 3f 26 fc 3d 1a 72 40 3d f1 77 77 3d
       -0.23482056 0.12311982 0.046983816 0.06041712
000040 19 d5 30 3e 56 bd 8f bd ee d0 76 3e c8 09 af 3d
       0.1726879 -0.07018535 0.24103138 0.085467875
000050 6f be 83 3d 1f f0 32 3e 9d a7 91 3e d4 3f a9 3e
       0.06432807 0.17474411 0.2844819 0.3305651
000060 c0 df cb 3e e8 73 1f 3e 8c fc 5e 3d 52 8e 4f 3d
       0.39819145 0.15571558 0.054440066 0.050672837
000070 b7 24 8f 3d 49 ce cb 3d d2 cb 3a 3e 0f 3e 73 3e
       0.06989425 0.09951455 0.18241814 0.23754142
000080 05 e4 53 3e 14 7d df 3d 3f 7f be 3d 18 03 a8 bd
       0.20692451 0.10912529 0.09301614 -0.08203715
000090 46 9f 25 3e 0b 20 40 3e cb 39 e9 3d b9 02 52 bc
       0.16174039 0.18762223 0.11387976 -0.012818032
0000a0 14 3d e6 bd 3f f8 0c 3e f7 95 d4 bd 9c b1 72 3e
       -0.112421185 0.13766573 -0.10380166 0.23700565
0000b0 a4 3d 04 3e ad 71 ae bd 7f 43 04 3d 72 4f 73 3e
       0.12914139 -0.08517776 0.03229093 0.23760775
0000c0 c5 1f 90 3e 52 cf 9a 3e 22 42 4c be 72 00 87 3c
       0.28149238 0.30236298 -0.19947103 0.016479705
0000d0 60 49 34 be af d3 b2 bd 51 75 f5 3d 12 75 09 3e
       -0.17606115 -0.08731782 0.11985267 0.13423565
0000e0 d6 74 05 bd 68 d7 af 3d 48 c3 9b 3e df 36 87 3e
       -0.032582127 0.08586007 0.30422425 0.2640905
0000f0 b3 0c cb bd 23 b8 11 3e fb 6d 4f 3e f1 cb 46 3d
       -0.099145316 0.14230399 0.20256798 0.048534337
000100 da 8d bf bb 96 0c 00 3e 23 5f d6 3c 81 14 11 be
       -0.0058457674 0.12504801 0.026168412 -0.14167978
000110 34 4d 1b 3c c3 03 41 3e b0 21 2a 3e 30 83 8f 3e
       0.009478856 0.18849091 0.16614413 0.28029776
000120 95 56 4e 3e d8 0a ac 3e 78 4c 51 3e 5a 1f 0d 3e
       0.20150216 0.33602023 0.20439327 0.13781491
000130 f1 fc 45 3e db 08 5f bd 73 d0 99 be bd c3 83 3d
       0.1933477 -0.054451805 -0.30041847 0.064338185
000140 98 53 c8 3d a8 b2 d3 bc 6f 04 9a be fd 3d c7 bd
       0.09781569 -0.025842026 -0.30081508 -0.0972862
000150 df 6c 5a 3d 79 a5 b1 3d a9 62 b5 3d 67 77 70 be
       0.053326484 0.086741395 0.088567086 -0.23483048
000160 20 9f e5 bd cc a4 01 3d 5c ba 8e 3e b8 fe 4c 3e
       -0.11211991 0.031651303 0.27876556 0.20019042
000170 f0 9b 86 bc fa e4 03 be 0c 17 b2 bc 7b 37 83 3e
       -0.016431779 -0.12880316 -0.021739505 0.25628266
000180 22 84 b9 3d c2 af 30 be ec a7 9e bd ba 49 1c 3d
       0.090584055 -0.17254546 -0.07746872 0.03815625
000190 1f 3c 86 3e ea a3 3f 3e 4c df 4a 3e 2a e3 0c bd
       0.26217744 0.18714872 0.19811743 -0.034396328
0001a0 5d c1 12 3e cc 82 80 3e bf 06 a4 bd 1d d1 cf 3d
       0.14331575 0.2509979 -0.08009099 0.10147307
0001b0 39 03 85 bd 56 41 6f bd 2b d0 03 3e e4 4c 46 3e
       -0.06494755 -0.05841192 0.12872379 0.19365269
0001c0 35 58 26 be 4e c1 e5 bd d9 92 64 be 00 ee 04 be
       -0.16244586 -0.112185106 -0.22321643 -0.12981415
0001d0 5a 1d d7 bd b5 84 1a 3b ea 98 00 be 86 c0 85 be
       -0.10503645 0.0023577635 -0.12558332 -0.26123446
0001e0 7d af 2f be e6 ce 87 3d 69 a9 00 3d 2e fb 13 be
       -0.17156787 0.066312596 0.031411562 -0.14451286
0001f0 8f 19 d2 bd 6d fa 65 3e 8e 59 4c 3e 74 8a 2f 3e
       -0.10258781 0.22458811 0.19956037 0.1714266
000200 53 5c 7a 3e 81 25 b3 3e 55 12 4a 3e 5b 14 de 3d
       0.24449281 0.3498955 0.19733556 0.10843726
000210 65 ef 38 3e 00 ba 04 3e 71 7a 29 3e 98 f2 17 3e
       0.18060072 0.12961578 0.16550614 0.14838636
000220 ae fc 20 be c9 26 27 be 62 12 a9 3d 47 e3 ad 3d
       -0.1572139 -0.16323389 0.08255459 0.08490615
000230 6a 8c c9 bd 55 98 27 3e 0c 45 4e 3e 01 40 35 3e
       -0.09841235 0.16366704 0.20143527 0.17700197
000240 05 05 fe 3d 7f f1 65 3e e1 8b 3e 3e 82 ca 6e 3e
       0.12403301 0.22455405 0.18608047 0.23319438
000250 9a bc 97 bc 52 54 b4 3d a8 03 37 be a7 0c 15 bd
       -0.01852255 0.08805145 -0.17872488 -0.03638902
000260 17 9f a1 be f0 8e 12 bd eb bc 9a be e3 ef 35 be
       -0.31566688 -0.035780847 -0.30222258 -0.17767291
000270 27 1f 5f bd 28 a3 18 be 89 c0 88 be c6 b8 39 be
       -0.05447307 -0.14905989 -0.26709393 -0.18136892
000280 ac 23 40 be af 34 09 3e 5b e6 1d be 3f 77 52 be
       -0.18763608 0.13399003 -0.15419905 -0.20553301
000290 a4 b6 60 be ce c0 7a 3e f2 52 b7 3d bc 34 9e 3e
       -0.21944672 0.24487612 0.089513674 0.30899608
0002a0 1e 8d 5f 3e 32 5f a3 3d 1f e4 76 3e 5a 8c 74 3e
       0.21831176 0.079771414 0.24110459 0.23881665
0002b0 b6 d4 3f 3e ee d1 61 3e 93 cd b6 3e db b3 1e 3e
       0.18733487 0.22052738 0.35703716 0.15498297
0002c0 f4 2e ca 3d 97 e8 8f 3e 1a 66 3e 3e 5c 0c 9a 3e
       0.09872237 0.2810714 0.18593636 0.30087554
0002d0 5c 53 14 3e c3 51 ff bc 91 b9 00 3d 3d ef 72 bd
       0.14484924 -0.031166917 0.03142697 -0.059310187
0002e0 5c a3 62 bd 44 22 d3 bb 2c e5 34 3e 03 e3 23 3d
       -0.055331573 -0.0064432938 0.17665547 0.040011417
0002f0 4f 41 53 3e c4 25 70 3e 39 4d 9f bd 77 35 78 bd
       0.20630382 0.23451906 -0.07778401 -0.060597863
000300 09 64 07 bb 46 f4 0b be 34 ad b2 bd bb 5f 86 be
       -0.002065899 -0.13667402 -0.08724442 -0.26244912
000310 9b ca cb bd 78 99 4e be e2 1c 51 be 24 d9 bc be
       -0.09950753 -0.20175731 -0.20421174 -0.36884415
000320 bc 88 e7 3c 18 2c 6b 3e ff 88 3d 3e d4 d0 10 3e
       0.028263442 0.22966039 0.18509291 0.14142162
000330 01 86 89 3e f0 74 fd bb 02 f4 44 3d 68 c3 81 3e
       0.2686005 -0.0077348873 0.048084266 0.25344396
000340 e8 7d 14 3e 68 a3 9f 3e b5 e2 9b bd 3a 18 63 3e
       0.14501154 0.31179357 -0.076116 0.2217721
000350 50 5a 54 3d 1a 38 98 3c 91 c8 40 3e ca 43 29 3d
       0.05184394 0.018581439 0.1882651 0.041324414
000360 e3 a0 8d 3d 6a ab 65 be 91 3a ca bd ec 0d 0c be
       0.06915452 -0.2242867 -0.09874452 -0.13677186
000370 c4 67 db bd 95 a1 6b bc 9b 3c ae be e3 ce 83 be
       -0.10713151 -0.014381786 -0.34030613 -0.2574378
000380 f1 c9 32 be cd a0 4f bd 3d 46 bc 3d 5c 17 48 3e
       -0.17459847 -0.05069046 0.091930844 0.19540161
000390 15 b8 94 3e 7c 50 7d 3e f6 f3 2f 3e 42 4d 43 be
       0.29046693 0.24737734 0.17182907 -0.1907244
0003a0 5c b4 bf 3d 1c 4b 24 3e 6e 55 74 3e 64 bf 37 be
       0.09360573 0.16044277 0.23860714 -0.17944103
0003b0 52 77 24 be 24 dd 49 3e a2 75 bc 3b c5 12 3d 3e
       -0.16061142 0.19713265 0.0057513276 0.18464191
0003c0 68 db 45 3e 45 5e e3 3d e8 31 08 bd 9f a9 99 3e
       0.19321978 0.11101965 -0.03325072 0.30012223
0003d0 ec d9 c9 3d 92 b9 80 3e ac 6b 73 3d d8 5e 28 bc
       0.098560184 0.2514158 0.059428856 -0.010276519
0003e0 04 58 75 3d f5 17 bf 3d
       0.05989839 0.09330741

bias f4 [10]
000000 a9 da ad 3d f5 14 fe 3d c4 d8 d5 3b bf c3 07 ba
       0.08488972 0.12406341 0.0065260846 -0.000517901
000010 6c 13 1d 3e 29 33 5f 3d 47 00 94 3d d9 0d 85 bd
       0.1533944 0.05449215 0.072266154 -0.06496782
000020 8c b8 5e 3b 8f 7f 86 3b
       0.003398451 0.0041045616

weight f4 [20, 10, 5, 5]
000000 be 07 b6 3d cc 89 b9 3d 19 9e 0f 3e 30 27 3e 3e
       0.088881955 0.09059486 0.14025153 0.18569636
000010 3d 6b 8a 3c a2 b8 17 3e 55 16 a8 3d 9f 5e 2b 3d
       0.016896838 0.14816526 0.082073845 0.041838285
000020 b0 39 9d 3d a0 6b bf bd 23 52 a2 3d 87 fd c6 3d
       0.07677019 -0.093467 0.079258226 0.09716325
000030 0f b7 8f bb be a9 5b 3d f6 50 66 bd e4 81 4f 3d
       -0.004385836 0.053628676 -0.056229554 0.050660983
000040 12 bf 60 3d 0b 55 04 bb 82 e4 bb 3c 44 57 a7 3d
       0.05486972 -0.002019229 0.02293611 0.081709415
000050 a1 ce 51 3c bd ae 98 3d ae 4e 99 3d bc 94 bc bb
       0.012805612 0.07455204 0.0748571 -0.005755035
000060 cf a4 0b 3d 81 fe fb bd d0 a1 43 bd d8 eb 34 3d
       0.03409272 -0.12304402 -0.04776174 0.04417023
000070 3b 9a 03 bd 1e 41 34 bd 52 61 f9 bd 43 a0 2d bd
       -0.032129508 -0.044007413 -0.121767655 -0.042389166
000080 89 f7 91 3c 45 0e b4 bc 1a c5 ee 3c 7b ce f2 bd
       0.01781823 -0.02197946 0.02914672 -0.11855789
000090 5b 69 70 3d c7 d0 20 bd 92 a3 c4 3d 97 72 15 3d
       0.058694225 -0.039261606 0.09601511 0.036486235
0000a0 5d 33 cf bd a9 f0 30 bc b2 28 d0 3c 7a 3d 2e 3d
       -0.10117219 -0.010799565 0.02541003 0.042539097
0000b0 4d b9 64 3c 7d 38 e0 bd 91 47 74 bc 64 23 2e bd
       0.013960195 -0.10948274 -0.014909641 -0.04251422
0000c0 90 fe 80 3d a6 cc 40 3d 21 e8 75 bd 58 eb 42 bc
       0.06298554 0.047070168 -0.06003583 -0.011896931
0000d0 f6 65 82 3d 7a 91 ed 3d a5 12 74 3d 6e b7 e7 bb
       0.06367104 0.11600013 0.059588093 -0.007071427
0000e0 b0 92 86 3b 32 ad d0 3d 52 ab a3 3c 36 3d 80 39
       0.004106842 0.101892844 0.019979153 0.00024459668
0000f0 6d a5 50 3b fc f1 47 3d 47 c9 72 3c 7c 6a a1 3c
       0.0031836883 0.04881476 0.014818496 0.019704096
000100 d9 ce ee bb 9f 1d 2d bd 19 ca 8d bd cf 9f 2b bc
       -0.0072878418 -0.042264577 -0.06923313 -0.010475113
000110 c7 a6 60 3d 9c 03 97 bb 1c 5f e4 bd f8 2a ac bd
       0.05484655 -0.0046085846 -0.11150953 -0.08406633
000120 e6 7c 15 3d e6 99 1c 3c 35 f6 ee 3c 3e 1b 24 bc
       0.036496066 0.009558177 0.029170135 -0.010016261
000130 86 1c b7 3c cb df e9 3d b2 da d3 bb b5 0c 04 3e
       0.022352468 0.11419638 -0.0064652795 0.12895472
000140 1e 3d d0 bc 65 bc b3 3d 13 d4 4c bb 92 cb 6b bc
       -0.025419768 0.08776168 -0.0031254336 -0.014391797
000150 96 30 34 3e f6 c8 c7 3c 93 a3 e1 bb a1 a4 38 3c
       0.17596659 0.024387818 -0.0068859546 0.011269719
000160 bc eb b8 3d d8 2a 38 3e e9 d4 16 bc d7 2a 06 3e
       0.09029338 0.17985094 -0.009206035 0.1310228
000170 06 0d 6f 3d 2a 61 a8 3d 31 fc 28 3e 34 68 fc 3d
       0.05836203 0.082216576 0.16502453 0.12324563
000180 99 99 08 3d cf 2c eb 3c 6c da aa ba 1d ee e5 3d
       0.033349607 0.02870789 -0.0013035065 0.11227057
000190 fc f0 03 bd af 97 95 3c 1e ca 25 3d 9e b4 44 bd
       -0.032212242 0.018260805 0.040475957 -0.048023812
0001a0 0b 70 13 3e dc 99 32 be 06 cb 09 be b3 59 8e bc
       0.1439821 -0.17441505 -0.13456354 -0.017376756
0001b0 ce 64 d2 3d 84 60 cf 3d 4e d3 6c 3c 91 4a fd 3c
       0.10273133 0.10125831 0.014454676 0.030919345
0001c0 01 a5 63 3d 49 09 4b 3b 59 db ad 3d 43 7c 81 3d
       0.05557728 0.0030980876 0.08489103 0.06322529
0001d0 63 94 95 3d 4d 80 ee 3c c3 14 2b 3d 1f dc fe ba
       0.07303693 0.029113913 0.041767847 -0.0019444263
0001e0 8c e3 22 3e cd e9 b6 3c 51 97 c2 3c b8 2d 08 bd
       0.15907115 0.022328282 0.023753794 -0.033246726
0001f0 21 24 0f bd 52 7b d7 bd c4 3d 13 bd 8c 62 04 bd
       -0.034946565 -0.10521568 -0.035947576 -0.032320544
000200 2b 32 19 bd df 42 2a 3d 02 c8 dc bd 45 6d 0c 3c
       -0.03740136 0.04156768 -0.10780336 0.008570974
000210 56 84 1a 3d 21 be cf 3b c4 b5 0b 3d 64 b5 27 bd
       0.03772386 0.006339804 0.034108892 -0.040944472
000220 9c 28 0d 3c cc 5e 85 3c d5 80 a6 3d fc 1a d7 3c
       0.008615639 0.016280554 0.081300415 0.026257984
000230 21 a0 e1 bd 32 16 aa 3c 7f 86 0c bd 3c 3e 30 3d
       -0.1101687 0.020762537 -0.034307953 0.0430281
000240 9f 2e 7b 3d 02 7d 55 bd 50 cd c5 bd 98 54 ab bc
       0.06132376 -0.05212117 -0.09658301 -0.02091436
000250 74 9f 04 bd ab 9f 93 3d 06 57 e4 3c 25 01 b1 3d
       -0.03237863 0.072081886 0.027873527 0.086427964
000260 15 8d ff 3d 3e ea 7a 3d 8b ba a2 3d 2b a5 44 bd
       0.12478081 0.061258547 0.079457365 -0.04800908
000270 e7 b8 bb 3c 3f 57 a5 3c b3 6b 85 bc 97 0a 68 3d
       0.022915317 0.020183204 -0.016286707 0.056650724
000280 60 db 1b bd a9 29 bf bd 44 c3 1d be 2b bd 26 bc
       -0.03805101 -0.09334118 -0.15406519 -0.010176937
000290 da de d5 3d 96 0c 24 bd 98 d9 f7 bd 20 d9 d9 bd
       0.10442896 -0.040051065 -0.121020496 -0.106371164
0002a0 cb 4d 0d 3d 96 48 03 3e fa 09 4a bb 9b 9a 04 be
       0.034498017 0.12820658 -0.00308287 -0.12949602
0002b0 04 1b 87 bc 15 47 dc bd 0e 5b 86 3c 72 95 28 bc
       -0.016492374 -0.10755745 0.01640084 -0.010289537
0002c0 a1 71 f6 3c 4e b4 29 bd 78 58 f3 3c 4a 6e 97 3d
       0.03008348 -0.041431718 0.029705271 0.07394083
0002d0 e3 8a e5 bc ec fe e3 bb 03 2e c7 3c b4 fc ac 3d
       -0.028020328 -0.0069578793 0.024313932 0.08446637
0002e0 ad 86 ae 3c 75 4d 80 3c 61 d3 91 3d db 16 21 3d
       0.021304453 0.015661934 0.071203955 0.039328437
0002f0 0b 0c 4a bd f3 3d 7b bd b1 26 b6 3c ec 83 08 3d
       -0.04932789 -0.061338376 0.022235246 0.033328936
000300 fe c3 cb bc e1 64 2d bd 04 02 10 be 76 4e e8 bd
       -0.02487373 -0.042332534 -0.14063269 -0.1134309
000310 10 84 b2 bd 44 0f 21 bc d3 13 f8 bd aa 0e 4d be
       -0.08716595 -0.0098303 -0.12113156 -0.20025125
000320 d2 6d da bd 7b 9e 9d bd c8 da 28 3d 30 25 e7 3b
       -0.10665478 -0.076962434 0.04122427 0.0070539936
000330 69 f2 e1 3d 9d 2d d3 bd d1 0e 3f 3d ca 07 b4 3d
       0.11032564 -0.103114344 0.04664499 0.08790548
000340 18 91 74 3d fa b7 9e 3d 78 43 13 bc 34 28 b6 3c
       0.059708685 0.077499345 -0.008988254 0.022235967
000350 64 39 df 3d 76 60 8c 3d af b1 44 3c f6 11 ae 3d
       0.10899618 0.06854336 0.012005254 0.084995195
000360 91 a1 0c 3c 31 b8 47 3d 3e 2a 3f 3d 74 7c 54 bd
       0.008583442 0.048759643 0.046671145 -0.0518765
000370 17 d5 4d bb f0 c5 6f 3c a3 9f 03 bd bf 3d 77 3d
       -0.003140753 0.014634594 -0.032134663 0.06036162
000380 96 b5 c2 bc c6 87 05 be c5 9e 89 3c d2 6f 69 3d
       -0.023768228 -0.13040075 0.01679934 0.056991406
000390 d7 23 70 bc 9c 31 93 3d 0b 41 bb bd 8a 3e 77 bb
       -0.014656982 0.071871966 -0.09143265 -0.0037726485
0003a0 b9 c8 74 3d e2 f9 82 3c 5a bc 35 bd 2a b0 9e bc
       0.059761737 0.015988294 -0.04436908 -0.019371111
0003b0 da 46 91 3d 73 ab d6 3d e3 40 33 3d cb 28 ae bc
       0.07093592 0.1048192 0.043763053 -0.021259686
0003c0 e8 01 e9 3c 6f 50 57 3c c4 b2 b5 3d e0 c0 61 3d
       0.028443292 0.013141735 0.088719875 0.05511558
0003d0 c0 6e 4a 3d 96 a8 ef bc 18 79 77 bc fb 61 00 bc
       0.049422026 -0.029255193 -0.015104555 -0.00783586
0003e0 db e8 c0 bc 0e dc c5 3d fe 63 88 3d 37 3a 2c 3d
       -0.023548534 0.09661113 0.06659697 0.042047706
0003f0 f2 8b 2e 3d 75 47 bd 3d e5 c2 32 bd ae fc 51 3c
       0.04261393 0.09242145 -0.043642897 0.012816591

bias f4 [20]
000000 70 48 85 bd 82 c4 8b bd 78 41 17 3d 0b e9 02 be
       -0.06507957 -0.0682459 0.03692767 -0.12784211
000010 e5 d3 b3 bd 40 46 1d 3d 02 c2 ac 3c 25 09 bc bd
       -0.0878065 0.038397074 0.021088604 -0.09181432
000020 a4 15 57 3d 17 08 ff bc bf 9d 04 3c ba 76 c7 bd
       0.052510872 -0.031131787 0.00809425 -0.09739442
000030 5d a2 1e 3c 2f 03 69 3d b0 e2 9d 3c 06 cb 38 3c
       0.009682265 0.0568878 0.019273132 0.011278873
000040 67 54 66 bd 51 21 11 bd 90 12 7b bd 2f c5 cb 3c
       -0.056232836 -0.035432164 -0.061297 0.024874298

weight f4 [50, 320]
000000 84 37 96 bd 97 95 39 3b 33 6c 29 bd 38 8b 75 3d
       -0.073348075 0.0028317922 -0.041362952 0.059947222
000010 9f 6d 2d bd 92 fa 58 3d 30 e9 25 3d b8 52 10 bd
       -0.04234087 0.052973337 0.040505588 -0.035235137
000020 84 d2 ce bc 54 5b 1a 3d e1 b3 f7 3c 5b ce 06 bd
       -0.025246866 0.037684754 0.03023714 -0.03291164
000030 1f 31 77 bd f1 82 8a 3c 34 d2 03 bd 11 b8 3e 3b
       -0.06034958 0.01690814 -0.032182887 0.0029101411
000040 0d 05 4e bd 9f 41 ae 3c ac d1 b5 bc cb 2d de 3d
       -0.050297786 0.021271525 -0.022194706 0.10848578
000050 16 90 ac bd 6c e9 f6 bc 82 e1 85 bd 08 7a 2f bd
       -0.0842592 -0.030140601 -0.06537153 -0.042840987
000060 9f 59 ef bd 78 d8 cb bd fb 33 2d bd 27 eb 9d 3c
       -0.11687016 -0.099533975 -0.0422859 0.019277168
000070 fb 96 45 bd 1a 77 1e 3b 53 8d af 3c 94 eb b0 3d
       -0.04823969 0.0024179877 0.021429693 0.08638683
000080 1c b6 a5 bd d1 51 37 bd b6 a7 32 3d 84 15 92 3d
       -0.08091375 -0.04475576 0.043616973 0.0713301
000090 7d 93 87 bd ce 20 c3 3c e1 dd 83 3c 5b 76 8c 3d
       -0.06619928 0.023819353 0.016097011 0.06858512
0000a0 d9 d9 1e bd bf fe ea bc dd ad c0 3c 5e 0e 6c 3d
       -0.038781974 -0.028685926 0.023520404 0.05763089
0000b0 a0 c0 67 bd ee 8e f2 3b e9 5c a5 bc d3 76 51 3b
       -0.056580186 0.0074022925 -0.020185905 0.0031961694
0000c0 ef e9 a8 bd 61 8c 9e 3c 9b b6 5a bd 85 00 4a 3d
       -0.08247744 0.019354047 -0.053396802 0.0493169
0000d0 95 94 0e bd 67 d0 af bd f4 14 79 bc 60 35 25 3d
       -0.034809668 -0.085846715 -0.0152027495 0.040334105
0000e0 d8 3f 27 bd 74 39 11 3d 50 61 86 bc 1e 13 a5 3b
       -0.04083237 0.035455182 -0.016403824 0.0050376793
0000f0 8b a7 2a 3d 94 d8 aa 3d 03 e7 d5 bc 0a c7 80 bd
       0.041663688 0.0834209 -0.026111132 -0.06287964
000100 7b 0c 0d be 1c 57 0f 3d 72 51 f1 3c 27 f6 f6 3c
       -0.13774292 0.034995183 0.029457781 0.030146671
000110 cf 8a c4 bd b0 d5 ed bd 53 dc 22 bc ab 2f 92 bc
       -0.09596788 -0.11613023 -0.009940225 -0.017844995
000120 41 5c 22 bc 76 25 2c bd fe 15 47 bd 74 cf e0 bc
       -0.00990969 -0.042027913 -0.048604958 -0.027442671
000130 05 08 e2 3b ee c8 09 3d 59 a1 48 3d 07 80 ef 3d
       0.0068979287 0.033638887 0.048981998 0.11694341
000140 20 bd ad bd c3 ab 52 bd 47 ec 42 3b fa 34 c7 3d
       -0.08483338 -0.051433336 0.0029742883 0.09726901
000150 35 29 ff bd 0e 93 a3 3b e1 a4 a3 bd e0 6b 1a 3d
       -0.124590315 0.0049918955 -0.079904325 0.037700534
000160 0c b9 7c bd b2 f9 0c bd c3 9b 62 bd 73 11 d2 bc
       -0.061699912 -0.034417816 -0.055324327 -0.025643086
000170 6e 22 da bc aa 04 28 be 66 55 ba bd 33 f6 0e 3d
       -0.026627745 -0.16408029 -0.0909832 0.034902763
000180 1e 1a d0 bb d6 c0 96 bb 58 6a dd bc 98 39 86 bc
       -0.0063507697 -0.0046006246 -0.027028248 -0.016384885
000190 d3 76 20 bd cc 8f ff 3c 82 49 99 3c c0 5d c3 bc
       -0.03917582 0.031196497 0.01871181 -0.023848414
0001a0 88 35 d9 bb 7e 1e e1 3c 95 40 ff 3b 6d b4 b1 3c
       -0.006628696 0.02748036 0.007789681 0.021692479
0001b0 76 10 7a bc e2 18 3c 3d 98 9a 50 3c 7d 0a 0e 3c
       -0.015262714 0.045922168 0.0127321705 0.008669493
0001c0 63 bc 25 be b3 9c bd bd b1 e1 76 bd c0 08 93 bc
       -0.16185145 -0.09258404 -0.06027383 -0.017948508
0001d0 aa 3e 10 be 5d bd 49 bd 26 87 28 3d 13 2a 66 3d
       -0.14086404 -0.049252857 0.041144513 0.05619247
0001e0 ed a4 fc bc 42 ba 9f 3c ae 17 ba bc 87 4b b4 3b
       -0.030840361 0.019497994 -0.02271637 0.0055021676
0001f0 2a b4 51 3d 1d 98 23 3d 7e 3f 87 bb c5 f6 e0 b8
       0.05119721 0.03993999 -0.004127442 -0.00010727117
000200 e1 90 53 be 8a 2a de bd ce ad 91 bd 2e 07 1a 3b
       -0.20660736 -0.108479574 -0.07113229 0.0023502815
000210 04 c4 ce bd b3 19 ca bd 63 4f 8d bd d6 92 3d 3d
       -0.10095981 -0.09868183 -0.068999074 0.04628261
000220 0e 39 25 3d 19 a0 3c 3d c8 0e 3d bc d3 1e 83 bc
       0.040337615 0.04605112 -0.011539169 -0.01600591
000230 e1 df 94 3d 63 2a dc 3b 16 c8 82 bc cd b3 ae 3c
       0.07269264 0.00671892 -0.015964549 0.02132597
000240 5f c6 f0 bd 1a e5 a1 bd 9d 52 0e bc 34 49 48 3d
       -0.11756586 -0.07905026 -0.008686689 0.048897937
000250 d2 57 a8 3c fa e5 c8 bc 4a e5 93 bc 9d a1 d8 3c
       0.020549688 -0.024523724 -0.01805367 0.02644425
000260 c7 c5 a1 3d 0a 20 68 3c a1 9e 90 bd 4f 77 8a 3c
       0.07899051 0.014167795 -0.07061506 0.016902594
000270 fc 05 9d 3d ec 69 f6 3c d4 6c 70 bd 58 83 19 bd
       0.07667157 0.030079804 -0.058697537 -0.037478775
000280 cb a3 3b bd 44 a2 2e 3a a7 b5 a8 bc c6 36 80 3d
       -0.045810502 0.00066617527 -0.020594431 0.06260447
000290 16 e9 ea bd 6a a2 80 bb 26 7b d6 3b cf de a0 3c
       -0.11470239 -0.0039256113 0.006545442 0.019637493
0002a0 66 3f 89 bc bc ba 0f bd eb 74 78 bb d1 04 8c 3c
       -0.016753864 -0.035090193 -0.0037911485 0.01709214
0002b0 67 ce 49 3b ed 81 71 bc b2 e9 90 3d e9 96 c8 3c
       0.0030793191 -0.014740449 0.07075824 0.024486022
0002c0 f7 10 2b be 19 a6 a9 bc 35 b7 67 bd 3e 87 bc bc
       -0.1670569 -0.020709084 -0.056571204 -0.023013707
0002d0 ea 46 a9 bd 26 c7 7c bd aa 4b de bd 11 24 5b bd
       -0.08265479 -0.06171336 -0.108542755 -0.053501192
0002e0 1e 18 60 bd 58 9f 18 bd 81 a8 b5 bd 10 a3 83 3c
       -0.0547105 -0.037261337 -0.0887003 0.016068965
0002f0 2d 9f 9a 3d 5a f5 7a 3d e0 36 04 3d 73 59 c7 3d
       0.075498916 0.06126914 0.032278895 0.09733858
000300 5a 36 84 bd c1 e9 29 3d ea e4 15 3d 05 69 80 3c
       -0.06455679 0.04148269 0.036595263 0.015675077
000310 6a 5f 82 bd 5d 08 7f 3d 82 28 f4 bc ce 9d b1 3c
       -0.06365855 0.062263835 -0.029804472 0.021681692
000320 48 cc 48 bd aa fc 98 3b 84 4a 25 bc 68 83 d1 3c
       -0.049022943 0.004668792 -0.010088567 0.025575355
000330 34 d9 ab 3c b8 09 2a 3d 39 a5 20 bd da 35 09 bd
       0.020977594 0.041513175 -0.03922007 -0.033498622
000340 d8 2c a6 bd 3c de fb bc 05 3d 8b 3d f4 49 3a 3d
       -0.08114022 -0.030745618 0.06798748 0.045480683
000350 f0 23 d2 bd c9 d4 43 bd 1c 0e bd bd f6 0c 2c 3d
       -0.10260761 -0.04781035 -0.09231207 0.042004548
000360 73 4b 5c bb 3b f7 d4 3c e4 71 52 bc eb ad cc bb
       -0.0033614307 0.025996795 -0.012844536 -0.0062463186
000370 3e 20 91 3d 53 b2 aa bd 54 43 2c bd 7a 97 02 3d
       0.07086228 -0.08334794 -0.042056397 0.03188274
000380 d9 b7 46 bd f4 8e 56 bd 3e 1c 83 bb a9 f2 d7 bd
       -0.048515175 -0.052382424 -0.0040011695 -0.105443306
000390 4a 12 1e 3d 5c ed fb 3b 59 fd 6b bd d9 a3 fe bd
       0.03859166 0.0076882076 -0.057614658 -0.12433595
0003a0 e7 67 be 3d 69 f8 52 3d b8 4c 63 bd a3 77 fe bd
       0.092971615 0.051506434 -0.055493087 -0.12425163
0003b0 d4 1f 36 3d 5a 8d 65 3d c5 37 6f 3d 74 cd a9 bd
       0.044463947 0.056043006 0.058402795 -0.0829114
0003c0 49 09 de bd a3 4a 6a 3b 2e 2d 28 bd a6 a1 2e bb
       -0.10841615 0.0035750053 -0.04105871 -0.0026646643
0003d0 97 78 1d be 41 a5 9c bd b0 7b 94 bc 73 c0 b9 3d
       -0.15378033 -0.07648707 -0.018125385 0.0906991
0003e0 e6 3f c9 bd cc 78 83 bd 6d 87 f4 3c 8e a4 c0 38
       -0.09826641 -0.064195246 0.029849732 9.185924e-05
0003f0 5c c0 9a 3d 64 fb 83 bd 2b 50 86 3b 4f 55 41 bc
       0.07556221 -0.06444433 0.0040989122 -0.011800124

bias f4 [50]
000000 ac ff 16 3e e6 8d c9 bc 68 7b fa 3c cf 9f cb 3c
       0.14745969 -0.024603795 0.030576423 0.024856476
000010 be 9d 82 3c 0e e3 e8 3c f2 7e 99 3d a5 00 db 3d
       0.015944358 0.02842858 0.07494916 0.10693482
000020 44 91 14 3e f5 cc 9a bc 5b af 85 bc fd f1 6f 3d
       0.1450854 -0.01889656 -0.016318968 0.058580387
000030 e5 cf 12 3d 5b f2 3d 3c e3 4d e1 3c 34 62 15 3d
       0.035842795 0.011593427 0.02750296 0.036470607
000040 de c8 45 3d 96 a2 74 3d cd 21 8c 3b 94 0a ed 3c
       0.048287265 0.059725367 0.0042764903 0.028935708
000050 99 0d d7 3c 01 98 2e bd 24 a4 1b 3d c4 52 23 3c
       0.026251601 -0.04262543 0.037998334 0.009968463
000060 7a fc db 3d e1 c4 7f 3d 4a 37 5e bd a6 b8 a4 bc
       0.107415155 0.062443618 -0.054251947 -0.020107578
000070 ad 96 b1 bd 28 0f 01 3d 84 a5 64 bd 49 d8 bf 3d
       -0.08671317 0.031508595 -0.05582191 0.09367425
000080 dc f4 48 3c cc 58 f4 3d b4 18 76 3c 37 b3 3e 3c
       0.01226541 0.11930999 0.015020538 0.011639408
000090 55 c2 91 3c 65 db 89 3d c9 47 30 3d f1 35 9b bc
       0.01779286 0.06731299 0.04303721 -0.01894662
0000a0 b9 d6 f8 3c 4a 0f 86 3d 22 9f b3 3d f7 8e a8 3d
       0.030375825 0.06545885 0.087705866 0.082303934
0000b0 ae ab 62 3d 55 b5 9a 3d 13 11 0a 3a 15 d2 08 3d
       0.055339508 0.075541176 0.00052668265 0.033403475
0000c0 e4 ee 14 3d 03 2f 93 3d
       0.036360636 0.07186701

weight f4 [10, 50]
000000 e2 c1 b3 bd 5c 0b 00 be 0b fc 7c 3d 3a 21 18 3e
       -0.087772146 -0.12504333 0.061763804 0.14856425
000010 3c 6b 13 3e 72 97 ea bc 75 cf 6a bd 28 57 c1 3d
       0.14396375 -0.028636668 -0.057326753 0.09440452
000020 50 b4 07 be 02 ec c8 bc b8 51 57 be b4 d9 d8 bc
       -0.13252378 -0.0245266 -0.21027267 -0.026470996
000030 c3 21 06 3e 90 62 e6 3d 07 b7 17 be b7 cb 03 3e
       0.13098817 0.11249268 -0.14815913 0.1287068
000040 6c 7c e0 3d 9c c2 52 bc 93 84 0c 3e f1 53 44 be
       0.109612316 -0.012863781 0.13722448 -0.19172646
000050 ea 28 28 be 70 6a 52 be a7 db d3 3d 52 f8 1f be
       -0.16421857 -0.20548415 0.1034463 -0.1562207
000060 42 8a bd 3d 48 fb 23 3e f7 2d eb 3c 59 9f e3 bd
       0.09254886 0.16013825 0.028708441 -0.111143775
000070 37 8e 38 be 79 68 31 3e 05 ff d4 bd 3a 96 36 3e
       -0.18023 0.1732501 -0.104002036 0.17830744
000080 ad 33 b5 3d 20 c6 22 be 5c 26 01 be bf 82 1a 3e
       0.08847747 -0.15895891 -0.12612289 0.15088938
000090 65 9d 2c be f6 25 e0 3d ea b6 b6 3d 84 c2 15 3e
       -0.16856916 0.109447405 0.08921607 0.14624983
0000a0 48 7f 11 bd 59 0d 15 bd a4 09 0c be b3 a2 92 3c
       -0.035521775 -0.036389682 -0.13675553 0.017899847
0000b0 f4 48 13 be 5a cd 10 be 4f 1c 39 be f3 5f 5e be
       -0.14383298 -0.14140835 -0.18077205 -0.21716289
0000c0 95 a1 09 be 65 67 10 3d 18 05 a2 bd 6b 5d 4e be
       -0.13440545 0.035254855 -0.07911128 -0.20152824
0000d0 47 73 e7 bd 68 28 2d be 78 11 0e 3e 50 8c 47 bd
       -0.11301284 -0.16909945 0.13873851 -0.048717797
0000e0 0f 49 a3 bd 23 a2 1e be 0f ea 54 be 4e 04 13 3e
       -0.07972919 -0.15491538 -0.20792411 0.14357111
0000f0 5f 0a 11 bc 47 cb 7b bd db 0d d8 3d f8 43 97 bd
       -0.00885257 -0.061473157 0.10549518 -0.07386011
000100 fc 14 a5 bd f3 56 29 be f3 9f 5d be e7 90 d2 bd
       -0.08060643 -0.16537075 -0.21643047 -0.10281544
000110 76 19 31 be 90 96 c8 3d d1 1f 81 3d 21 96 3a bd
       -0.17294869 0.097943425 0.063048966 -0.04555333
000120 8a 68 ec 3d 21 d2 4f be f3 c0 fe bd 48 a4 30 3b
       0.11543377 -0.20295002 -0.12439146 0.0026953388
000130 7c a9 04 3d 55 5a 4d bd 8f ed 44 3d 69 56 6d be
       0.032388195 -0.050134975 0.048078116 -0.23177494
000140 96 5b 46 3e a3 c9 ae bc 30 d7 16 3e de 76 32 be
       0.19370875 -0.021336382 0.14730525 -0.17428157
000150 bf 79 00 be da f1 cd 3d fe 96 4d 3c c7 8b 57 bd
       -0.12546442 0.10055895 0.012548206 -0.052623536
000160 05 a3 d6 bd 69 0a 05 3e e9 f5 23 3d cc 3d 70 bd
       -0.10480312 0.12992252 0.04002944 -0.058652684
000170 04 0c 9c 3c 2e 05 54 3d a3 b1 03 be eb df c5 bd
       0.019048698 0.051762752 -0.12860732 -0.096618496
000180 6f 48 21 bd af 52 7f 3d e1 7c ec 3d 64 c9 2f 3d
       -0.03937572 0.062334713 0.11547256 0.04291667
000190 b0 91 3e be b3 51 e1 bd 4d 55 ed 3d 3e 68 2c be
       -0.18610263 -0.11001911 0.115885355 -0.1683664
0001a0 20 d5 2a be e6 b8 9b bd bc 83 2e 3e f5 c1 0e bd
       -0.16682863 -0.07603626 0.1704244 -0.03485294
0001b0 13 91 0e 3e b7 6d df bc 3d e8 39 3e a0 3b 95 3e
       0.13922529 -0.027273996 0.18154998 0.29147053
0001c0 d7 58 b0 bd 73 a9 12 3e 3b 88 ac 3d c5 24 3a be
       -0.08610695 0.14322452 0.084244214 -0.18178089
0001d0 0c f0 09 be 2b 49 a7 bc 7a 7e c5 bd eb c7 78 bc
       -0.13470477 -0.020420631 -0.09643264 -0.015184383
0001e0 5d 5c 13 3d f2 59 e4 bd 5d 63 a8 bd 10 72 aa 3d
       0.035976756 -0.11149968 -0.08222077 0.08322537
0001f0 2e 5d d1 bd 31 2c e7 bc c9 e4 23 be 9e de 46 bd
       -0.10222851 -0.028219314 -0.16005243 -0.048552148
000200 32 ef 25 3d 08 3a f2 bd d9 cc 57 3d a6 3b 3f be
       0.040511318 -0.11827475 0.052685592 -0.18675098
000210 d2 bf 48 be 62 46 04 3e 0c 9f e9 bd bd 9e 32 be
       -0.19604424 0.12917474 -0.11407289 -0.17443366
000220 f1 c1 f5 3d ed 79 d9 bd 94 64 57 3e 00 53 94 bd
       0.11999882 -0.106189586 0.21034461 -0.072423935
000230 91 17 bb bd c1 05 1a be 83 56 3f be 13 c6 53 be
       -0.09135354 -0.15041257 -0.18685345 -0.20681028
000240 4d f8 00 be da f1 2f 3e 52 62 80 bd d1 b4 c0 3d
       -0.12594719 0.17182103 -0.06268753 0.09409488
000250 2f e0 25 3e 2e 39 5c bd 6d 51 14 be e2 92 59 be
       0.161988 -0.05376547 -0.14484186 -0.21247438
000260 30 b7 e8 3d 45 c2 9d 3d 10 bf 06 3e fb 57 aa bb
       0.11363065 0.077030696 0.13158822 -0.0051984764
000270 8b 10 1a 3e 1e c5 49 be 0b 81 14 3e da ea 84 bc
       0.15045373 -0.197041 0.14502351 -0.016225267
000280 aa 56 18 be 81 fa 1c be ed 7a 89 bd 6e 51 c5 bd
       -0.1487681 -0.15329935 -0.06712899 -0.09634672
000290 fd 22 15 be 3f 5f 1d bd 54 cb c9 bd da 0d ed 3d
       -0.14564128 -0.038420912 -0.09853235 0.115749076
0002a0 49 0d e7 bc 9f cf bc 3d 7b 15 aa 3d 60 36 a0 bd
       -0.028204577 0.09219288 0.08304878 -0.07822871
0002b0 93 14 00 be 4c df 42 3c c0 58 e8 bb 53 7f 05 3e
       -0.12507848 0.011894058 -0.007090658 0.13036852
0002c0 0d f8 a3 bd 44 09 61 bd 15 95 ad bc 8e 83 49 be
       -0.08006296 -0.054940477 -0.021189252 -0.1967909
0002d0 0e 13 ef 3b 84 c2 33 bd 04 58 11 be 00 8a d7 ba
       0.0072959727 -0.043886676 -0.14193732 -0.0016444325
0002e0 58 35 ca bc 84 11 5d be ec 6f da 3d c1 17 a8 bd
       -0.02468364 -0.21588713 0.10665879 -0.08207656
0002f0 7f aa 06 be 5a 87 38 3d ab fb 16 3e 29 89 b3 bd
       -0.13150977 0.045050956 0.14744441 -0.087663956
000300 0b 7e 43 3e b4 0d 92 3d b7 70 b5 bc c2 90 6b 3e
       0.1909105 0.0713152 -0.022148473 0.2300444
000310 cd ac 84 bc 5e 01 12 be dd de 89 bd 0e e2 dc bd
       -0.01619568 -0.14258334 -0.06731961 -0.10785304
000320 fd 06 3f be a5 f4 a1 3d 8d 5c e3 bd 21 33 2f bd
       -0.1865501 0.0790799 -0.11101637 -0.04277337
000330 95 79 28 be 5b 2f ad 3d e2 be 0a bd 24 49 1b 3e
       -0.1645263 0.08456298 -0.033873446 0.1516462
000340 a7 b6 e5 bd 5d d7 f3 bd ef 57 36 3e bc 81 cd bc
       -0.11216479 -0.11906312 0.17806982 -0.025086276
000350 1b 02 37 be 33 ec d5 3d d2 5a dd 3d 9f 50 13 be
       -0.17871897 0.10445442 0.10808338 -0.14386223
000360 d5 ab 40 3b 8d b4 3e be aa 3f 36 be 8c 3b e6 3d
       0.0029399295 -0.18623562 -0.17797723 0.112418264
000370 a5 8c c6 3d 5b c7 07 be 52 5d fe 3d df 74 dd bd
       0.096947946 -0.13259642 0.12420143 -0.10813307
000380 34 56 03 be fc 74 39 bd 8f cc d9 3c 9c 41 fb bd
       -0.12825853 -0.04527758 0.026586799 -0.12268373
000390 5a 6a 70 3d 3a ec ea bc d3 55 3e 3d 10 e6 ec bd
       0.058695175 -0.028677095 0.046468567 -0.115673184
0003a0 29 42 bc 3d d8 91 d4 bd fe 6c 28 be fb 1d 0f be
       0.091923065 -0.1037938 -0.16447827 -0.1397628
0003b0 f1 b2 e2 3d ba af 01 be 89 b4 ac 3c 6e 90 4f be
       0.110692866 -0.1266469 0.02108218 -0.2026994
0003c0 75 77 e6 bd ff dd b1 bd a5 6c 41 be 1c b1 7b be
       -0.11253253 -0.086849205 -0.18889101 -0.2457928
0003d0 04 07 46 be 38 5d 2d be e5 66 04 be 9a bf d0 3d
       -0.19338614 -0.16930091 -0.12929876 0.10192795
0003e0 1e fe 26 3e 92 f1 fe 3d 23 5a b8 bd 45 24 b2 3d
       0.16307876 0.1244842 -0.09001567 0.08698324
0003f0 8f 7b 1e bd b2 96 fa bc cb 31 82 be 18 4d 69 3c
       -0.038692053 -0.030589435 -0.25428614 0.014239572

bias f4 [10]
000000 18 11 27 be c6 26 26 3e 9c 17 3b be 0b c3 d9 3d
       -0.16315114 0.16225728 -0.18270725 0.106329046
000010 06 37 55 bd 1c 9f 4e be 13 f9 0c 3d f7 53 31 bd
       -0.052054428 -0.20177883 0.034417223 -0.043292966
000020 c1 af 5c bc 55 a5 3d be
       -0.013469637 -0.185201
